efficient_global_pointer/saved_model/ner_model_f1_0.00.pth (torch, 438555 bytes, 4 tensors)

weight f4 [128, 768]
0	0xb8ef9ac0	-0.000114252325
1	0x3bbbd78d	0.0057324828
2	0x3cf879ca	0.030331511
3	0x3d1276d7	0.035757866
4	0xbcd546ff	-0.02603483
5	0xbce0003e	-0.027343865
6	0xbbe7d56f	-0.007075004
7	0xbcb0b747	-0.021571768
8	0x3c157db1	0.009124205
9	0x3cb4de57	0.022078676
10	0x3cc3b2a7	0.023888899
11	0xbd05218c	-0.032502696
12	0xbcd850a7	-0.026405646
13	0xbcdb1df7	-0.026747687
14	0xbab27ed4	-0.001361812
15	0xbcdd902a	-0.027046282
16	0x3ce9b028	0.02852638
17	0x3bd69e1f	0.006549611
18	0xbcfd7309	-0.030938642
19	0x3cf61f71	0.03004429
20	0x3d04cc28	0.03242126
21	0xbcd1c386	-0.025605928
22	0xb98051da	-0.00024475047
23	0xbc3b5829	-0.011434593
24	0x3cec0ca8	0.028814629
25	0x3d16ec97	0.036846723
26	0x3b01dd2a	0.0019815662
27	0xbc8bac27	-0.017049862
28	0xbc741da4	-0.014899645
29	0xbc76b9fd	-0.0150589915
30	0xbd082a3d	-0.033243407
31	0x3cfae4ae	0.030626621
32	0xbc184eff	-0.009296178
33	0xbcb39565	-0.021921823
34	0x3cbadebb	0.022811284
35	0x3c95f7fe	0.018306728
36	0x3ccbd1c5	0.0248803
37	0xbcb2e466	-0.021837424
38	0xbd0e11fc	-0.03468512
39	0xbd05912d	-0.032609154
40	0x3cf67600	0.030085564
41	0xbccaf5c6	-0.024775397
42	0xbcebbcac	-0.02877649
43	0xbc3d92c0	-0.011570632
44	0xbcae95ce	-0.021311667
45	0xbd080f2c	-0.033217594
46	0x3c894d2f	0.016760437
47	0x3a3e628a	0.0007262608
48	0xbd0e29c4	-0.0347078
49	0xbd04b4d2	-0.032399006
50	0xbb1baea8	-0.0023755226
51	0xbd03efcb	-0.032211106
52	0x3cf2f6aa	0.029658634
53	0x3c944b77	0.01810239
54	0x3cbaa763	0.022784894
55	0xbc0474ac	-0.008084457
56	0x3c146175	0.009056439
57	0x3b3bca59	0.0028654544
58	0x3d06e7b0	0.0329358
59	0xbc9d22fb	-0.019181719
60	0xbc9e5d61	-0.019331636
61	0x3cac9360	0.021066368
62	0x3c7149c0	0.014727056
63	0x3b4984e0	0.0030749366
64	0xbcfd337a	-0.030908335
65	0xbc656b2c	-0.014002603
66	0xbc2bf510	-0.010495439
67	0xbc1d8352	-0.009613829
68	0xba9e6040	-0.0012083128
69	0x3cdd69fe	0.02702808
70	0x3a30b422	0.0006740709
71	0x3c9e7960	0.019344985
72	0xbc3b0b1a	-0.011416221
73	0xbc603786	-0.013685113
74	0xbcd353a6	-0.025796723
75	0x3c96f35d	0.018426592
76	0x3cdf3d92	0.027251039
77	0x3c1ef7a7	0.0097026
78	0x3a9b786e	0.0011861452
79	0x39548b2c	0.00020269741
80	0xbcce0b2f	-0.025151817
81	0x3c84f0b3	0.016228056
82	0x3b7109f8	0.0036779623
83	0xbce6c544	-0.028170235
84	0xbcfe72e9	-0.031060653
85	0xbcbb9302	-0.022897247
86	0xbd0782fe	-0.03308391
87	0xbc15e747	-0.009149379
88	0xbbda3115	-0.006658683
89	0xbd03460d	-0.032049228
90	0x3bbb4a26	0.0057156263
91	0x3c50126c	0.012699705
92	0xbcdbbd70	-0.02682373
93	0x3cbb6c6d	0.02287885
94	0x3ba98189	0.0051729125
95	0x3c20b122	0.009807857
96	0x3cc79f0b	0.02436783
97	0xbc030d70	-0.007998809
98	0x3cd784e9	0.026308494
99	0xbb5579cd	-0.003257382
100	0xbcae1264	-0.021249004
101	0x3c557cdf	0.01303026
102	0xbd0ff165	-0.03514232
103	0xbce4f8f3	-0.02795074
104	0xbd06718d	-0.032823134
105	0x3c5d5d4c	0.013511013
106	0x3a369911	0.00069655577
107	0xbc719540	-0.014745057
108	0xbd0695ba	-0.032857634
109	0x3b3ee4a0	0.002912797
110	0xbce748f4	-0.028233029
111	0x3cc31ead	0.023818338
112	0xbd0a2e0c	-0.03373532
113	0xbcb17dce	-0.021666434
114	0xbc9c05f0	-0.0190458
115	0xbc958c32	-0.018255327
116	0x3cc9d92f	0.024639694
117	0xbd03d928	-0.03218952
118	0x3b7f42d8	0.0038949754
119	0x3c9a7678	0.018855318
120	0xbd10b301	-0.03532696
121	0x3c0006fa	0.007814163
122	0x3c5c5167	0.013447142
123	0x3d0778cf	0.033074196
124	0x3c759abc	0.014990505
125	0xbcdc0868	-0.026859477
126	0xbbc88aeb	-0.006120076
127	0xbc92838a	-0.017884988
128	0x3c18bac6	0.009321874
129	0x3d011900	0.031517982
130	0xbc702b08	-0.014658697
131	0xbceee9c9	-0.029164212
132	0xbbc04b74	-0.0058683697
133	0xbd001946	-0.031274103
134	0x3c3e7d2b	0.011626522
135	0xbc750345	-0.014954393
136	0x3b03e977	0.002012817
137	0xbd0416e3	-0.03224839
138	0xbc6dc7d7	-0.014512978
139	0xbd00d8de	-0.03145682
140	0xbcfc3435	-0.030786613
141	0x3ab148e0	0.0013525747
142	0x3cd8610e	0.026413467
143	0xb965a833	-0.00021901801
144	0x3cf0f6e0	0.029414594
145	0xbd05d6e7	-0.03267565
146	0xbc9d4180	-0.019196272
147	0xbc01727d	-0.007900831
148	0xbce901c8	-0.028443232
149	0x3cfaa689	0.030596988
150	0xbc91b69d	-0.017787272
151	0xbcaea498	-0.021318719
152	0xbd10e2e7	-0.03537264
153	0x3ce67759	0.028133081
154	0x3bf01240	0.0073263943
155	0x3b80bb51	0.00392858
156	0x3cbf1df6	0.023329716
157	0xbc4d13f5	-0.012516965
158	0xbc6ccade	-0.014452664
159	0xbbdbe212	-0.0067102993
160	0x3cc7e4bb	0.02440106
161	0xbd04b27f	-0.03239679
162	0xbcd346cc	-0.025790595
163	0xbd083f0d	-0.033263255
164	0xbc6fd2ee	-0.014637692
165	0xbcacf9f8	-0.021115288
166	0xbaa3bb9c	-0.0012491825
167	0xbbca76cf	-0.006178714
168	0xbbe8d9d5	-0.0071060457
169	0xbcb0a7c3	-0.02156437
170	0xbaf8028c	-0.0018921657
171	0xbc9974fe	-0.018732544
172	0x3cf85891	0.03031567
173	0x39577557	0.0002054771
174	0x3d116a4e	0.03550177
175	0x3cc422a9	0.023942309
176	0x3ce97b6d	0.028501237
177	0x3c815098	0.0157855
178	0x3ce69529	0.028147297
179	0xbcb7a6a4	-0.022418328
180	0x3b288f10	0.0025720038
181	0x3bbc787b	0.005751667
182	0xbcd577f3	-0.026058173
183	0xbcc48e54	-0.023993649
184	0xbbc0656e	-0.0058714664
185	0xbd0654a7	-0.032795575
186	0xbcd90a9b	-0.026494315
187	0x3cb2e585	0.021837959
188	0xbc4dcbe5	-0.012560819
189	0xbcc49a18	-0.023999259
190	0x3c110c28	0.008852996
191	0x3ca82e3e	0.020529862
192	0xbcc7598d	-0.024334693
193	0xbc1efd52	-0.009703951
194	0xbd00b121	-0.031418923
195	0x3cbeb62c	0.023280226
196	0x3caab07b	0.020836106
197	0xbbe6871a	-0.0070351483
198	0xbc89befc	-0.016814701
199	0xbb502fd7	-0.0031766796
200	0xbd024350	-0.031802475
201	0xbcb59f56	-0.022170704
202	0x3c746732	0.014917182
203	0x3bbc44e5	0.0057455176
204	0xbcc9f457	-0.024652643
205	0xbc812b34	-0.015767671
206	0xba70b9ad	-0.0009182941
207	0x3c93a54a	0.018023152
208	0x3d0fb8d6	0.035088383
209	0x3c624f8e	0.013812913
210	0xbce90711	-0.028445752
211	0xbd0ede92	-0.03488023
212	0xbd0c8d36	-0.034314357
213	0xbc8701a9	-0.016480284
214	0xbbdff10b	-0.0068341545
215	0x3d10bf3b	0.03533862
216	0xbc67e23d	-0.0141530605
217	0xbbddd6e1	-0.0067700003
218	0x3b9f8f37	0.0048693675
219	0x3c141fa4	0.009040747
220	0xbc8a84c8	-0.016909018
221	0xbcbbfaff	-0.022946833
222	0x3c4843cb	0.012223194
223	0xbcb8e618	-0.022570655
224	0x3b9a616d	0.004711321
225	0xbccdf5a4	-0.025141545
226	0x3cc619ed	0.024182284
227	0x3ccaeba1	0.02477056
228	0x3ceb255b	0.028704336
229	0x3c6c1fa3	0.01441184
230	0xbcf62ef9	-0.030051695
231	0xbd04d8b9	-0.032433245
232	0xbc3f3bef	-0.011672004
233	0xbc1840c5	-0.009292786
234	0x3ce4f7b1	0.02795014
235	0xbcc51b0e	-0.024060752
236	0xbc9a8946	-0.018864285
237	0x3d07b56c	0.033132
238	0x3bacec15	0.0052771666
239	0xbcedb454	-0.029016651
240	0x3c85cd81	0.016333343
241	0xbd025bda	-0.031825878
242	0x3b9f1af2	0.004855507
243	0x3d040606	0.032232307
244	0xbcc201e0	-0.023682535
245	0xba66f423	-0.0008810183
246	0xbcf17956	-0.029476803
247	0xbc3a4501	-0.011368991
248	0x3cb806e4	0.022464223
249	0x3cff3571	0.031153413
250	0xbcd1ef79	-0.025626885
251	0xbc9573c0	-0.01824367
252	0x3cac27b9	0.021015035
253	0xbcc48c4e	-0.023992684
254	0xbc8535c4	-0.016260989
255	0xbd11a448	-0.03555706

bias f4 [128]
0	0x3cfd42ea	0.030915696
1	0xbcff40c0	-0.031158805
2	0xbca492be	-0.020089503
3	0xbca2097d	-0.019779915
4	0x3b0a7f5c	0.002113304
5	0x3cc33416	0.023828547
6	0x3cc68884	0.024235018
7	0xbcf6dc1f	-0.030134259
8	0xbac214ee	-0.0014807263
9	0xbcebb58d	-0.028773094
10	0x3cc6a2bc	0.02424752
11	0x3cbb47cb	0.022861382
12	0x3d0ebe81	0.034849647
13	0xbc9197e2	-0.017772619
14	0xbd0e57fc	-0.034751877
15	0xbd0dbd64	-0.034604445
16	0xbcd281a8	-0.02569659
17	0xbc67960d	-0.014134896
18	0x3cbc7dcd	0.023009205
19	0xbc9a5bc9	-0.018842595
20	0xbccbcbc2	-0.024877433
21	0x3c20ae6a	0.009807209
22	0xbb9c8da5	-0.0047776275
23	0xbb9da4b2	-0.004810893
24	0xbcf538a2	-0.029934231
25	0x3ccf5550	0.025309235
26	0x3d0b8bb8	0.034068793
27	0xbd071162	-0.032975562
28	0xbcb7612d	-0.022385204
29	0xbb5c23bf	-0.0033590642
30	0x3c9aa8e2	0.018879358
31	0xbc045f77	-0.008079401
32	0x3c22f14b	0.009945224
33	0x3d170e36	0.036878787
34	0x3d1353af	0.03596848
35	0x3c65da86	0.014029151
36	0xbb48f9fb	-0.0030666578
37	0x3afdee1e	0.0019373333
38	0xbc6b858e	-0.014375104
39	0xbcd9c5c7	-0.026583565
40	0xbcc62aa7	-0.02419026
41	0xbcd5fbcb	-0.02612104
42	0x3cb6a30f	0.02229455
43	0xbc55e531	-0.013055132
44	0x3caf16ed	0.021373237
45	0x3c3f1c60	0.01166448
46	0xbcde9e0d	-0.027174974
47	0xbce950d5	-0.028480927
48	0xbc273623	-0.010205778
49	0xbc9bdacc	-0.019025229
50	0xbb73e13a	-0.0037213103
51	0x3beadf26	0.0071677146
52	0x3cbc55e5	0.022990176
53	0x3bfe1d73	0.0077549755
54	0x3c8da640	0.017291188
55	0x3c5240ff	0.012832879
56	0x3c8e2189	0.017349975
57	0xbc5dba13	-0.013533133
58	0xbbac9bf7	-0.005267616
59	0x3c8505bc	0.016238086
60	0xbcd6b02c	-0.026207052
61	0x3a7f5d66	0.00097413955
62	0x3cbfdc82	0.023420576
63	0x3cd56b50	0.026052147
64	0x3cccc51b	0.024996331
65	0x3ca839a6	0.020535301
66	0x3b847936	0.00404277
67	0xbc418f4e	-0.011813952
68	0xbcf5670f	-0.029956369
69	0x3b0cca37	0.0021482834
70	0x3ca13cb8	0.019682273
71	0xbbe432ca	-0.0069640623
72	0x3b08f05b	0.0020895216
73	0xbc8e8e7a	-0.017401922
74	0x3ca12dd7	0.019675178
75	0xbc04484a	-0.008073876
76	0xbbdf78fd	-0.006819843
77	0x3c8b7834	0.01702509
78	0xbc797a6f	-0.015226944
79	0x3d0765ab	0.033055943
80	0x3ce88bd6	0.028386991
81	0xbb3a5784	-0.002843351
82	0xbcc7ae84	-0.024375208
83	0xbd058e99	-0.032606695
84	0x3c8af05a	0.016960312
85	0x3c37415d	0.011185017
86	0x3b4510e9	0.0030069894
87	0xbcd7cfa8	-0.026344135
88	0x3c7c8733	0.015413093
89	0xbc9663ed	-0.018358195
90	0xbd0a41df	-0.033754226
91	0x3b0a0904	0.0021062503
92	0xbbe4799d	-0.0069725052
93	0xbcfc6768	-0.030811027
94	0xbc8ff8ad	-0.017574633
95	0x3d16a1a9	0.036775265
96	0xb9d735ac	-0.00041047984
97	0x3d0204bb	0.031742793
98	0x3c3f4889	0.011675009
99	0x3a019293	0.0004942801
100	0xba9eec59	-0.001212488
101	0x3ba6e77d	0.0050935135
102	0xbbb3719a	-0.005476189
103	0x3b8318c7	0.0040007564
104	0x3d046188	0.032319576
105	0x3bdaee5f	0.006681248
106	0x3cd756e9	0.02628656
107	0xbccc3cb8	-0.024931297
108	0x3d07cf12	0.033156462
109	0x3c282eb4	0.010265041
110	0x3b8974c5	0.004194828
111	0xbce17e8e	-0.027526166
112	0x3cedaeb0	0.029013962
113	0x3ccd2028	0.025039747
114	0xbca2b65c	-0.019862346
115	0xbbc5320b	-0.0060179285
116	0x3d0e3096	0.034714304
117	0xbd01b618	-0.0316678
118	0xb87a137e	-5.96228e-05
119	0xbb605854	-0.0034232335
120	0xbc841057	-0.016121073
121	0xbc787f60	-0.015167087
122	0xbc63d0a5	-0.013904725
123	0x3cd2aa7f	0.025716064
124	0xbbec5e05	-0.0072133564
125	0x3cfa176d	0.030528748
126	0x3cca41fb	0.024689665
127	0xbc948169	-0.018128114

weight f4 [14, 768]
0	0xbcd7efbb	-0.02635943
1	0xbcdf9481	-0.027292492
2	0xbc6ed095	-0.014576097
3	0x3c041ebb	0.008063967
4	0x3cef9c25	0.02924926
5	0x3ab0fbd8	0.001350279
6	0xbce9638c	-0.02848985
7	0x3c16084a	0.00915725
8	0x3ac6686f	0.0015137325
9	0x3d1160d9	0.03549275
10	0x3c304039	0.010757499
11	0x3a9f294b	0.0012143044
12	0x3d0859ff	0.033288952
13	0xbd14e26e	-0.036348753
14	0xbc91e8f9	-0.017811285
15	0x3c3c32bf	0.011486708
16	0x3cf16ac8	0.029469863
17	0xbc44998d	-0.0119995
18	0xbd0063b6	-0.03134509
19	0x3cd50976	0.026005488
20	0xba520f8d	-0.00080131815
21	0x3ca77a40	0.020444036
22	0x3afb04d4	0.0019151219
23	0x3bfdf9fa	0.007750747
24	0xbca69edc	-0.020339422
25	0xbbdff6df	-0.0068348492
26	0xbcb1f0b9	-0.02172123
27	0xbd081f23	-0.03323282
28	0x3c8c7fc1	0.017150762
29	0xbcf61fb2	-0.03004441
30	0xbb206cf2	-0.0024479
31	0xbc10ef83	-0.008846167
32	0xbc71fe71	-0.014770136
33	0xbceec8e0	-0.029148519
34	0x3caf8043	0.021423465
35	0x3ce0e683	0.027453667
36	0x3aa56a65	0.0012620209
37	0x3cce254f	0.025164274
38	0xbb222393	-0.0024740442
39	0xbce213d4	-0.027597345
40	0x3bbcea14	0.005765209
41	0x3c952c9e	0.018209752
42	0x3c8ad3e0	0.016946733
43	0x3c402d4e	0.0117295515
44	0xbd08ae98	-0.03336963
45	0x3cf1c019	0.029510545
46	0xbd1531d3	-0.03642447
47	0xbbcaf3ca	-0.0061936127
48	0x3b140675	0.0022586857
49	0x3cca8b6a	0.02472468
50	0x3be0758c	0.00684995
51	0xbc5f432e	-0.013626857
52	0x3c16b303	0.009197953
53	0xbcfab8d5	-0.030605713
54	0x3b2ceb46	0.002638535
55	0xbc0f0134	-0.008728314
56	0x3b8c7a02	0.0042870054
57	0xbbc519d3	-0.0060150414
58	0xbc088db2	-0.008334564
59	0x3c50a2cf	0.012734129
60	0xbd0223a7	-0.031772282
61	0x3ae725a9	0.0017635125
62	0x3cffd88c	0.031231187
63	0x3c505547	0.012715644
64	0xbc42155a	-0.011845911
65	0x3c1325b6	0.008981159
66	0xbd0d58ba	-0.034508444
67	0xbcdaaade	-0.026692804
68	0xbc4dfbaf	-0.012572213
69	0x3c04f9fc	0.008116242
70	0xbba7c545	-0.005119952
71	0x3d189e43	0.037260305
72	0x3cb8b3ea	0.022546727
73	0xbd04ce2f	-0.032423194
74	0xbc9fad9d	-0.019491965
75	0xbd02e347	-0.03195503
76	0x3b070ab2	0.002060574
77	0x3ceef158	0.029167816
78	0xbd08b678	-0.03337714
79	0x3be4e2f0	0.006985061
80	0x3bf85c7e	0.0075793853
81	0x39abf6eb	0.0003279963
82	0xbcdff49a	-0.027338315
83	0xbc0f1f69	-0.008735516
84	0x3ce95624	0.028483458
85	0x3b856e0d	0.004071957
86	0xbc63b949	-0.013899156
87	0x3caa3a45	0.020779738
88	0xbcd8b189	-0.026451843
89	0xbc2d2223	-0.010567221
90	0x3c4a2835	0.012338688
91	0xbc898bd9	-0.016790317
92	0x3c93ffcb	0.018066308
93	0x3d01b83d	0.031669844
94	0xbd0a2dc5	-0.033735055
95	0xbbc8d4d8	-0.0061288886
96	0x3cff8167	0.031189634
97	0xbc34da94	-0.011038441
98	0xbbab2de4	-0.0052239764
99	0x3cded0c3	0.027199155
100	0x3c3a7f6b	0.011382918
101	0xbcb1c6d6	-0.021701258
102	0xbd074c78	-0.03303191
103	0x3c985fa7	0.018600298
104	0xbcbe12cb	-0.02320232
105	0xbbf6e304	-0.0075343866
106	0xbca54c7b	-0.02017807
107	0xbc836ef5	-0.01604412
108	0xbc62ea3b	-0.01384979
109	0x3cf7456c	0.03018447
110	0xbc993896	-0.01870374
111	0x3d09f380	0.033679485
112	0xbb9559d5	-0.004557828
113	0xbc2b862d	-0.010469002
114	0xbccea739	-0.025226222
115	0x3d053340	0.03251958
116	0x3b9416d0	0.004519321
117	0xbc88bec0	-0.01669252
118	0xbb91b55e	-0.0044466695
119	0xbc3abeeb	-0.011398057
120	0x3c9dcef6	0.019263726
121	0x3c4938f2	0.012281643
122	0xbd0e6759	-0.03476653
123	0x3d0b9f6e	0.03408759
124	0xbc66bd35	-0.014083196
125	0xbc1bf3c2	-0.009518566
126	0xbb900279	-0.004394826
127	0xbce066b1	-0.027392717
128	0x3d11492f	0.035470184
129	0xbc2cd55f	-0.0105489185
130	0x3cdffddb	0.027342727
131	0x3c8d53f8	0.017251953
132	0x3c439b75	0.011938919
133	0x3d04145f	0.03224599
134	0xbcb5be88	-0.022185579
135	0x3b95f5d2	0.004576423
136	0xbccb712e	-0.024834242
137	0x3cc096b9	0.02350937
138	0x3cb0f187	0.021599544
139	0x3c67d63a	0.014150197
140	0x3bc633ce	0.006048656
141	0x3bd1b8ff	0.006400227
142	0x3b2b59bd	0.0026146017
143	0xbc9ba4f2	-0.01899955
144	0xbd083e85	-0.03326275
145	0x3c4b2311	0.012398497
146	0x3bc200d2	0.005920508
147	0xbc809066	-0.015693855
148	0xbb1863db	-0.0023252878
149	0x3cffcd1c	0.031225733
150	0x3c9431f9	0.018090235
151	0x3cee8707	0.02911712
152	0xbceeca18	-0.0291491
153	0x3c3c0b17	0.011477253
154	0x3ca81edb	0.020522526
155	0xbc94f3b7	-0.018182619
156	0x362dcce1	2.5898264e-06
157	0xba01ca00	-0.000495106
158	0x3ce1a91d	0.02754646
159	0x3d107396	0.03526648
160	0x3ce075dc	0.02739995
161	0xbba7afe0	-0.0051174015
162	0xbc92010f	-0.01782277
163	0x3c415e30	0.011802241
164	0x3a46a602	0.00075778377
165	0xbc34d6b4	-0.011037517
166	0xbb1eb784	-0.002421827
167	0xbc17dbd5	-0.009268721
168	0x3c9a2f35	0.018821338
169	0xbc38793e	-0.011259375
170	0x3cc6dae2	0.024274293
171	0xbcc7252d	-0.024309719
172	0x3c868cac	0.0164245
173	0xbc0e48a8	-0.008684315
174	0xba036b45	-0.0005013238
175	0xbcc02e46	-0.023459565
176	0xbcb699bf	-0.022290109
177	0x3c0edd6c	0.008719783
178	0x3d06156c	0.032735273
179	0xbcc5b4dd	-0.024134094
180	0x3c80c5a0	0.015719235
181	0xbb3e0b8d	-0.0028998584
182	0x3ca41d99	0.020033645
183	0x3ca2dd8d	0.019881034
184	0x3b826a8e	0.0039799875
185	0xbcc80ee9	-0.024421172
186	0x3b22a7ab	0.0024819176
187	0x3b4d9f34	0.003137541
188	0xbcfdd286	-0.030984174
189	0x3b9335dc	0.0044925045
190	0xbce11471	-0.027475568
191	0xbc7af051	-0.015316085
192	0xbbec48cb	-0.007210826
193	0xbcb779dd	-0.022396976
194	0x3cad97f8	0.021190628
195	0x3c7c9ec7	0.015418715
196	0x3c6e2083	0.014534119
197	0xbcf00dcc	-0.029303454
198	0x3c80eae4	0.015737005
199	0xbbecff9e	-0.0072326204
200	0x3a937763	0.001125079
201	0xbcb8737f	-0.02251601
202	0x3d18eb71	0.03733391
203	0x3b3cbe52	0.0028799963
204	0x3d0631d7	0.032762375
205	0x3cacf4bd	0.021112794
206	0xbc846dd9	-0.01616566
207	0x3d10a91b	0.03531752
208	0xbc9d738c	-0.019220136
209	0xbb55cbe3	-0.0032622747
210	0x3c8903a9	0.016725378
211	0xbcae4cb0	-0.021276802
212	0x3cade70c	0.021228336
213	0x3d0dab77	0.03458735
214	0xbbe83ddd	-0.007087453
215	0xbc062f49	-0.008189985
216	0xbcaa8ad3	-0.02081815
217	0xbcbfb0b9	-0.023399698
218	0x3cef4ab6	0.02921043
219	0x3c8a1eef	0.016860453
220	0xbcf92a94	-0.03041581
221	0x3c1df90b	0.009641896
222	0x3c977e4d	0.018492842
223	0x3be744fa	0.007057783
224	0x3cdc78bb	0.026913038
225	0x3c6e783c	0.014555033
226	0x3c2fa4d7	0.010720453
227	0x3c172770	0.009225711
228	0xbcfb90ef	-0.030708758
229	0x3d15ef1d	0.03660499
230	0x3cacf71b	0.021113923
231	0x3d083b1d	0.0332595
232	0x3a8ee681	0.0010902436
233	0xbcbdcab9	-0.023167955
234	0xbc9883e6	-0.018617582
235	0x3d0fc4f1	0.035099927
236	0x3a780b24	0.00094621093
237	0xbd0934fc	-0.033497795
238	0x3af31c17	0.00185478
239	0x3c17161c	0.00922158
240	0x3c6892c5	0.014195149
241	0xbd066750	-0.03281337
242	0xbc39ab66	-0.0113323685
243	0xbd0ee8de	-0.03489005
244	0xbd09222f	-0.033479866
245	0xbc888d3a	-0.016668905
246	0xbc86db62	-0.016462032
247	0xbd098579	-0.033574555
248	0x3cd59ee3	0.02607674
249	0x3cbc346d	0.022974217
250	0xbd0a935b	-0.033831935
251	0xbc0a0eae	-0.0084263515
252	0xbb809ab9	-0.0039246944
253	0x3b9c134d	0.004763043
254	0x3d109ee6	0.035307787
255	0x3cccebfd	0.025014872

bias f4 [14]
0	0x3c985317	0.018594308
1	0x399a3d28	0.00029418734
2	0x3bc2ef88	0.0059489645
3	0xbc176839	-0.009241157
4	0x3c2eca49	0.010668346
5	0xbcccb876	-0.024990302
6	0x3bd6d3cc	0.00655601
7	0x3cf5c0da	0.029999185
8	0xbab45cc8	-0.0013760561
9	0x3cf7c1aa	0.030243713
10	0x3cc9089f	0.024540244
11	0x3bb73cd1	0.0055919667
12	0xbbb73c3e	-0.005591898
13	0x3c0cef91	0.008602039
