efficient_global_pointer/saved_model/ner_model_f1_0.35.pth (torch, 438555 bytes, 4 tensors)

weight f4 [128, 768]
0.0026195997 -0.02405869 -0.020640234 0.021853529 0.028129045 -0.021260949 -0.04393848 -0.018462015
0.026039181 -0.028881896 0.017642656 -0.0027108917 0.034868814 0.0005758605 -0.031097127 -0.022012044
-0.0066760117 0.035205543 0.015296598 -0.019627387 -0.0067111086 -0.002159201 -0.010722513 -0.0012952631
0.008587714 0.00028752646 -0.019221112 -0.024071805 -0.005545856 -0.004976812 0.0007591456 -0.024234366
-0.018316071 0.020722322 -0.01938258 0.02668848 -0.019464355 -0.0061043017 0.010262279 0.0072683007
0.030653384 -0.030115394 -0.0048696203 -0.036428034 -0.027263584 -0.011482203 0.031882063 -0.03409702
0.008636731 0.0094049685 -0.0065536466 0.0031452705 -0.021394419 -0.00983986 0.040760506 -0.014992031
0.03732902 -0.014458547 -0.0056937207 0.0062264586 -0.03241462 -0.008339858 -0.018936496 -0.010789618
0.006931846 -0.003477482 0.012681574 -0.022415986 0.039673664 0.00044406505 -0.011784621 -0.032723177
-0.02597244 0.01601928 0.0045736236 -0.0062715583 0.004058872 0.030827481 0.0076898676 0.01078623
0.013867679 0.021397335 -0.0183231 0.007831502 0.03235103 -0.03161729 0.015593678 -0.032810137
-0.033019554 0.026677832 -0.0024252723 -0.012343078 0.011443605 -0.024007075 0.020032613 -0.007043261
-0.0007872436 -0.018718949 -0.03680292 -0.013584359 0.03321012 0.018751374 0.018988391 0.0059158616
0.013054069 -0.020890111 -0.037905097 0.0070486777 -0.036340278 0.0145055335 0.04144316 -0.011680806
-0.0112270145 0.00027461682 0.00284936 -0.0103723975 -0.0056963554 0.033234496 -0.024427833 -0.033303536
0.008608836 -0.0131952055 -0.005098522 -0.021904415 -0.030105032 -0.016292261 -0.01646012 -0.012363819
0.023086788 -0.022988627 -0.027622243 0.005797683 0.029850677 -0.005866071 -0.03613079 -0.012088182
-0.015865162 -0.027715655 0.011263238 -0.010442176 -0.01110306 -0.016409082 0.004678196 -0.0123922555
0.021561572 -0.016455458 -0.012205314 -0.013323737 -0.021013893 0.035948828 0.0374456 0.017322028
0.029852986 0.011503301 0.028078219 -0.011922933 -0.041422497 -0.008314926 0.017389394 0.002757682
-0.014033882 0.019797396 -0.022597725 0.011087162 0.039349325 0.0024442812 -0.023464857 -0.023406258
0.019619824 -0.033318818 -0.00076932734 0.015749598 -0.009879018 0.027714198 0.00013272151 -0.018025216
0.00559375 -0.043001775 0.02982594 0.03750733 0.012198961 0.009974991 -0.029877063 0.025754947
-0.015419556 -0.012463631 -0.017488707 -0.010355376 0.035081968 -0.0009043816 0.015373938 0.016563695
0.037014052 -0.026191961 -0.0012927841 0.026845237 -0.0054900628 -0.013120736 -0.015279223 0.027553782
0.00030963434 0.021609273 0.0034336469 0.013692322 -0.030378478 -0.007436031 0.005959863 -0.017982926
-0.01317879 0.008154529 -0.024285385 0.015309358 0.01562318 -0.008906748 -0.04005384 -0.025372483
0.0029765426 -0.016405923 -0.017506981 0.010969444 0.0069225635 0.030217929 0.012914736 -0.0015294215
-0.012751561 0.026525619 0.02250502 -0.02686822 0.03455815 -0.02647926 -0.02687718 4.40442e-05
-0.0071471166 0.0023947733 0.021792153 -0.031089474 0.02704263 -0.019910494 -0.026585985 -0.039402686
0.0006559113 0.037342247 -0.017416334 -0.010187178 0.0068831 -0.0011713392 0.021472994 -0.04269844
0.026300823 0.0058652116 0.026253354 -0.019469664 0.015573788 0.03298337 0.028857453 -0.017940715
00000000: 97ad 2b3b bb16 c5bc b515 a9bc 2c06 b33c
00000010: e26e e63c 712b aebc d6f8 33bd a73d 97bc
00000020: 1f50 d53c ba99 ecbc 5587 903c 37a9 31bb
00000030: 9ad2 0e3d 58f5 163a 67bf febc 9a52 b4bc
00000040: 72c2 dabb b033 103d 959e 7a3c 9dc9 a0bc
00000050: dce8 dbbb 6281 0dbb 7bad 2fbc d1c5 a9ba
00000060: 7cb3 0c3c 26bf 9639 9875 9dbc 3c32 c5bc
00000070: 03ba b5bb 8614 a3bb 6601 473a 2687 c6bc
00000080: 960b 96bc dcc1 a93c 37c8 9ebc cda1 da3c
00000090: b673 9fbc 9806 c8bb 1e23 283c ed2a ee3b
000000a0: ce1c fb3c 8fb4 f6bc 5691 9fbb 9035 15bd
000000b0: e157 dfbc da1f 3cbc c496 023d 51a9 0bbd
000000c0: 1381 0d3c 4c17 1a3c f9bf d6bb e220 4e3b
000000d0: 5943 afbc 5d37 21bc 7df4 263d 23a1 75bc
000000e0: 51e6 183d 8be3 6cbc 6492 babb 5207 cc3b
000000f0: 31c5 04bd e6a3 08bc b620 9bbc f0c6 30bc
00000100: 8a24 e33b 77e6 63bb 60c6 4f3c bba1 b7bc
00000110: da80 223d 67d1 e839 4814 41bc bd08 06bd
00000120: 28c4 d4bc dd3a 833c 56de 953b a581 cdbb
00000130: 4900 853b ea89 fc3c 49fb fb3b bab8 303c
00000140: 4335 633c 7749 af3c 531a 96bc b34f 003c
00000150: 8382 043d 2281 01bd a07c 7f3c ec63 06bd
00000160: 833f 07bd 788b da3c 51f1 1ebb 9f3a 4abc
00000170: f57d 3b3c 7caa c4bc 6f1b a43c 28cb e6bb
00000180: 065f 4eba 7b58 99bc a9be 16bd ee90 5ebc
00000190: 5607 083d 7b9c 993c 8b8d 9b3c d8d9 c13b
000001a0: bce0 553c bd21 abbc 6042 1bbd 98f8 e63b
000001b0: 8bd9 14bd 9ea8 6d3c 4ec0 293d da60 3fbc
000001c0: 83f1 37bc 72fa 8f39 54bc 3a3b fdf0 29bc
000001d0: 7ea8 babb e520 083d e11c c8bc 4a69 08bd
000001e0: 130c 0d3c b430 58bc 8111 a7bb e370 b3bc
000001f0: d49e f6bc 5977 85bc 60d7 86bc 9e91 4abc
00000200: 8120 bd3c a552 bcbc 0b48 e2bc 7dfa bd3b
00000210: 6889 f43c 2c38 c0bb e1fd 13bd 830d 46bc
00000220: a8f7 81bc f10b e3bc 7289 383c a915 2bbc
00000230: 9ce9 35bc 576c 86bc 8d4b 993b e308 4bbc
00000240: e5a1 b03c 99cd 86bc ccf8 47bc ce4b 5abc
00000250: 5425 acbc 143f 133d 8f60 193d ede6 8d3c
00000260: 408e f43c 5778 3c3c 4b04 e63c 6858 43bc
00000270: a3aa 29bd 543b 08bc 3474 8e3c 3aba 343b
00000280: 5eee 65bc 262e a23c dd1e b9bc eea6 353c
00000290: c22c 213d 3c30 203b 5f39 c0bc 7bbe bfbc
000002a0: c1b9 a03c 5079 08bd afac 49ba 4d05 813c
000002b0: 9bdb 21bc e308 e33c 292b 0b39 9ea9 93bc
000002c0: c74b b73b a122 30bd 8855 f43c 49a1 193d
000002d0: 27de 473c 256e 233c bec0 f4bc 0afc d23c
000002e0: 4ea2 7cbc 4234 4cbc 7a44 8fbc 98a9 29bc
000002f0: 1cb2 0f3d 0614 6dba f8e2 7b3c 96b0 873c
00000300: 0c9c 173d 8690 d6bc a372 a9ba 8bea db3c
00000310: fce5 b3bb 5bf8 56bc b555 7abc 78b8 e13c
00000320: 6b56 a239 ee05 b13c 0907 613b c355 603c
00000330: 49dc f8bc f3a9 f3bb f44a c33b ee50 93bc
00000340: daeb 57bc 939a 053c 25f2 c6bc 1ad4 7a3c
00000350: 5ef8 7f3c 9ced 11bc 7f0f 24bd f4d9 cfbc
00000360: 1912 433b b765 86bc cd6a 8fbc 2fb9 333c
00000370: acd6 e23b 978b f73c 5498 533c df76 c8ba
00000380: eceb 50bc 414c d93c 735c b83c be1a dcbc
00000390: d98c 0d3d 08eb d8bc 882d dcbc 1abc 3838
000003a0: 5c32 eabb a1f1 1c3b 7585 b23c 5aaf febc
000003b0: 8188 dd3c 551b a3bc daca d9bc b664 21bd
000003c0: 76f1 2b3a 2ff4 183d b3ac 8ebc 1fe8 26bc
000003d0: a18b e13b 9f87 99ba 22e8 af3c 8fe4 2ebd
000003e0: d374 d73c f630 c03b 4611 d73c d87e 9fbc
000003f0: 3429 7f3c 9219 073d 7766 ec3c 68f8 92bc

bias f4 [128]
-0.016081885 0.018764045 -0.0034445424 0.015933402 0.012938144 -0.026311731 -0.020815698 -0.009404675
-0.007362725 -0.03382652 0.008667207 0.026770547 -0.0024683115 0.013343174 0.008346863 0.007412912
0.010683114 0.007986419 -0.019598493 0.013659214 -0.024405338 -0.0070087966 0.038955197 0.022747656
0.025414284 0.04167327 0.00631911 -0.02291244 0.013022058 -0.021869143 0.0025818571 -0.022933913
0.032993622 0.031632755 -0.0013918593 -0.019527875 0.002983465 0.019849304 0.030984815 0.01742545
-0.023655497 -0.008365392 -0.013609047 -0.0053503485 -0.02154185 0.008601286 -0.03961614 -0.038064
-0.039203487 -0.00870476 -0.033405453 -0.042804148 -0.0075995 -0.021014662 -0.028086748 0.016148569
0.031813588 -0.009026466 0.044846915 0.02615717 -0.0069104154 0.017284334 0.007398599 -0.019776799
0.023130095 -0.028306883 -0.053205747 -0.005058868 0.007222147 -0.009882819 0.001232484 -0.03903422
-0.039152797 -0.0276732 0.039368734 -0.02005531 -0.017045626 -0.04394225 -0.016062038 0.032527182
-0.005034403 -0.0025980393 -0.0142571 -0.006310872 0.022647474 -0.047263283 0.0036177088 -0.052017946
0.04267596 0.018559543 0.006229658 0.026155468 -0.030821307 -0.009517207 -0.019131955 0.0014643589
-0.029901912 0.0047578076 -0.00978084 -0.011138582 -0.034896784 0.028983291 0.0069266027 -0.008915466
-0.027770603 -0.012076659 -0.04588171 -0.006026461 0.012029036 -0.018833231 0.04301303 -0.021004247
-0.04522052 0.002903763 -0.0076135877 -0.03932925 -0.0027430651 -0.0017744367 0.036167447 -0.041180898
0.0055083293 0.019382162 -0.0011985573 -0.02294022 -0.03235751 0.017652098 -0.04842599 0.042394146
00000000: 28be 83bc 0eb7 993c d5bd 61bb c486 823c
00000010: 82fa 533c b38b d7bc af85 aabc 1116 1abc
00000020: 0443 f1bb ad8d 0abd e700 0e3c e84d db3c
00000030: 65c3 21bb 549d 5a3c 48c1 083c 03e8 f23b
00000040: 3a08 2f3c 78d9 023c 058d a0bc e5ca 5f3c
00000050: b4ed c7bc 0caa e5bb 7c8f 1f3d 4b59 ba3c
00000060: 9e31 d03c 97b1 2a3d 8910 cf3b dfb2 bbbc
00000070: 785a 553c eb26 b3bc 6034 293b e7df bbbc
00000080: 5224 073d 5991 013d 0c6f b6ba ecf8 9fbc
00000090: 3d86 433b 029b a23c ded3 fd3c d1bf 8e3c
000000a0: 2cc9 c1bc ff0e 09bc 7bf8 5ebc fa51 afbb
000000b0: 8978 b0bc 69ec 0c3c 8944 22bd ffe8 1bbd
000000c0: d693 20bd 699e 0ebc 28d4 08bd 6753 2fbd
000000d0: 3a05 f9bb f126 acbc 2e16 e6bc 014a 843c
000000e0: f74e 023d bee3 13bc 66b1 373d 9047 d63c
000000f0: c470 e2bb e097 8d3c f26f f23b f402 a2bc
00000100: 537b bd3c d6e3 e7bc 45ee 59bd dcc4 a5bb
00000110: c3a7 ec3b 8ceb 21bc 4d8b a13a 59e2 1fbd
00000120: af5e 20bd e8b2 e2bc 1c41 213d 094b a4bc
00000130: 45a3 8bbc cafc 33bd 8994 83bc 393b 053d
00000140: a2f7 a4bb de43 2abb 9d96 69bc 6ecb cebb
00000150: 3287 b93c 2597 41bd 1517 6d3b c510 55bd
00000160: fdcc 2e3d 2f0a 983c 2922 cc3b fe43 d63c
00000170: f77c fcbc 0fee 1bbc 9eba 9cbc bbef bf3a
00000180: dbf4 f4bc 62e7 9b3b d13f 20bc 997e 36bc
00000190: eeef 0ebd 5e6e ed3c 8ef8 e23b 2d12 12bc
000001a0: 2d7f e3bc 2edd 45bc 76ee 3bbd 9e79 c5bb
000001b0: 6f15 453c 2648 9abc 6e2e 303d 1911 acbc
000001c0: 2739 39bd 0f4d 3e3b 677b f9bb b517 21bd
000001d0: ffc4 33bb 3794 e8ba 5124 143d 4dad 28bd
000001e0: 377f b43b 57c7 9e3c e918 9dba 21ed bbbc
000001f0: 4f89 04bd 229b 903c 555a 46bd 7ca5 2d3d

weight f4 [14, 768]
-0.0043359865 0.0044070086 -0.015587042 -0.015278382 -0.043052766 0.03518648 -0.010807999 -0.028497143
0.034264304 0.007045499 0.0002938158 0.030959724 0.03843635 -0.045409925 -0.03538479 0.0076180403
-0.028619627 0.0038733617 -0.04079555 -0.006814509 0.026216537 -0.045693897 0.031594917 -0.049327176
0.00688341 0.0274089 -0.0027354704 0.043326754 0.0055878195 0.013312386 -0.014512459 0.0005388701
0.051283907 -0.0052995733 0.008694871 0.034755826 -0.011123802 0.0025581445 0.049999893 0.0061553824
0.008397995 0.03698367 -0.0016664149 -0.036588907 0.010552677 -0.04002795 -0.008884326 -0.018260635
0.02317571 0.00705306 -0.004255001 -0.028668594 0.027731944 0.013231671 0.011754117 -0.005819509
0.006692258 0.03996285 0.028278774 -0.007511501 -0.012957819 0.012632307 0.023553694 0.039807223
-0.035479326 0.017321523 -0.03496978 -0.035591014 -0.0017683427 -0.023401266 -0.03189101 0.026574971
-0.013189698 0.0052131102 0.016582513 -0.03433619 -0.0027853416 0.040610902 -0.016425615 0.035793167
0.015545237 -0.05781605 0.011112826 0.0076058605 -0.014060234 -0.015197695 0.029381715 0.035501625
0.012216967 -0.011858865 -0.019781878 0.0030011248 0.024452977 -0.0030073586 -0.0136843 0.04403493
0.013951035 -0.008978002 0.04477826 -0.00685237 -0.008324707 -0.014169701 0.038964793 0.0070447265
-0.014586907 0.016672885 -0.00939745 0.003073087 0.0133544635 0.002808428 -0.03676282 0.017763842
-0.0064821504 -0.04733649 -0.03919772 0.04068472 0.015393954 -0.04771623 -0.046100505 -0.0056270594
0.010334003 -0.0019530994 -0.03742128 0.01049822 -0.005418662 0.024305262 -0.035705313 -0.009323865
0.021790773 -0.04678815 0.023357866 -0.012569464 -0.03022755 -0.008853132 -0.013671801 -0.0001657393
-0.0003180048 0.049180932 0.033184726 0.034074675 -0.017366216 0.0009026936 -0.009856279 0.005423253
0.03674616 0.00031889635 -0.026068345 0.03368005 -0.0083666695 -0.027738428 0.015955884 -0.0152971735
0.02197583 -0.015303117 0.03649946 0.013031656 -0.03382776 0.034685582 -0.04015373 0.025021568
-0.008668056 -0.027198374 0.011905885 0.009145548 -0.0038911162 -0.0055848877 0.0068034423 0.00402082
0.0051612393 -0.05986348 -0.0074490397 -0.019957878 0.0051048473 0.0105772475 0.022218835 -0.00945628
0.045980316 -0.006316812 0.016707445 -0.02445452 0.023336811 0.049414396 0.04162792 0.01263307
-0.013520058 -0.017512985 -0.024590554 0.036187302 -0.009244624 -0.05068555 0.0059723193 0.049614538
0.0072822133 0.03151054 0.009530862 -0.028484713 0.052501753 -0.008946733 -0.019483564 -0.012632859
0.021857282 -0.008133505 0.012090543 0.011591934 0.021618493 0.008009543 -0.0066934805 0.0053451755
0.03028853 0.04641334 0.03972386 0.024833184 -0.047584206 0.012236007 -0.051403172 -0.009957279
-0.04048394 -0.01865657 -0.0019973018 -0.008516097 -0.020288944 0.014503796 -0.04143125 0.032823518
0.026110366 -0.029369665 0.01424657 0.0012265207 -0.027853241 0.008333823 -0.015638346 0.035345256
0.011627582 0.040538076 0.010290605 0.030817166 0.019144101 0.003670898 0.0009867904 -0.022711946
0.017201161 -0.010913545 0.035241626 0.0008526528 0.040720712 -0.0037464607 -0.04663645 -0.004548965
0.0432835 -0.025170868 -0.04811166 0.020024216 -0.013088977 0.010158513 -0.0032799926 0.002525463
00000000: e414 8ebb ab68 903b cb60 7fbc 2e52 7abc
00000010: 1958 30bd b31f 103d 0914 31bc d772 e9bc
00000020: ba58 0c3d eedd e63b 4a0b 9a39 3f9f fd3c
00000030: 6f6f 1d3d c2ff 39bd a4ef 10bd c1a0 f93b
00000040: b573 eabc 3ad8 7d3b 3c19 27bd 3f4c dfbb
00000050: 10c4 d63c 8629 3bbd ac69 013d 4b0b 4abd
00000060: 3a8e e13b a188 e03c 9445 33bb 6577 313d
00000070: 071a b73b 321c 5a3c aac5 6dbc f642 0d3a
00000080: 130f 523d 0ba8 adbb ef74 0e3c 205c 0e3d
00000090: 9b40 36bc 8ba6 273b b0cc 4c3d 17b3 c93b
000000a0: be97 093c 307c 173d 9b6b daba 40de 15bd
000000b0: 23e5 2c3c 59f4 23bd 908f 11bc 5497 95bc
000000c0: fdda bd3c 5b1d e73b 896d 8bbb 66da eabc
000000d0: 1a2e e33c a7c9 583c 5794 403c 94b1 bebb
000000e0: bb4a db3b 16b0 233d e3a8 e73c 0a23 f6bb
000000f0: 084d 54bc bcf7 4e3c adf3 c03c e60c 233d
00000100: c552 11bd dee5 8d3c 793c 0fbd e2c7 11bd
00000110: bcc7 e7ba 03b4 bfbc 26a0 02bd c1b3 d93c
00000120: 9a19 58bc bdd2 aa3b 0dd8 873c 1ba4 0cbd
00000130: 478a 36bb 9e57 263d 038f 86bc db9b 123d
00000140: 73b1 7e3c 86d0 6cbd 9212 363c 953a f93b
00000150: e55c 66bc c1ff 78bc ecb1 f03c 276a 113d
00000160: ac29 483c af4b 42bc 9b0d a2bc 85ae 443b
00000170: 9c51 c83c 1b17 45bb 1d34 60bc f95d 343d
00000180: e292 643c 7818 13bc 6969 373d d989 e0bb
00000190: 5a64 08bc 0928 68bc 8c99 1f3d 73d7 e63b
000001a0: ecfd 6ebc 9395 883c c3f7 19bc d865 493b
000001b0: aecc 5a3c 9a0d 383b 9c94 16bd 7a85 913c
000001c0: 3868 d4bb e8e3 41bd ca8d 20bd 05a5 263d
000001d0: ec36 7c3c 1872 43bd e2d3 3cbd 3263 b8bb
000001e0: f34f 293c 24ff ffba 0e47 19bd ba00 2c3c
000001f0: 088f b1bb d41b c73c bc3f 12bd 20c3 18bc
00000200: 9082 b23c eea4 3fbd ff58 bf3c 27f0 4dbc
00000210: c49f f7bc ba0c 11bc b1ff 5fbc 4eca 2db9
00000220: e2b9 a6b9 f271 493d b5ec 073d e391 0b3d
00000230: 9843 8ebc bea2 6c3a 3b7c 21bc 8bb5 b13b
00000240: 2483 163d 8b31 a739 488d d5bc 18f4 093d
00000250: 5b14 09bc b33b e3bc eab5 823c ffa0 7abc
00000260: a806 b43c edb9 7abc 7580 153d ba82 553c
00000270: fa8e 0abd 7812 0e3d 3d78 24bd 08fa cc3c
00000280: 7604 0ebc 20cf debc e710 433c 35d7 153c
00000290: 1902 7fbb 6f01 b7bb 69ef de3b 15c1 833b
000002a0: 9d1f a93b 6933 75bd 1317 f4bb b47e a3bc
000002b0: 9046 a73b 314c 2d3c 4604 b63c 83ee 1abc
000002c0: db55 3c3d 42fd cebb 0dde 883c d854 c8bc
000002d0: d72c bf3c c066 4a3d 0a82 2a3d f0fa 4e3c
000002e0: 3c83 5dbc 6477 8fbc 2172 c9bc 2339 143d
000002f0: c376 17bc a79b 4fbd 72b3 c33b 9d38 4b3d
00000300: a29f ee3b 3211 013d 5527 1c3c c658 e9bc
00000310: 140c 573d 5195 12bc ff9b 9fbc 0dfa 4ebc
00000320: 0b0e b33c 6442 05bc 6a17 463c 18ec 3d3c
00000330: 4419 b13c 753a 033c fc54 dbbb 9526 af3b
00000340: a71f f83c ea1b 3e3d 7cb5 223d f66e cb3c
00000350: a8e7 42bd 8879 483c 228c 52bd db23 23bc
00000360: 7dd2 25bd aad5 98bc 2ae5 02bb 1a87 0bbc
00000370: 0035 a6bc 54a1 6d3c d0b3 29bd f471 063d
00000380: 68e5 d53c a798 f0bc 726a 693c 35c3 a03a
00000390: 7b2c e4bc 968a 083c fd1b 80bc 30c6 103d
000003a0: 9d81 3e3c 410b 263d ed99 283c 4874 fc3c
000003b0: 17d4 9c3c 7393 703b 3157 813a 670e babc
000003c0: 73e9 8c3c bace 32bc 8659 103d 9084 5f3a
000003d0: c3ca 263d 2e87 75bb dd05 3fbd 7c0f 95bb
000003e0: 0a4a 313d 2333 cebc bb10 45bd d309 a43c
000003f0: 2673 56bc e46f 263c 25f5 56bb 3d82 253b

bias f4 [14]
0.0032387965 -0.028345738 0.013625045 -0.02396119 -0.0074481335 0.012328981 -0.047458883 0.015982527
-0.036423665 0.020546706 0.018777018 0.0143096205 -0.019821033 -0.014765674
00000000: fd41 543b 5235 e8bc 953b 5f3c 424a c4bc
00000010: 790f f4bb 7fff 493c 3f64 42bd caed 823c
00000020: fb30 15bd 9151 a83c 43d2 993c e672 6a3c
00000030: b85f a2bc baeb 71bc
