efficient_global_pointer/saved_model/ner_model_f1_0.56.pth (torch, 438555 bytes, 4 tensors)

weight f4 [128, 768]
00000000: 732a e73c dc92 98bc 99c3 6dbc ab30 b03c
00000010: 80c5 e23c 76df f3bc 302f 39bd f28c 3bbd
00000020: 53e9 c53c ee9e 0bbd 6839 b13c fbb8 00ba
00000030: b143 133d 495a d1bb 4d74 ecbc 3705 20bd
00000040: 4cbd 8f3b c610 563d 0290 af3c 0c64 b8bc
00000050: b7a6 58bc 4cd8 babb f957 f1bc 1cfd 463c
00000060: a4ae 6cbc 08c2 443c b7e5 3cbc 3147 edbc
00000070: f956 4f3c 4fdc 48bc 23ae 083d 3568 c2bc
00000080: 15da a5bc f9a9 a93c a458 b3bc 0d19 d53c
00000090: 4711 c8bb c80a 553c 05bb 643c 4183 e33a
000000a0: 3631 093d f957 5fbc b6b1 c7ba d88d 24bd
000000b0: 98f4 08bd f527 53ba 2592 4b3d bf23 dfbc
000000c0: 5854 193b e7f7 823c 3f4f 90bc 2eec c439
000000d0: 2b91 4dbc 0cc9 813b b344 773d f71b 30bc
000000e0: d351 f33c 53d8 0abd 5c9a 56bc 1add 62bb
000000f0: 3e49 3dbd 0f50 a5bc e635 8cbb f76c 173b
00000100: fde8 55bb 78ff b7bc a830 243c c474 28bd
00000110: acea 273d 638d d7bb 5e0b b9bc a787 27bd
00000120: 716b a33b 607b d7bb 0318 fe3a e589 97bc
00000130: 1c91 dbb8 95fd cf3c 64d2 1d3d 348a 713c
00000140: 98ff 3d3c 2706 143d cc55 47ba ee20 f83a
00000150: 8163 583d 293f 22bd 1132 943c f3ec 1dbd
00000160: 5bd3 10bd 7c27 783c aff6 80bb 02cd 96bc
00000170: 6d5b 773c 857b b0bc 3881 293c 4239 2e3b
00000180: a0fa bab9 ff8b cabc e53a 47bd abcd dcbc
00000190: 4996 ed3c e765 823d cabc 123c 9c8a e33b
000001a0: ca55 ae3c 5d69 b0bc 74f5 e0bc 94dd 76bb
000001b0: dc9f 33bd 3cd5 51bc 0b0d e33c 6379 0dbd
000001c0: 4a07 bdbc 6b78 1dbc ee61 1dbd 41e8 51bc
000001d0: a92a 74bb 5a82 1a3d d6cd a9bc 7ba2 28bd
000001e0: 713a c83c bd8f 40bc 943f 1abc 0750 98bc
000001f0: 156e adbc 4ccc 38bc d341 6b3c 5f76 a83a
00000200: 5026 5f3c d6d2 99bc 31d1 b8bc 4fb7 56ba
00000210: d677 ea3c 9ee8 96bb 11a6 40bd 9bd3 86bc
00000220: a45e 15bc fe63 efbc 80ac 983a 071d d1bc
00000230: 6055 b3bc a5bf c2bc a909 ae3c ca80 09bd
00000240: 7d81 083d a245 5abc 950b 93bc 26ac 60bc
00000250: 98fb 14bc f16d 2c3d a0a5 053d 7177 8a3c
00000260: 48a5 4f3d 434c 013d aa7c c23c 4ef5 7db9
00000270: 3114 12bd 39ae ad39 73be 053d a56c aa3c
00000280: 2efc bebc a3c4 843c c06d 24bd 6490 8bba
00000290: e94d 533d cf7a fbbb 15c1 57bc ebb1 64bb
000002a0: 90ca ff3c 3f8e 12bd b2a9 bebc 5b4a ca3c
000002b0: e4a3 2abb b41b 2a3d c891 adb7 8764 7ebc
000002c0: d37b 003c bf62 f6bc 6b8a 123d 9122 0b3d
000002d0: fecc 84bc cfa8 a43c e514 23bd 9b64 c73c
000002e0: 1c66 9fbc 5609 c1bc 9469 44bc 6157 adbc
000002f0: e736 3a3c ac21 1bbc 8d11 003d 4960 c23c
00000300: 25cf 5d3d 7fe3 b33b 677f a83b 083a 303d
00000310: f499 f6ba f661 c03b c75c 69bc 5b93 c53c
00000320: 5d26 46bc 3e22 ae3c e583 d5bb 8339 853c
00000330: 4669 9abc 15ce 81bc facb 14bc cc07 edbc
00000340: 8e9b 0dbc 0912 adbb fe67 c8bc da91 a63b
00000350: c958 963b 0ac1 fd39 94cc 59bd ef8b 8ebc
00000360: 13b5 6ebc f047 48bc b960 99bc 4f67 9c3c
00000370: 718d f73b 52b5 593d ed2c bf3a 90e7 5bbc
00000380: 266c f4bb 95e9 3b3b 826c 1b3d a24c 24bc
00000390: f5bf 1b3d 37be 65bd dd3f 17bd 6f37 423c
000003a0: fa61 75bb 8315 b9bc f586 c43c 61cb 0ebd
000003b0: fe34 463d 92e0 7ebc 79c7 73bc f9f6 1cbd
000003c0: 4ef8 b13b 5abc 353d 8556 0dbd b0ef 48bc
000003d0: 6764 7cbb f13b d23c 67f2 dd3b ff6c 57bd
000003e0: 0433 1e3c 0197 873c 1797 523c 77ff 69bc
000003f0: 6c0d 053c 2f12 543c 7bcf 7a3d 92b4 acbc
0.028218484 -0.018624716 -0.014511966 0.021507582 0.027682066 -0.02976964 -0.045211017 -0.045788713
0.02415911 -0.034087114 0.021633819 -0.0004910377 0.035953227 -0.0063889367 -0.02886405 -0.039067473
0.0043865796 0.05226209 0.021430973 -0.022508644 -0.013223342 -0.005702054 -0.029460894 0.012145307
-0.014445934 0.012009151 -0.011529378 -0.02896461 0.012655013 -0.012259557 0.033369195 -0.02373133
-0.020245591 0.020710932 -0.021892853 0.026012922 -0.0061055752 0.013003059 0.013960605 0.0017357842
0.033494197 -0.013631814 -0.0015235457 -0.040174335 -0.033436388 -0.00080549653 0.04969992 -0.027238725
0.002339622 0.01598735 -0.017615912 0.0003756 -0.012546818 0.0039607342 0.06036825 -0.010748855
0.029702103 -0.03389771 -0.013098326 -0.003461665 -0.046212427 -0.020179776 -0.004278886 0.002310572
-0.0032640093 -0.022460684 0.010021366 -0.04112698 0.040995285 -0.006578134 -0.022588428 -0.040900853
0.0049871732 -0.0065759867 0.0019385818 -0.01849837 -0.000104697625 0.025389472 0.038530722 0.014742423
0.011596583 0.03613868 -0.0007604032 0.0018930712 0.05282927 -0.039611015 0.01809028 -0.03855605
-0.035357814 0.015146133 -0.003935657 -0.018408302 0.015097481 -0.021543274 0.01034575 0.0026584421
-0.00035663415 -0.024724958 -0.04864015 -0.026953539 0.029002326 0.063670926 0.008956144 0.0069440138
0.021281142 -0.021534616 -0.027460791 -0.0037668692 -0.043853626 -0.012807187 0.02771618 -0.03453959
-0.023074765 -0.009611229 -0.03842347 -0.012811721 -0.0037256873 0.03772197 -0.020728033 -0.04117058
0.02444193 -0.01175302 -0.009414572 -0.018592848 -0.021170655 -0.011279177 0.014358955 0.001285266
0.013619974 -0.018777292 -0.022560688 -0.0008190767 0.028621595 -0.004605367 -0.047033373 -0.016458323
-0.009116802 -0.029222485 0.0011648089 -0.025526537 -0.021891296 -0.023773024 0.02124484 -0.03357009
0.033326615 -0.013322266 -0.017949859 -0.013712918 -0.009093188 0.042097036 0.032628655 0.016902657
0.050694734 0.03156687 0.023741085 -0.00024219343 -0.035663787 0.00033126937 0.03265233 0.020803759
-0.023313608 0.016207045 -0.04014373 -0.001064789 0.051587973 -0.007674552 -0.013168593 -0.0034896086
0.031224519 -0.035780188 -0.023274276 0.024693659 -0.0026037628 0.041530326 -2.0691092e-05 -0.015526897
0.007842022 -0.030076383 0.035776537 0.033968512 -0.01621103 0.020100025 -0.03981485 0.024339965
-0.01945787 -0.023564022 -0.011988062 -0.02115983 0.011365629 -0.009468477 0.031266738 0.023727553
0.054152627 0.005489766 0.0051421407 0.043024093 -0.0018814192 0.005871053 -0.014243311 0.024118116
-0.012094107 0.021256562 -0.006515967 0.016262775 -0.018849026 -0.015845338 -0.009081835 -0.028934382
-0.008643044 -0.005281691 -0.02446365 0.005083305 0.0045882207 0.00048399746 -0.053173617 -0.01740071
-0.014569539 -0.0122241825 -0.018722879 0.01909223 0.007554703 0.053151436 0.0014585532 -0.013421908
-0.0074591814 0.0028673161 0.037945278 -0.010028036 0.03802486 -0.056089606 -0.03692614 0.011854037
-0.0037442432 -0.022593265 0.023990134 -0.034861926 0.04839038 -0.015556471 -0.014879101 -0.03832147
0.0054312116 0.04436908 -0.03450634 -0.012264177 -0.0038511993 0.025663348 0.0067732814 -0.05259418
0.009655718 0.016551496 0.012853405 -0.014282099 0.008120876 0.012943788 0.061233025 -0.021082196

bias f4 [128]
00000000: 2782 a3bc 9e8a a13c 38a6 023a cf82 9e3c
00000010: 1bf9 3a3c f8c6 d1bc c2be 85bc bbfb ffbb
00000020: 8164 64bc c7a4 26bd d6ff 063c b4af fb3c
00000030: c65c a4bb 4670 883c c608 453c 3183 053c
00000040: 06b1 803c 360a 4a3c 2541 52bc 3cbf 703c
00000050: 39b3 9cbc bd3b 5eba 0d95 283d e00b 933c
00000060: 05e9 b93c c76b 2c3d 1d79 503c 6ac9 89bc
00000070: 1a4f a23c 2715 aebc 8a7b 49ba 1fc9 f8bc
00000080: abd0 de3c 7cb8 a43c a5b4 48bc 9757 89bc
00000090: 4fa1 b8bb 9c7e 013c dbad 803c 19ff 913c
000000a0: 352b 54bc ff1d 8f3b e211 dabb 6b11 7cbc
000000b0: 7406 ffbc 0f6c 843c 0e01 c6bc b0e0 c9bc
000000c0: 7dd7 01bd 8472 213c 8bf9 4fbc 11ba 1fbd
000000d0: d241 d5bc 1df8 c1bc 5f3c aabc 87ea 103d
000000e0: 6ac2 2e3d 5697 94bc 9ab3 f83c cf83 273c
000000f0: 1116 fbbb 06ce e53c f298 e23c 25cf 1ebc
00000100: d270 c53b 38c9 35bd c97b 80bd 769a 9e3a
00000110: c854 f73b 7d94 d539 2235 903c 4f59 16bd
00000120: 052c 0abd 6aac 6cbc d6ae 493d 19c1 e1bc
00000130: 35b6 e5bb 12a0 61bd 4846 b7bc 2dfb 823c
00000140: 253b 80bc f68b aa3b 8fbe bfbc d02c b33b
00000150: 5808 143d 2662 71bd 80b4 6d3c ba60 87bd
00000160: 999b f23c f8cd 173c a68a 21bc 14a3 223d
00000170: 6d58 27bd adce 093b b2e7 c8bc 100c 873c
00000180: b046 3abd 29d3 aa3c 22b9 a9bc ce46 0a3a
00000190: 264e 10bd f1a7 193d 98e8 c13c 3b4c bdbc
000001a0: 5937 2cbd 23af 223b 227d 76bd 2483 f13b
000001b0: 697a 8b3b 9e76 f9bb 9b9b 6e3d 9fc6 0ebd
000001c0: 87c6 5cbd 74ad 063c 9b41 b93b 4388 62bd
000001d0: 0104 b13a 21b6 813c 3baf 463d bdc6 65bd
000001e0: 5a65 07bc 8e71 0b3d 95d5 5c3c d0c7 18bd
000001f0: 89a8 3dbd ab09 ed3c 26ef 77bd 6371 693d
-0.019959522 0.019719418 0.0004983875 0.019349484 0.01141193 -0.025607571 -0.016326312 -0.007811991
-0.013939978 -0.040684488 0.008239707 0.03072343 -0.0050159423 0.016655099 0.0120260175 0.008148954
0.015709411 0.012331536 -0.0128329145 0.014694031 -0.019128429 -0.00084775296 0.04115777 0.017949998
0.02269412 0.042094972 0.012724188 -0.016819675 0.01981311 -0.02125032 -0.000768595 -0.03036934
0.02719911 0.0201075 -0.0122501 -0.016765399 -0.005634464 0.007903721 0.0157079 0.017821835
-0.0129497545 0.0043675895 -0.006654964 -0.015385012 -0.031131007 0.016164808 -0.024170425 -0.024643272
-0.031699646 0.009853963 -0.012693773 -0.038995806 -0.026032362 -0.02367788 -0.02078074 0.035379913
0.042665876 -0.018138569 0.030359078 0.010224297 -0.0076625426 0.028052341 0.02766082 -0.009692942
0.006025412 -0.04438135 -0.0627361 0.0012100476 0.0075479485 0.00040737158 0.01760346 -0.036706265
-0.033733387 -0.014445404 0.049239002 -0.027557896 -0.007010246 -0.055084296 -0.02237238 0.01598891
-0.015653202 0.005204673 -0.023406295 0.0054679886 0.03614077 -0.058931492 0.014508367 -0.06610246
0.02961521 0.009265415 -0.0098597165 0.039706305 -0.040855814 0.002102773 -0.024524543 0.016485244
-0.04547757 0.020852642 -0.020718161 0.0005274833 -0.03523078 0.037513677 0.02367048 -0.023107639
-0.04204497 0.0024823628 -0.06017793 0.0073703695 0.004256536 -0.007613017 0.058253866 -0.03485739
-0.053900268 0.008220065 0.0056535727 -0.05530573 0.0013505222 0.015833916 0.048506957 -0.056097735
-0.00826391 0.03404384 0.013478656 -0.03729993 -0.046303306 0.028935274 -0.060530804 0.0569929

weight f4 [14, 768]
00000000: eab4 a8bb 9f50 3b3c 17fc fe3a 0696 e1bc
00000010: 049a 4fbd 782f 553d 098b 453c 08a3 41bd
00000020: cb48 823c cca7 8b3c c8f7 ba3a 08ef 163d
00000030: 2fdb f13c a202 44bd 46bf 21bc 5c1e 333d
00000040: 6c2b 04bd 0f10 243c 01e7 4fbd 6637 2ebb
00000050: 7923 f53c a1d0 50bd a35b 913d cc9b a1bd
00000060: 3420 4e3c e5f7 e93c ddf4 bbbb d297 393d
00000070: e887 6cbc 37b9 773c 3b36 e8b9 7968 29bc
00000080: 763d 903d b061 cb3c 8b8b 0e3d 463f 273d
00000090: fd0c 49bc 82d9 febb 5da5 413d 9952 1f3d
000000a0: 390f 4e3c dfd3 b83c 696c d43c 6609 4fbd
000000b0: cab8 fb3c 9a81 4dbd 282a 233c e787 92bc
000000c0: 8d74 123d dae9 8d3b 39fd 0a3d dd16 04bd
000000d0: 74ff 173d 6db6 d7bb 7125 033d 5dea 873b
000000e0: 8a72 723b 90f4 173d f693 133d bc7d bcbc
000000f0: 2684 cbbc 927f c0b8 4bb4 5d3d 362d 493d
00000100: 61b4 33bd 7564 683c b611 01bd 0bb0 28bd
00000110: c759 bf3a 4802 f4bc 45d6 e7bc ec71 0e3c
00000120: b9c8 49bd 1ac8 12bb 61e8 933c 0dc3 16bd
00000130: ed55 203b b272 c43c 56be 82bc 6304 2f3d
00000140: 3188 ad3c c389 a0bd 0f71 8a3c 979c 873b
00000150: e752 59ba 29cd 15bd e343 de3c 3432 dbba
00000160: 3265 4c3d fca8 8abc a29d 25bd 0f40 adbc
00000170: 5ff2 d53c 67b2 5b3a 499d aebc 6420 613d
00000180: d13b c33c dfea 83bc c11b 983d 8f06 82bd
00000190: 3a87 48bc ceb7 b5bb 3c3a 573d aed6 a6bc
000001a0: d787 58bc 97e4 1abc 66fb cabb 6537 1cbc
000001b0: 725b a73c 15ad 29bc 8a62 0cbd 8ff3 753c
000001c0: 0ed0 72bc 70cb 88bd 6f9c 29bd 8dab 1e3d
000001d0: 4cf1 2f3d d15f 76bd 324a 41bd a43a 983a
000001e0: 5420 b63c d4c9 06b7 bd13 08bd d7fb 963c
000001f0: 4216 87bc 22b5 153d d575 35bd 4dca 1dbc
00000200: 6ed9 9d3c dfcb 1abd c85e 8d3c 4fb0 85bc
00000210: 0bdb 8fbc f8dd 8ebc 661f cabc b75e 153c
00000220: 3334 483c f8d1 7c3d e789 1a3d 815f 973c
00000230: 497e 09bd 3496 303c 4429 efbb 788b 363c
00000240: 5eb1 2c3d a1c9 1cbc 234d a7bc 0f6d 3b3d
00000250: 14ba 24bd 3bf5 01bd 7ba1 b43b 5466 47bc
00000260: c961 c03c 3a5b 1bbd cc93 123d 87bf 7c3c
00000270: c53a 08bd f186 893c c1d2 04bd 934d bb3b
00000280: 4479 02bc d8f4 a2bc f27a ae3c c417 d93b
00000290: b74b 073c 825c 0d3c a03c ba3c 4332 c13b
000002a0: 4f7d 433c 5988 debd 2832 b13b 8890 02bd
000002b0: e77d 16ba 4bc8 903c 2b46 613c b650 063d
000002c0: a5ac 433d 2a20 673c 3024 903c def4 e1bc
000002d0: 7af5 ab3c 2212 683d d97d 0f3d bdd6 8bbb
000002e0: fb1d 7abc 62df 8bbc 25c0 aabc a216 173d
000002f0: 7e22 83bc 4496 8ebd 6aa7 9c3c 179d 723d
00000300: b56c b13c 1152 9e3c ad6e 813c 123e 6abc
00000310: 96f8 b63d 228d a1bb 5ac5 a2bc 9173 1cbd
00000320: 286b 113d e54c cabc f79a 383c a59f 843c
00000330: 6ff3 d33c 4cbb 8d3c 5fcd 023d 96e0 963b
00000340: f8f9 e43c 1a75 4c3d 2ca8 3f3d 8865 173d
00000350: fb4e 4cbd f715 efba 0d45 90bd a3c7 9e38
00000360: 2a37 eebc 63f2 26bd 315c ad3a 2cad 46bd
00000370: 93f6 2a3c dee9 adbc ec28 8abd 5bcb 2b3d
00000380: 060c 8f3d 7022 3dbd 4616 d43c 844f 953c
00000390: 27ca f7bc 679d 893b 2585 8bbb 8d7b 0e3d
000003a0: c5c0 f93a 7d03 3a3d 6389 fc3c 12e9 dfb9
000003b0: 56ba 413c 5f2b a83a 4db5 9c3b 7daf 74bb
000003c0: f7ce 033d 3b80 6d3b 803b c13c fbb7 1e3d
000003d0: fda6 5c3d 96db 96bb ffc9 94bd 9f78 d2bc
000003e0: ee39 273d a003 afbc ce8f 0fbd efa4 b73c
000003f0: 93b1 b93c 13b7 513c 35b3 e9bc f471 8d3c
-0.0051485198 0.011432796 0.0019453791 -0.027537357 -0.05068399 0.052047223 0.012057074 -0.04727462
0.015903851 0.017047785 0.0014264518 0.03684905 0.02952346 -0.047854073 -0.009872263 0.043730125
-0.032267973 0.010013594 -0.050757412 -0.0026583313 0.029924141 -0.050980214 0.070975564 -0.07891044
0.01258092 0.028560588 -0.005735977 0.045310803 -0.014436699 0.015119842 -0.00044290893 -0.01033985
0.07042973 0.024826854 0.034801047 0.040831827 -0.012271163 -0.007777394 0.047276843 0.03889713
0.012576872 0.022561966 0.0259306 -0.050546072 0.030727763 -0.050172426 0.009958781 -0.017887069
0.035755683 0.004330856 0.0339329 -0.032248367 0.037108853 -0.006583026 0.03201813 0.0041478113
0.003699454 0.037098467 0.03602978 -0.023009174 -0.024843287 -9.179035e-05 0.05412702 0.049115382
-0.043873195 0.014184107 -0.03151103 -0.041183513 0.0014598899 -0.029786244 -0.028300414 0.008694153
-0.04926369 -0.0022397102 0.018055143 -0.03680711 0.0024465278 0.023980472 -0.0159599 0.042728793
0.021183105 -0.07838776 0.016899614 0.00413854 -0.00082902465 -0.03657261 0.02713198 -0.0016723336
0.049901195 -0.016926281 -0.040433533 -0.02114871 0.026116548 0.0008380771 -0.021315234 0.05496253
0.023832234 -0.016103206 0.07427169 -0.06348907 -0.012239272 -0.005545593 0.05254577 -0.02036604
-0.0132159805 -0.009453914 -0.00619452 -0.009534691 0.020429347 -0.010356207 -0.03427366 0.015011682
-0.014820112 -0.066794276 -0.041408952 0.038737822 0.042954728 -0.06014997 -0.0471899 0.0011614156
0.022232212 -8.034014e-06 -0.03322195 0.018430633 -0.016490106 0.036549695 -0.044301827 -0.009630752
0.019268718 -0.037792083 0.01725711 -0.016319422 -0.017560503 -0.017439827 -0.024673175 0.00911682
0.0122194765 0.06172368 0.03772917 0.018478157 -0.0335677 0.010777999 -0.0072986204 0.01114165
0.042161338 -0.009569556 -0.020422524 0.045758303 -0.04021652 -0.03172801 0.005512414 -0.012170393
0.023484128 -0.037928797 0.03578548 0.015426523 -0.033259172 0.016787978 -0.032427553 0.0057160347
-0.007963482 -0.019892141 0.02129886 0.0066251475 0.008257798 0.008628013 0.022733986 0.0058958842
0.011931731 -0.1086585 0.0054075904 -0.031876117 -0.0005740807 0.017673632 0.0137496395 0.032791816
0.04777207 0.01410679 0.01759538 -0.027582582 0.020991076 0.056657918 0.035032127 -0.004267542
-0.015265937 -0.01707429 -0.020843575 0.03688682 -0.016007658 -0.06962255 0.019122798 0.059231844
0.02165828 0.019326242 0.015799845 -0.014297025 0.08934133 -0.0049301544 -0.019869495 -0.03819615
0.035502583 -0.02469487 0.011267415 0.016189406 0.025872914 0.017301224 0.03193414 0.0046044094
0.027951226 0.049916364 0.04679124 0.036962062 -0.04988001 -0.0018240799 -0.070444204 7.571212e-05
-0.029079039 -0.0407585 0.0013226328 -0.048504993 0.010434764 -0.02122968 -0.067460865 0.04194198
0.06984715 -0.04617542 0.025889527 0.018226393 -0.030247761 0.004199672 -0.0042578154 0.034785796
0.0019054642 0.045413483 0.03082723 -0.00042707525 0.011824211 0.0012830308 0.004782355 -0.0037336044
0.0321798 0.0036239761 0.023587942 0.038749676 0.05387019 -0.0046038134 -0.0726509 -0.025692282
0.04082673 -0.021364033 -0.035049252 0.022417514 0.022667682 0.012799996 -0.028527835 0.017266251

bias f4 [14]
00000000: 27c1 92b9 4a84 02bd fa59 38bb a479 25bd
00000010: 39fb 64bc 0718 be3b 1704 77bd 6670 4d3b
00000020: 607c 66bd 4358 373a 8c41 bebb 6d52 28bc
00000030: fd4b b4bc 22e2 8abc
-0.000279912 -0.031864442 -0.0028129802 -0.04039921 -0.013975912 0.005801204 -0.060306635 0.0031347512
-0.056270957 0.0006994048 -0.0058061536 -0.010273558 -0.02200889 -0.016953532
