efficient_global_pointer/saved_model/ner_model_f1_0.59.pth (torch, 438555 bytes, 4 tensors)

weight f4 [128, 768]
00000000: dbcf 193d 5b71 0abd 1a7e 58bc 430d c73c
00000010: 1fe4 a83c 8175 18bd ac28 2ebd 0721 aabc
00000020: 28e2 803c 3f35 c8bc e174 513c 1b27 fb3b
00000030: 7f21 403d b37a 33bc 0e12 f5bc 8e0e 4bbd
00000040: afd7 3b3d f9d0 8d3d 6a1f a93c 39b6 c4bc
00000050: d5c1 9abc 4105 12bc 756b 2cbd a311 0a3d
00000060: db82 e8bc f18b ffbb da1a 21ba aea7 dcbc
00000070: 0ae1 6a3c f5fd 0e3b 4ee9 023d d0fe 86bc
00000080: b427 82bc 502a f23c 2b6a 1bbd 14b8 e23c
00000090: e311 1c3a 40ef e53c 60b9 a43c 3bef 8b3b
000000a0: fdf4 ef3c 9dde e4bb 04bd 27bb ad6d 23bd
000000b0: 15d9 fdbc 6380 eaba 6f13 4d3d dc00 b8bc
000000c0: a780 04bc f316 c33c face 16bd 098a 423b
000000d0: bdfd b73b 0534 fc3a 3a4e a23d 38d0 41bc
000000e0: 1790 fb3c 7cd0 2dbd 44d4 a3bc 9190 c9bb
000000f0: 9298 5bbd 7865 70bc 5bd2 ed3b e0a6 fabb
00000100: 149a c8ba 29ee 44bd 8745 2abc 41b3 b3bc
00000110: 4435 5e3d 4371 b0bb 26ba 0ebd 127e 21bd
00000120: a74c 503c 7679 77bc fdcd 103b 93c8 a3bc
00000130: efbd 79bc d68d db3c d62e 343d 92ed 903c
00000140: 4b13 463b 5d4a 113d 0e38 e8ba 8888 98ba
00000150: 6fb2 623d 12ec 38bd 859e 7d3c c63c 3ebd
00000160: c801 e8bc a624 583c f09c 66bb a90f 5fbc
00000170: ddb1 153c 8602 c6bc 71f3 06bc ce31 0a3d
00000180: dc54 e83b 5edd b0bc 4407 57bd 0282 44bd
00000190: 86e1 a53c c9e6 af3d 8769 733c ce0d f73b
000001a0: f123 8d3c ef42 52bb e98e 11bd 7bf6 cdba
000001b0: 88c9 28bd e5e7 013c 0a9a 923c 3140 64bd
000001c0: b3bd 03bd 79cb 5a3b 2816 43bd 21cb 66bb
000001d0: ad91 2f3b 23a7 533d 1612 efbc cdc8 4dbd
000001e0: 4a55 d33c f3ff 0e3b 45b3 84bc 9a0f e4bc
000001f0: 8723 2bbc 9885 83bc ce3f b43c f4b5 3f3c
00000200: 874d 7c3c 4890 c7ba b20d 96bc 7752 87bc
00000210: 71fd f13c df46 fcbb dc58 5bbd ff4a 2fbc
00000220: 852b e1bc f2d5 dfbc 92e7 55bc 6b5a b5bc
00000230: ee31 893b 988b 00bd 7a2a 263c 3256 ebbc
00000240: b89c a33c 0f61 95bc a980 73bc c02c b0bb
00000250: 6a50 62bc df06 393d 2496 0f3d da0b a53c
00000260: fd16 513d 8537 173d 3654 4ebb fbd1 2a3c
00000270: 9313 d0bc 4bd7 0abc 51b3 143d b800 ed3c
00000280: 0fac f7bc c1a9 ae3c d8bd 40bd 57d8 b6bb
00000290: 3d39 493d b38a 26bc 85ab b4bc e309 683c
000002a0: c172 403d 3ce2 1dbd bdf6 c4bc f582 0b3d
000002b0: 83d9 6d3c 8a43 4e3d f3ca 40bc df16 e5bc
000002c0: c216 55bc f4b4 01bd 8637 003d b49e 103d
000002d0: 57de 28bc b0e7 033d 1ca4 37bd 68f2 f93c
000002e0: c0e8 94bc a1d3 c8bc 9939 a4bc b6e8 3dbd
000002f0: e4dc 653b 09a2 85bc e3fb e73c a42a 1e3d
00000300: 4b5f 6f3d 091b 963c f796 5dbc a985 4a3d
00000310: ecf8 9f3b 61cc a1ba ebf3 f8bb 71d3 8b3c
00000320: b548 86bb 87dd b93c 851e 00bc e976 563c
00000330: d06d a4bb cded a3bc bfbe a33b 321e f3bc
00000340: 8e77 2cbc d2d2 f7bb e724 97bc a759 2ebc
00000350: ca2d 883b f4ef 923b 9207 73bd 7d85 cebc
00000360: ae55 a0bc 3add b7bc ad18 d2bc 19ab e43b
00000370: c970 5e3c 5325 723d c191 30ba b8cf c0bc
00000380: 2672 2fbb 2c4f 08bc 7e55 3f3d 2a54 dfbb
00000390: 5fff 2f3d b327 79bd 1437 27bd 266e 8b3c
000003a0: 561d 52bb 9806 a8bc 5127 d23c a1d0 65bd
000003b0: ec0c 7f3d 0d21 abbc cc0b 86bc 8272 dabc
000003c0: 2a51 07bc 575c ed3c 8510 2dbd a22c 1bbd
000003d0: 7039 3ebc 8ee1 ce3c 7d9b 173b a135 71bd
000003e0: c0fa 75bc e519 893c 6234 fc3c 8c19 93bc
000003f0: a80e 0c3b 48f0 c83c ce0a 683d 1ee2 61bc
0.037551742 -0.03379951 -0.013213659 0.024298316 0.02061659 -0.037221435 -0.042519256 -0.020767702
0.01573284 -0.024439452 0.012784214 0.007664574 0.046906944 -0.010954547 -0.029915836 -0.049574427
0.04585999 0.06924624 0.020644862 -0.024012672 -0.018891254 -0.008912385 -0.042094667 0.033708226
-0.02838271 -0.0077986647 -0.0006145664 -0.026935425 0.01433588 0.002181885 0.031960778 -0.016478926
-0.015888073 0.029561192 -0.037943047 0.027675666 0.0005953593 0.028068185 0.020107925 0.004270462
0.029291624 -0.0069845454 -0.002559484 -0.039899517 -0.030987302 -0.0017891045 0.05006736 -0.022461347
-0.008087314 0.023814654 -0.036818482 0.0029684326 0.0056149648 0.0019241577 0.07925077 -0.011829428
0.030708356 -0.042435154 -0.019998677 -0.006151267 -0.0536123 -0.01467263 0.0072577423 -0.0076492876
-0.0015304708 -0.04807869 -0.010392553 -0.02193606 0.054250017 -0.0053845956 -0.034845494 -0.03942687
0.012713588 -0.015104642 0.0022095435 -0.019993102 -0.015243038 0.026801031 0.04398998 0.017691407
0.0030223902 0.03547131 -0.0017716901 -0.0011637369 0.05534595 -0.04514701 0.0154796885 -0.046444677
-0.028321162 0.013192331 -0.0035188757 -0.0136145735 0.009136644 -0.024171125 -0.008236752 0.033738904
0.007090194 -0.021589931 -0.052497163 -0.047975548 0.02024914 0.08588941 0.014856703 0.0075394874
0.017229052 -0.0032083353 -0.03553668 -0.0015713716 -0.04120782 0.007928823 0.017895717 -0.05572528
-0.032163333 0.003338544 -0.04762855 -0.003521629 0.002678971 0.051673066 -0.029183429 -0.050240327
0.025797505 0.0021820038 -0.016198764 -0.02783947 -0.010445482 -0.016054913 0.02200308 0.011701096
0.015399343 -0.0015225494 -0.018317077 -0.016518814 0.029539796 -0.007698878 -0.05355154 -0.010699033
-0.027486572 -0.027323697 -0.013055699 -0.022137841 0.0041868603 -0.031383127 0.010141963 -0.028727625
0.01997219 -0.018234758 -0.014862218 -0.0053764284 -0.0138131175 0.04517257 0.035055295 0.020147253
0.051047314 0.036918182 -0.00314833 0.01042604 -0.025399959 -0.008474181 0.036303822 0.028931007
-0.030233411 0.02132118 -0.04705605 -0.005579989 0.049126852 -0.010164904 -0.022054443 0.014162513
0.046984438 -0.038545832 -0.024043435 0.034060437 0.014517191 0.05035738 -0.011767137 -0.027965007
-0.013005914 -0.03166671 0.03130295 0.0353076 -0.010306916 0.032203376 -0.04483424 0.030511096
-0.01817739 -0.024514975 -0.020046996 -0.04636451 0.0035074288 -0.016312616 0.028318351 0.038614884
0.058440488 0.018323438 -0.013524762 0.049443875 0.0048819687 -0.0012344235 -0.0075974367 0.017068597
-0.004098023 0.02268864 -0.007819776 0.013089874 -0.0050179735 -0.020010853 0.004997104 -0.029677484
-0.010526551 -0.0075629735 -0.018450214 -0.010641492 0.004155849 0.004484171 -0.05933339 -0.025210137
-0.019572105 -0.022444356 -0.025646532 0.0069784042 0.013576695 0.059117626 -0.0006735586 -0.023536548
-0.0026770919 -0.008319657 0.04671239 -0.006815453 0.04296815 -0.060828876 -0.04082401 0.017020296
-0.0032060943 -0.020510957 0.025653513 -0.056107167 0.062268183 -0.020889783 -0.016363047 -0.02666593
-0.008259097 0.028974695 -0.042252082 -0.037884362 -0.011610374 0.025254037 0.002313345 -0.058889035
-0.015013397 0.01673598 0.030786697 -0.017956518 0.002137104 0.024528638 0.05665093 -0.013786821

bias f4 [128]
00000000: 1787 93bc 8d17 893c f5a9 873b 593a bd3c
00000010: bccc f03b 6abc e3bc 4820 6ebc 0d48 7ebb
00000020: 8493 91bc 5681 15bd 9bfe 413c 97f3 0c3d
00000030: 8571 04bc d609 b73c 9980 a53c d57f 293c
00000040: ebe9 9d3c fb37 7a3c 9f2c 15bc 7bb1 7a3c
00000050: 3d1b 24bc 00b9 8f3a 9ef1 1b3d 0a3d 0c3c
00000060: 0bb8 9f3c f449 473d c0cf 913c 6e3c 38bc
00000070: 059d f53c 000f 9dbc a448 e2bb ef2c 1ebd
00000080: 7d2d a53c b259 3d3c b9a5 b0bc dcb0 92bc
00000090: 88e5 47bc 5b12 4bb7 a09f d73b b66b 8a3c
000000a0: 4814 cbba 699b 153c b9c7 b5bb e967 d5bc
000000b0: 1ed3 1fbd bfee bd3c d730 81bc 3483 80bc
000000c0: 3862 eebc 0ed2 8c3c d2eb 0abb 2016 19bd
000000d0: ab6c 11bd 3fb1 c0bc 998d 96bc 7d19 323d
000000e0: f03d 473d 4743 c2bc 0045 c23c a25d 243b
000000f0: 649c 2fbc 2f99 043d 7eef 1c3d 5ef3 b9bb
00000100: f6f9 a8ba cb5f 57bd 3cef 8bbd 846e b23b
00000110: cd11 ad3b 03c8 013c fbed d83c 75fe 19bd
00000120: 66ba 0ebd 8f3e 87bb b524 6c3d d9e0 0abd
00000130: 27c8 a33a f3c3 78bd ac44 c9bc d761 b23b
00000140: a166 e4bc 8faa 343c 595f fdbc c119 923c
00000150: 7d7b 433d 0221 89bd 91ba a33c 24e9 a0bd
00000160: e182 c13c e40e 773c 306c c1bc d55d 503d
00000170: 7fda 3dbd 055a f03b 5361 edbc 6578 b23c
00000180: 47c1 6cbd 1d38 033d 3a77 eebc fa1e 103c
00000190: fecc 12bd 591f 2a3d 1f2d 053d abc5 f8bc
000001a0: 76a8 45bd ba95 043c 208d 85bd 4682 4d3c
000001b0: 1698 1e3a e965 8cbb 11ea 8e3d fe71 33bd
000001c0: 7b53 68bd 79c1 4e3c 9bf9 893c d6e9 88bd
000001d0: ef74 8b3a 658a ad3c 96d4 703d 0c33 8abd
000001e0: 78a4 9abc ee02 3a3d 54d0 b23c 1cd1 3abd
000001f0: 62d7 6bbd 3d20 1b3d 89d1 8dbd 567b 8a3d
-0.018008752 0.016734863 0.0041401335 0.023099111 0.007348625 -0.027799804 -0.014534064 -0.003880027
-0.017770536 -0.036500297 0.011840488 0.034411993 -0.008083706 0.022343557 0.020202922 0.010345419
0.01927658 0.015272136 -0.009104877 0.015301104 -0.01001626 0.0010965168 0.03807222 0.008559475
0.019496938 0.04865451 0.017799258 -0.011244876 0.0299821 -0.019172192 -0.006905632 -0.03861707
0.020163292 0.01155703 -0.021563398 -0.017906599 -0.012200721 -1.2104017e-05 0.006580308 0.016897064
-0.0015493715 0.009131291 -0.0055474904 -0.026050525 -0.039019696 0.023185132 -0.015770359 -0.015687563
-0.029099569 0.017190006 -0.0021197689 -0.037374616 -0.035504024 -0.023522018 -0.018378066 0.04348134
0.048643053 -0.023713721 0.023714542 0.0025080224 -0.010718439 0.03237265 0.038314335 -0.0056747636
-0.0012891877 -0.05258159 -0.0683274 0.0054453034 0.005281663 0.007921222 0.026480665 -0.037596185
-0.034845732 -0.0041273306 0.057652194 -0.033905838 0.0012495563 -0.060733747 -0.024568878 0.0054437923
-0.027880969 0.011026992 -0.030929254 0.017834546 0.04772519 -0.06695749 0.019986423 -0.07856968
0.023621978 0.015079234 -0.023611158 0.050870735 -0.046350952 0.00733495 -0.028977072 0.021785924
-0.05780151 0.032035936 -0.029109586 0.008796448 -0.035840027 0.0415338 0.032513734 -0.030367693
-0.04825636 0.008092338 -0.06521058 0.012543267 0.0006049884 -0.0042846096 0.069782384 -0.043809883
-0.05672024 0.01261937 0.016842654 -0.06685226 0.0010639707 0.021184156 0.058796488 -0.06748018
-0.018877253 0.04541295 0.021827854 -0.04560958 -0.057578452 0.03787254 -0.06924731 0.06761806

weight f4 [14, 768]
00000000: 92a0 a2bb 41fa e93c 7f46 0ebb 6ff6 cabc
00000010: d84c 8cbd 34a3 803d f7c3 133d bff7 91bd
00000020: d9ee a83b 6f4f 533c bbee 003c 965b 1c3d
00000030: fb75 0c3d 9ed6 5abd 2efb a13b 4ca2 5f3d
00000040: 000f 2fbd 7318 c53c 3643 78bd 991d 353b
00000050: 88bd 263d 0d52 59bd e0f2 9f3d 666c ccbd
00000060: eb3e 7b3c 2df3 c33c 6848 a0bc 8071 433d
00000070: 4ea9 d2bc d37d 0a3d 45d5 f0bb 0b00 d5bb
00000080: 780d 9c3d 37d9 263d 8f9d 8b3d 41f1 4c3d
00000090: dfe0 5cbc d1fb 4dbb a4de 4c3d 164c 683d
000000a0: 152d 553b 1100 843c d216 683d 4e36 7dbd
000000b0: 161a 423d 40e1 74bd 787a f53c 975c 4bbc
000000c0: 2605 3d3d 0b8b 573b e836 2b3d bb21 15bd
000000d0: 4929 423d f9b1 35bc a5e0 133d 2dd1 e83b
000000e0: 9002 69bb 3e75 113d 7f40 033d 7f97 09bd
000000f0: 31ff 81bc da9a 13bc 3c09 973d 1ede 613d
00000100: 15ab 3ebd 4300 0bba ad21 e8bc 4045 41bd
00000110: c097 f7bb 69a5 15bd 25ce 9abc 716a 8b3a
00000120: f8c9 89bd 1763 e7bc a411 483c 59de 2dbd
00000130: c7cc 1e3c 574e 953c 83ba 4cbc e1d9 c43c
00000140: 758d f53c 6a75 bbbd 34b9 c13c ae20 383c
00000150: 159c 153c 3099 2abd 747d d43c 2a1c 9abc
00000160: 86a1 843d 2e6f 9fbc cff0 81bd 2747 04bd
00000170: af23 be3c 05cf 963b ca59 c3bc f3de 773d
00000180: 9f77 f13c fc3d b1bc 74e2 b83d 22f8 c4bd
00000190: 2d94 a1bc 613d 81bc ceab 503d 1100 12bd
000001a0: 1fcd 1ebc 0922 04bd d38a d539 43bc 84bc
000001b0: 6df2 dd3c b1b9 55bc 0781 c6bc 5f94 9d3c
000001c0: 0b46 fcbb baeb 99bd 3354 63bd fec5 023d
000001d0: 5e48 363d 08ec 84bd 11c3 5bbd 02a1 a63b
000001e0: b361 d53c 8d8f 8a3c 1a7f 19bd 727d a53c
000001f0: bc51 dabc 1402 353d 6174 4cbd e7f7 1c3b
00000200: e8ef e33c 7a13 ffbc db31 2e3c 9341 dabc
00000210: 0ec1 21bc 8b9d a2bc 33b7 aabc ced9 8d3c
00000220: 0b8f 9c3c 4d3f 923d 12aa 2d3d 9388 503c
00000230: 28eb 17bd b589 993c 0c8e 303a 645f 633c
00000240: 6a3e 4e3d defb 9abc bf48 a7bc 7725 9a3d
00000250: 5c2f 6ebd 6a6c 14bd a498 9bbb 5817 b9bb
00000260: 2e16 643b acc4 26bd db49 1b3d 1090 883c
00000270: 6141 0fbd ea1e d03b c3c3 1cbd 883a 8ebb
00000280: d766 4f3b 7d2e c0bc 11a7 0b3d 06b5 b539
00000290: 025b a63c b553 af3c 216e 2b3d 97aa d6bb
000002a0: 41ec 2e3c d38a 0fbe 5003 4a3c 652d 2dbd
000002b0: b6ab 2bbc 9fed a83c 6b82 073c a3f6 343d
000002c0: 9b95 2e3d fb25 cf3c b6db 9e3c 23ae 62bc
000002d0: 1b1c bd3c 1b08 923d e644 043d ca88 36bc
000002e0: 2253 a6bc 6552 9abc b988 b8bc 4728 373d
000002f0: 243b cabc b5a4 bdbd 70ec e63c 1172 793d
00000300: f520 df3c d237 803c 00cb 603c 3763 15bc
00000310: 5f20 e13d f9aa 163b 9960 e4bc 9f3a 78bd
00000320: 10f1 903c e484 15bd f7c1 ed3c 0e68 aa3c
00000330: 9f9c e33c b508 cb3c 56aa 463d 5d10 613b
00000340: 4118 a73c bc5d 533d d4b9 5c3d bd08 003d
00000350: f591 65bd 90bb d6bb 3e8e b6bd df19 053c
00000360: b1d1 d5bc bca7 5dbd bf08 65b9 5b5b 89bd
00000370: 7c85 413c abd6 1dbd 4aba b2bd afb9 2f3d
00000380: 8cc8 a93d 7674 40bd ca6e fe3c d124 cc3c
00000390: 46e7 0dbd 7f60 433c 9b4d 203b 187a ec3c
000003a0: a947 f0bb 93de 413d 4bc5 193d 2162 91bc
000003b0: 07e6 833b 33a0 383b 72eb 5d3c 477d a0bb
000003c0: f470 3c3d a24e 373b 6d49 fe3c 5e0b 6d3d
000003d0: 0d90 983d b28f 25bc b92c 9dbd 4c05 35bd
000003e0: a653 4d3d 8e77 f6bc 94a0 04bd 59ba c93c
000003f0: 5dd1 173d 6c2a 183c 2b0b 03bd b5dc e73c
-0.004962989 0.028561713 -0.00217095 -0.024775712 -0.06850594 0.062811285 0.03607556 -0.07127332
0.005155426 0.012897356 0.007869418 0.03817328 0.034292202 -0.05342733 0.004943273 0.054598138
-0.042738914 0.02405951 -0.060610972 0.002763605 0.040708095 -0.053056765 0.078099966 -0.09981613
0.015334825 0.023919666 -0.019565776 0.047715664 -0.025715496 0.0338114 -0.0073496425 -0.0065002493
0.076197565 0.040734496 0.06817161 0.050034765 -0.013481348 -0.0031430612 0.050017014 0.056713186
0.0032528092 0.016113313 0.05666239 -0.061819367 0.04738816 -0.059785128 0.029965624 -0.012412212
0.046147488 0.0032889273 0.04180041 -0.03640912 0.047402654 -0.011089795 0.03610291 0.007105014
-0.0035554506 0.0355122 0.03204393 -0.033591744 -0.015868755 -0.009009087 0.07374808 0.055143468
-0.046549875 -0.0005302468 -0.02833637 -0.047185183 -0.007555932 -0.0365347 -0.018897125 0.001063658
-0.067279756 -0.028245492 0.012211237 -0.042448375 0.009692377 0.018225832 -0.01249564 0.024029674
0.029974679 -0.09153254 0.023647882 0.01123826 0.009131451 -0.041649997 0.025938727 -0.018812258
0.06476121 -0.019462194 -0.06344759 -0.03229442 0.023210375 0.0046023154 -0.023846526 0.060515355
0.029475985 -0.021636002 0.090275675 -0.0961764 -0.019723976 -0.015776338 0.050945096 -0.035644595
-0.009692459 -0.03225902 0.00040729958 -0.016203051 0.027093137 -0.013044761 -0.024231447 0.019235788
-0.0076987795 -0.075156644 -0.05550022 0.0319271 0.04450261 -0.06490332 -0.053652827 0.0050851116
0.026047563 0.016914153 -0.03747473 0.020201419 -0.026650302 0.044191435 -0.049915675 0.0023951472
0.027824357 -0.031137217 0.010632004 -0.026642596 -0.009872688 -0.019850513 -0.02083931 0.017315771
0.019111177 0.0714098 0.04239852 0.012727874 -0.037089497 0.018742422 0.0006735034 0.013877723
0.05035249 -0.018918928 -0.02042043 0.07526677 -0.058150634 -0.036236204 -0.004748421 -0.0056485347
0.003480326 -0.040714905 0.03791223 0.016670257 -0.03497446 0.0063513415 -0.03827263 -0.0043404736
0.003164699 -0.023459667 0.034094874 0.00034657883 0.020307068 0.02140222 0.041853074 -0.0065510976
0.0106764445 -0.14017801 0.012329891 -0.04227962 -0.010477951 0.020621119 0.00827084 0.044180524
0.042623144 0.025286665 0.019391876 -0.013835463 0.02308469 0.07130452 0.03229227 -0.0111410115
-0.020303313 -0.018838117 -0.022526132 0.044716146 -0.024686404 -0.09259931 0.028188914 0.060899798
0.027237395 0.015651617 0.013720274 -0.009117893 0.109925024 0.0022990091 -0.027878093 -0.06060278
0.017693073 -0.036503688 0.029023154 0.02080157 0.027784644 0.024784425 0.04850229 0.0034342029
0.020397307 0.051603064 0.053888157 0.031258333 -0.0560474 -0.006553121 -0.08913849 0.008123844
-0.026100965 -0.054115042 -0.000218424 -0.06706878 0.01181161 -0.0385348 -0.08726938 0.04290169
0.082902044 -0.046986066 0.031058688 0.0249199 -0.034644388 0.011924862 0.002446032 0.028866813
-0.0073327613 0.047331404 0.03754167 -0.017746987 0.004025224 0.0028171658 0.013544904 -0.0048977467
0.046006158 0.0027970453 0.031040872 0.05787217 0.074493505 -0.01010506 -0.07674546 -0.044194505
0.0501286 -0.030086305 -0.0323797 0.02462499 0.0370649 0.009287458 -0.031993072 0.028303484

bias f4 [14]
00000000: 6941 a5bb f406 16bd 6966 65bc 9e4d 53bd
00000010: dd38 b2bc efa9 01bb 4e0c 94bd f6f5 10bc
00000020: fcb1 93bd df28 78bc 264a b9bc fce2 ddbc
00000030: 0388 f0bc 281e c7bc
-0.005043198 -0.036627725 -0.014001467 -0.051587693 -0.02175563 -0.0019785126 -0.072289094 -0.008847704
-0.07211682 -0.015146463 -0.022618365 -0.027085774 -0.02936173 -0.024306372
