efficient_global_pointer/saved_model/ner_model_f1_0.49.pth (torch, 438555 bytes, 4 tensors)

weight f4 [128, 768]
00000000: d2d4 3abd 92d5 15bd 2329 0c3d 5792 f9bc
00000010: 25dc a2bb 2aca cdbb 1ee1 fabc 9d4f e23c
00000020: 5f87 f43c b235 f6bc 4992 f8bc 7d29 b13c
00000030: 20fb 94bc b193 0c3c 46d7 e63c c65e 4ebd
00000040: d113 20bd 1e40 983c a1bc ffbc 4b13 433b
00000050: 47b8 4d3c b429 183c 9144 c73b 9e2e 1bbd
00000060: a15f 21bb 57d4 51bc 8e6d 93bb 60d6 1bbd
00000070: 2e48 a73b cdca 2e3d 56a0 f13a 8cac 4ebc
00000080: 67e1 0abd 9482 003d 30c2 2ebc 3ff9 df3b
00000090: bfcf b83a eb49 ce3c 9225 1abd 40aa a2bc
000000a0: d336 22b9 aa77 a6bc 47de 093c 0fdf 3bbc
000000b0: 1c22 21bd 11a9 0ebd c0d4 a03c 31c2 833c
000000c0: 5608 80bc 2df9 9e39 4c92 4dbd 6264 8a3c
000000d0: b66c 213d ec55 af3c c37f a63a 0e15 04ba
000000e0: 294b c5bc f083 913c ccce 4dbd 6428 113d
000000f0: ed6b 533d 6d4d 2d3c e1c9 d53c db4b e1bc
00000100: 3f96 773b baf3 fd3b 1033 393c 40a8 093d
00000110: c78e a13b bac5 d4bc 5220 653c 189e 4cb9
00000120: 062a 2f3c 4648 8dbb d03c 3e3c 27bd 473c
00000130: d9ca 6ebc 21dd 73bc f0bf 243d f524 c93c
00000140: 935e dfbc f98a 3d3b 5789 54ba 7466 2f3d
00000150: 32a1 b9bc 371c d5bc 51eb ab3c 5142 01bd
00000160: dd61 f2bc 8b3f cfbc 7df1 b03a 2003 b9bb
00000170: 4ec0 153c 9156 91bb e876 b1bc 9725 c3bc
00000180: 1152 7a3c 5e0d d63c 7ac0 193c 3236 483c
00000190: 8bba a33c 75c6 89bb b7f0 b63b f502 dd3c
000001a0: 90b7 15bc 7887 d9bc 5cb9 e33c 808a deba
000001b0: c7b7 2a3d 20bc f9bc e984 eabc 013e 9f3b
000001c0: 06a0 95bb a47b 3cbd 7129 2dbc 8f18 223c
000001d0: 19e7 edbb b239 653c 3f51 e9bc 4879 0ebd
000001e0: e958 2c3a 9702 22bd 6aa8 873c 4bf0 24bd
000001f0: 5eed 1cbd 7857 d03c f76b ad3c 2e9d 44bc
00000200: cd5c eabc bf8f b73b 4362 e0bc f783 6a3b
00000210: eb55 093d 202d a6bc 2a3b 223d e1d0 30bd
00000220: 7b3d cebc a672 98ba 5aac 2bbc 141f 2d3c
00000230: 3a63 b03b bea4 eabb a2c3 49bc 6ea2 1abd
00000240: 16d9 efbc 40a0 c63c cae9 a23c 0792 9bbc
00000250: 922d 9e3c 911c a63c 1b5e a0bc 1fe9 153c
00000260: ea24 183c 5773 cc3b 8127 ddbc e28c 2c3c
00000270: 710f 1dba faf9 17bd 4ecc a93c e144 11bc
00000280: 0325 70bc 2909 413c 1a81 263c f3c8 e63c
00000290: 98d3 553c 1cca b1bc 43de 913c 9bdb abbc
000002a0: dd6d 993c 9124 d53b 0b12 193d 84d4 44bd
000002b0: 98a2 f2bc ff4a 323a ba27 92bb 1558 153d
000002c0: 7e06 e63c cf81 293c 9e33 183d 72e8 153d
000002d0: 4411 e3bc 99f4 a13c 5d96 c33b c94e c8bc
000002e0: b4e1 f83c 14fa 973c 6990 6b3c 3534 49bc
000002f0: 6988 5d3b 6d71 f13b 2441 22bd de29 253c
00000300: e328 6b3c 52a1 2a3d 0d24 b33c 8cd6 f139
00000310: 95c8 c6bc 4348 0bbb 0474 af3c 677d 6bbb
00000320: 2e2b 643c 8f87 c33b 1493 71bc 52f1 b33c
00000330: d2dc 0bbd c08c cebc eab5 aa3c a4b3 be3b
00000340: 3c79 983c 5485 c5bc 5206 c43c b198 053d
00000350: 5ad6 8f3c 0414 183d 0e42 cf3b dd48 303d
00000360: b4a5 3b3b d9b0 193c 0b9a 75bc 9f51 b63b
00000370: a609 b53c 8bad 003d 52e6 0b3c b3b9 19bd
00000380: 45fa 05bc 4c50 ab3c a66e a8bc 0bbe 11bd
00000390: 3b01 dfbc 05c4 ffbb 0aac 64bc 3c11 913c
000003a0: 59ab f3bc 4d95 1bbd 3fe9 41bc c352 1bbc
000003b0: 4738 27bc 0bfd 81bc 70dd 0dbc c6bc 743c
000003c0: 68e9 d03c 4f4c 1a3c 51da 833a 28aa 343d
000003d0: 6eec ec3c b3ca 48bc ac4e f6bc d5b9 23bc
000003e0: 43fc 1c3d f0fa cbbc 04f2 22bc e769 55bc
000003f0: 12f0 debc 5a92 f73a 2bd6 57bb a844 aabc
-0.045613118 -0.03658063 0.03421892 -0.030465288 -0.004970091 -0.0062802033 -0.030624922 0.027625853
0.029849706 -0.0300549 -0.030343192 0.021626228 -0.018186152 0.008580134 0.028178822 -0.05038335
-0.0390814 0.018585261 -0.031217875 0.0029766138 0.012556142 0.009287287 0.006081172 -0.037886254
-0.002462365 -0.012806973 -0.004499144 -0.03804624 0.00510504 0.042673875 0.0018434625 -0.012614381
-0.033906367 0.03137453 -0.010666415 0.0068351324 0.0014099999 0.025181731 -0.037633486 -0.019856572
-0.00015469948 -0.020320732 0.008414811 -0.0114667555 -0.03933917 -0.034829203 0.019632697 0.016083809
-0.015628975 0.0003032176 -0.050188348 0.01689357 0.039410315 0.021403275 0.0012702871 -0.0005038538
-0.02408369 0.017763108 -0.050246045 0.03543891 0.051616598 0.010577542 0.02609724 -0.027501991
0.0037778763 0.0077500017 0.011303678 0.03360772 0.0049303505 -0.02597319 0.013984757 -0.0001951385
0.0106911715 -0.004311594 0.0116111785 0.0121910935 -0.01457473 -0.014884264 0.04022211 0.024553755
-0.027266776 0.0028921945 -0.00081076234 0.042822316 -0.022659872 -0.02601443 0.020986231 -0.031557385
-0.02958768 -0.025298854 0.0013499703 -0.0056461245 0.009140087 -0.0044353683 -0.021663144 -0.023821635
0.015278355 0.02612942 0.009384269 0.012219952 0.019986412 -0.004204566 0.0055828947 0.02697895
-0.009138003 -0.026553854 0.027798347 -0.0016978532 0.04167917 -0.030485213 -0.02862783 0.0048596864
-0.0045661954 -0.04601635 -0.010568962 0.009893551 -0.007260215 0.013990806 -0.028481124 -0.03478363
0.0006574528 -0.03955325 0.016559798 -0.040268224 -0.03831231 0.025432333 0.021169646 -0.012000365
-0.028608704 0.0056018527 -0.027390605 0.0035784224 0.033529203 -0.02028519 0.039607204 -0.043167952
-0.0251758 -0.0011630848 -0.0104781035 0.010566492 0.0053829225 -0.007160752 -0.012314709 -0.03775256
-0.02927832 0.024246335 0.01988687 -0.01899053 0.019308839 0.020277293 -0.019576123 0.009149819
0.009286145 0.0062393355 -0.026996376 0.010531636 -0.00059913757 -0.03710363 0.020727303 -0.00886652
-0.014657262 0.011781969 0.010162616 0.028171992 0.013050936 -0.021702819 0.017806178 -0.02097874
0.018729145 0.006504603 0.037370723 -0.048054233 -0.029618546 0.00068013364 -0.004460302 0.036460955
0.028079268 0.01034589 0.0371586 0.03659863 -0.027718194 0.019769954 0.0059688524 -0.02445163
0.030381061 0.018551864 0.014377692 -0.0122805135 0.003380323 0.0073682577 -0.039612904 0.010080783
0.01435301 0.041657753 0.021867776 0.00046126952 -0.024265567 -0.0021252788 0.021417625 -0.00359329
0.01392631 0.0059670876 -0.014744539 0.021965656 -0.034146138 -0.0252136 0.020838697 0.0058197547
0.018612497 -0.024111427 0.023928795 0.03261632 0.017558265 0.037128463 0.006325013 0.043038238
0.0028632702 0.009380543 -0.01499034 0.005563929 0.022099327 0.031415503 0.008538799 -0.037530612
-0.008177345 0.020912312 -0.020560574 -0.03558163 -0.027222266 -0.00780535 -0.013957033 0.017708413
-0.02974479 -0.03798418 -0.011835395 -0.009480181 -0.010206289 -0.01586773 -0.008658752 0.014937585
0.025501922 0.009417607 0.001005957 0.044107586 0.028921332 -0.0122553585 -0.03006681 -0.009993036
0.038326513 -0.02489993 -0.009945396 -0.013025737 -0.027214084 0.0018888221 -0.003293405 -0.020784691

bias f4 [128]
00000000: 3095 febc deaf ccbc 5c1e e7bc ec93 11bd
00000010: cdee 7b3c 2f92 94bb 78c9 e8bc 6d59 2ebc
00000020: d80b 083d 3191 3dbc 9c53 acbc 6e29 f03b
00000030: fc6b bd3b 3aac 4d3c fa74 4b3c 9b71 ce3c
00000040: 7e40 b2bc 258e ee3b d70f cf3c 3ca8 f4bc
00000050: 427d a8bc eea6 04bc 0147 223c 7fbd 023d
00000060: 8cd0 853c 0dd1 093c 7d4c 87bc c44e f2bc
00000070: da9b 043c 09e0 c43b 56af b03c 4431 0dbc
00000080: a431 c03c 085f 343c 3322 e13b 8a96 393d
00000090: 9c25 2abc 07df f9bc 7466 99bc 649d c43a
000000a0: 86cd 7839 055c 4c3c 6742 613c 60b4 183b
000000b0: ca9b 43bb ac6e 0bbd 8059 e03c 3305 79bc
000000c0: 7d94 d1bc 3ab5 84bc deb9 a83c 04e6 0e3b
000000d0: ad6c 31bd 2481 223c a24a 35bb cf7d 673b
000000e0: f46a 3c3c c24d 80bc a62a 2b3d 5231 bdbc
000000f0: 2e07 4abc be4f 07bd cdd1 d2bc 18c8 7a3c
00000100: 5435 40bd 607e 2d3c c892 14bc 921c 413c
00000110: c0af ed3c c668 063c b4f7 91bc c122 3d3d
00000120: 4ce4 2a3d f3df 81bc cb56 61bd 7468 04bc
00000130: 5b7d 6dbd 9f22 9abc 8ab5 e7bb a328 00bd
00000140: acdb 153b 0644 1ebc f182 e43c 34f8 39bc
00000150: b107 14bc 6212 ce3c e423 d0bc 8994 573d
00000160: f9b4 d038 f4d1 dfbc f353 293b 8009 09bd
00000170: 8de2 9abc 53f9 a73c f195 883b 2c68 14bd
00000180: 9e5f 8e3c 0966 4fbd dd86 e83b b0e8 a53c
00000190: f476 b5bc 3053 2d3d 4384 a1bc ebd6 463d
000001a0: 7020 7ebd 3bab f93c fd9e 6d3d 7929 72bd
000001b0: e948 54bd e400 1b3c fc8d 283d bdff 65bc
000001c0: 46e4 aebb ad58 4a3d 6bf3 48bc aa0e 4a3d
000001d0: 531a cdbc b290 173d 37ae 6a3d 1b6d cabc
000001e0: 0072 a83c 7351 a7bc 76b4 013c 9325 173d
000001f0: 710d 553d 3495 27bd 94e2 8e3c e81d 27bd
-0.031076998 -0.024986204 -0.028212719 -0.03554146 0.015376759 -0.004534028 -0.02841638 -0.010641438
0.03321442 -0.011570261 -0.021035962 0.0073291576 0.005780695 0.012553269 0.012418026 0.025200656
-0.021759268 0.0072801285 0.025276108 -0.029865377 -0.02056754 -0.00809644 0.009904624 0.031919
0.016334794 0.008411658 -0.016515965 -0.029578574 0.0080937985 0.0060081524 0.021567982 -0.008617703
0.02346117 0.011008985 0.006870532 0.04530958 -0.010384943 -0.030501856 -0.018725611 0.0015000519
0.00023727686 0.012473111 0.013748742 0.0023300871 -0.0029847496 -0.03404109 0.027386427 -0.0151989935
-0.0255835 -0.016199697 0.02059644 0.002180458 -0.043316532 0.009918485 -0.0027662893 0.003532279
0.011500109 -0.015662078 0.04178872 -0.023094807 -0.012330813 -0.033035032 -0.025734806 0.015306495
-0.046925858 0.010589212 -0.0090681985 0.011786597 0.029014468 0.008203691 -0.01781831 0.046175722
0.041721627 -0.015853858 -0.055014413 -0.008081544 -0.057980876 -0.018815337 -0.0070712017 -0.031288754
0.002286653 -0.009659773 0.027894469 -0.01135068 -0.009035037 0.02515525 -0.025407739 0.05263189
9.951922e-05 -0.027321793 0.002583739 -0.033456326 -0.018906856 0.02050463 0.004168265 -0.03623216
0.017379578 -0.050634418 0.007096155 0.020252556 -0.022151448 0.042315662 -0.019716388 0.048544805
-0.062042654 0.030477157 0.05801295 -0.059121583 -0.051827345 0.009460662 0.04115103 -0.014038024
-0.005337271 0.049400974 -0.012265067 0.04933039 -0.025036966 0.037003227 0.05729505 -0.024710229
0.020562172 -0.02042458 0.00791656 0.036901068 0.05201477 -0.040913776 0.017442025 -0.040800005

weight f4 [14, 768]
00000000: 1405 62bc 3f70 333d 62ca fb3c 212c 0bbd
00000010: fcc0 e5ba 68b5 053d c7e4 293b c7ee 7abc
00000020: 747e 243d f5e9 a7bc bd0b 113d 0d3d 013d
00000030: 01c5 bfbc c0b5 94bc 45b7 f33c a249 84bc
00000040: 5235 62bd 0a5a 4b3d 53b2 64bd 4d04 993c
00000050: cfa9 d63c 8e06 15bd bc15 7e3d 716f 68bd
00000060: fdfb 38bd d6ed ea3c 4071 8fbc 3920 373d
00000070: 73d5 e7ba bcde ff3b 18c0 b0bc 57e3 0f3d
00000080: 203a 42bb 1581 dd3c 71f4 6b3b 6f78 dd3c
00000090: d538 7ebc 3571 17bc 5da3 c03c 6fc0 603c
000000a0: 776d d53a b4ec 09bd 01ec 4b3d 2007 c33a
000000b0: 93df 243c 2ff7 a7bc f8d1 9d3c 614a babc
000000c0: c26d 06bc dff8 a43b 693d 0c3d 3064 01bc
000000d0: 2de1 acba 517d de3c b28b 8d3c 72c3 63bb
000000e0: a0e5 d2bb d18e dc3c e883 09bd 45a7 a2bc
000000f0: 02c9 1ebc 340e 4c3c af6b 5c3c 5fb8 03bc
00000100: 1f02 fcbc c553 a7bc a840 85bc ca75 debc
00000110: b358 5dbc 6784 2fbd 2927 aebb 55f5 143c
00000120: 86e8 b23c b4f0 963c 8717 173b 8cf9 c4bc
00000130: 3334 f13c 5a2e aab9 6e40 a5bb 566f 85bb
00000140: befa 453c 5110 80bd b2ef 433d e791 233d
00000150: ebed 113d cb9a a13c 371d e9bb ea55 46bc
00000160: 2da9 4fbc b312 fd3c 5b7c 0abb 5544 a6bb
00000170: f49d a03b fde9 e6bc 413b 743c fea1 13bb
00000180: 473c b73c f701 3d3d f6d3 873d 52c7 69bb
00000190: 4d4f 71bc 8811 f93c c7be da3c 4000 0e3c
000001a0: cad0 533d a2f4 1b3c 502c 043c a822 863c
000001b0: 045c 803b a950 6ebc 5c2d 773c 8dc3 7f3b
000001c0: 23a2 a73a 553e 573c 3459 9d3b 479e 38bc
000001d0: 2714 303d bd09 c73b 7a34 bfbc 8494 883c
000001e0: 2242 263c 9303 93bb 2363 9dbc 22be 6e3c
000001f0: 19d0 99bc 44d4 b43b 5d96 adbc 9afd 5f3c
00000200: 2734 463d 009d 9cbc c812 1f3c e758 723c
00000210: 8e72 653c 8b52 123c 875a c3bb 1523 7ebc
00000220: 6b4c 47bc 48d7 8c3c 6db8 88bb c7a4 0d3d
00000230: 244e e2bc d1c7 e03b ecf3 2fbb 89c5 aebc
00000240: c99c 06bc ce1f d0bc 5268 dbbc 117c 553c
00000250: 8bfb e2bc 2228 db3a bb8d 25bd fc22 4c3d
00000260: e808 49bc 6c0d debc 94f9 cc3b 1536 05bb
00000270: ee24 993c 8c62 8a3c 257d 32bd 219c 35bd
00000280: c554 cbbc 1964 74bc 67c1 a5bc 500f 523b
00000290: f6ed 033d 826c 093d 3c18 e93c 946e 45bc
000002a0: efe8 07bd d1b2 7fbd 7754 003d d06c 09bc
000002b0: adbc 4cbc 9560 9cb9 9c61 733c b1ef aa3c
000002c0: 2b82 d23c 70a2 1e3d 8728 ec3c 8156 b73c
000002d0: fa3a 3d3d 6b34 e5bb 4e4f bf3c 8fb3 ffbc
000002e0: 0338 983c 8e36 bdbc 3528 febc bc82 2c3d
000002f0: e879 563c b7ce 15bc f973 3f3d 0790 05bb
00000300: 2edb f83b bd2e 1ebd 1a21 703d fc5b ac3c
00000310: e29f 1b3d f762 3d3c 58fd 90bc 0393 15bd
00000320: 02d0 383d 8ed5 5ebd 8e77 533c 6875 f73b
00000330: a8b7 de3c a809 643a eb46 913d c1c4 0d3d
00000340: 5601 083b 7ce4 93bc b839 073b f143 193d
00000350: cec9 5e3b 1da8 bbbc 3842 efbc 6294 1f3b
00000360: ab95 9ebb fa37 21bd 15f9 85bc 2ec1 9bbc
00000370: 71c8 afbb e6dc c6bc 26d5 33bc e7be d23b
00000380: f8ce 543d b36c 203c 21d4 de3c aadc cfbc
00000390: 90bc 47bd 681d 64bc c089 ff3c e9ae 343d
000003a0: cc16 3e3c 5c1c f8bc eb10 863c ca28 56bd
000003b0: c971 0a3d 5fb0 c0bb 21cd 373c 8799 543a
000003c0: 02a7 833c 0855 99bc 1122 bd3c b328 a53b
000003d0: 99d3 743c ae27 dfbc b9b6 20bd f555 f13c
000003e0: c929 663b c039 d63b c345 803c 5067 4d3d
000003f0: c75f 143d 2e4a 9abc 985d b9bc f030 41bc
-0.013795156 0.043808218 0.030736152 -0.03397763 -0.0017528827 0.032643706 0.0025923715 -0.015315718
0.040159658 -0.020497302 0.035411585 0.031552363 -0.023409368 -0.018153071 0.029750476 -0.016148392
-0.05522663 0.049646415 -0.055834126 0.018678809 0.026204018 -0.036383204 0.062032446 -0.056746904
-0.04516219 0.028677862 -0.017510056 0.044708464 -0.0017687514 0.0078085344 -0.021575972 0.035128918
-0.0029636696 0.02703909 0.0036003853 0.027034966 -0.0155164795 -0.009243299 0.023515398 0.013717755
0.0016283233 -0.033673003 0.049785618 0.0014879443 0.01006307 -0.020503609 0.01926516 -0.022740545
-0.008204879 0.0050345506 0.034238253 -0.007897422 -0.0013189666 0.027159365 0.017278526 -0.0034753946
-0.006436065 0.026923569 -0.03357306 -0.019855151 -0.009691479 0.012454558 0.013453408 -0.008039563
-0.03076273 -0.020425687 -0.016266182 -0.027155776 -0.013509917 -0.042850878 -0.005314727 0.009091695
0.021839391 0.018425323 0.0023054795 -0.024044774 0.029443836 -0.0003245946 -0.005043081 -0.00407211
0.012083707 -0.06253112 0.047836013 0.039934065 0.035627287 0.019727131 -0.0071140784 -0.012105444
-0.012674612 0.030892706 -0.002113125 -0.005074064 0.004901642 -0.028187746 0.014906705 -0.0022526975
0.02236761 0.046144452 0.06632225 -0.0035671783 -0.014728379 0.030403867 0.026702298 0.008667052
0.05171279 0.009518774 0.008067206 0.016373947 0.003917219 -0.014545598 0.015086498 0.003902647
0.0012789409 0.01313742 0.0048018936 -0.011268205 0.04298797 0.006074159 -0.023340452 0.01667238
0.010147603 -0.00448651 -0.019212311 0.014571698 -0.018775987 0.005518468 -0.021189863 0.013671303
0.04838958 -0.019117832 0.009709068 0.014791704 0.014004363 0.008930813 -0.0059617194 -0.015511294
-0.012164216 0.017192498 -0.004172376 0.034580972 -0.027625151 0.0068597575 -0.002684827 -0.021334426
-0.008216091 -0.02540579 -0.026783142 0.013030068 -0.027707836 0.0016720335 -0.040418368 0.04983805
-0.01227019 -0.02710601 0.006255338 -0.0020326425 0.018694367 0.016892694 -0.04357638 -0.04433835
-0.024820695 -0.014916443 -0.020233823 0.0032052584 0.03220936 0.033550747 0.028453939 -0.01205029
-0.033181127 -0.062426392 0.031330552 -0.008387759 -0.012496156 -0.00029826598 0.014854815 0.020866247
0.025696835 0.03872913 0.028827919 0.022380115 0.046198823 -0.006994774 0.023353245 -0.03121355
0.018581396 -0.023097303 -0.031025032 0.042116866 0.013090588 -0.009143523 0.04674146 -0.0020380036
0.0075944876 -0.03861879 0.058625318 0.021039955 0.037994273 0.01155924 -0.017698929 -0.036517154
0.045120247 -0.05440288 0.012906922 0.0075518377 0.027187183 0.00086989487 0.07093605 0.034611467
0.002075275 -0.018053286 0.0020633768 0.03741831 0.0033994797 -0.022907311 -0.02920638 0.0024349918
-0.004839619 -0.039360024 -0.016354123 -0.019013014 -0.0053644706 -0.024275254 -0.0109761115 0.0064314487
0.051955193 0.009791541 0.02720076 -0.025373776 -0.04876381 -0.013923027 0.031193614 0.04411212
0.011602115 -0.03028696 0.016365489 -0.052284993 0.03379992 -0.0058804 0.01121834 0.00081100356
0.016070846 -0.018717304 0.023087533 0.005040252 0.014943027 -0.0272406 -0.039236758 0.029459933
0.003512012 0.006537646 0.015658265 0.050147355 0.036224153 -0.0188342 -0.022627637 -0.011791453

bias f4 [14]
00000000: d6c2 48bc a6c0 8f3b eaa7 10bc b841 59bd
00000010: a0c2 adbc 5478 883b 06d0 0cbd 16b5 3abc
00000020: acc6 b03c 0df6 a73c cf43 86bc 16df 44bd
00000030: 7783 6dbb b200 27bd
-0.012253484 0.004386979 -0.008829096 -0.05304119 -0.021210968 0.004164735 -0.034378074 -0.011395713
0.02157911 0.020503068 -0.016389756 -0.048064314 -0.003624169 -0.040772147
