efficient_global_pointer/saved_model/ner_model_f1_0.10.pth (torch, 438555 bytes, 4 tensors)

weight f4 [128, 768]
0	0xbb9cb288	-0.004782025
1	0x3b45e641	0.0030197056
2	0x3ce1cea6	0.027564358
3	0x3d21cded	0.039503027
4	0xbcd4424b	-0.025910517
5	0xbcde9feb	-0.027175864
6	0xbae819a2	-0.0017707834
7	0xbcaa31bf	-0.020775674
8	0x3b90413b	0.0044023073
9	0x3cc8ccec	0.024511777
10	0x3cc8e179	0.024521576
11	0xbd0c9a66	-0.034326933
12	0xbce614e1	-0.028086128
13	0xbcd48d2f	-0.025946228
14	0xbade1360	-0.001694303
15	0xbd021944	-0.031762376
16	0x3cf6581b	0.030071309
17	0x3ba477d5	0.005019168
18	0xbce8ff76	-0.028442126
19	0x3ce6de36	0.02818213
20	0x3d0c9821	0.03432477
21	0xbcbcba11	-0.023037942
22	0x3b478795	0.0030445803
23	0xbc0e758b	-0.008695017
24	0x3d039cd7	0.032131996
25	0x3d2ce3a2	0.042209275
26	0x3a9d498a	0.0012000066
27	0xbc8a4da5	-0.016882727
28	0xbc162894	-0.009164948
29	0xbc928e67	-0.017890168
30	0xbd0ff1ea	-0.035142817
31	0x3d02b3e5	0.031909842
32	0xbbcc4d30	-0.0062347874
33	0xbc854af6	-0.016271096
34	0x3caec140	0.021332383
35	0x3cbbdc52	0.022932205
36	0x3cc4f0c6	0.024040591
37	0xbcc80a1e	-0.024418887
38	0xbd0f410f	-0.034974154
39	0xbcdf4479	-0.02725433
40	0x3cd15c79	0.02555679
41	0xbcbb91b1	-0.02289662
42	0xbcea6448	-0.028612271
43	0xbc0a227b	-0.008431072
44	0xbcccda64	-0.02500648
45	0xbd0fa205	-0.035066623
46	0x3c929ed6	0.017898005
47	0x3aa81f4c	0.001282671
48	0xbd0ba93f	-0.034096953
49	0xbcfe2426	-0.031023096
50	0xb9f10c55	-0.0004597629
51	0xbd0c6982	-0.034280308
52	0x3d007c4e	0.031368546
53	0x3c9658c2	0.01835287
54	0x3c8faa40	0.017537236
55	0xbba48f26	-0.0050219474
56	0x3bc2f84f	0.005950011
57	0x3bf7bdf8	0.007560488
58	0x3cf76d4e	0.030203488
59	0xbcb0ff64	-0.021606155
60	0xbc83e1f5	-0.016098956
61	0x3c8ffefa	0.017577637
62	0x3c804679	0.015658604
63	0x3b8ca05d	0.0042915777
64	0xbcecd858	-0.028911754
65	0xbc2a20d7	-0.010383806
66	0xbbeb5e60	-0.0071828812
67	0xbc4d6ac5	-0.012537663
68	0xbbd00c20	-0.0063491017
69	0x3cd72b8e	0.026265886
70	0xb912308d	-0.00013941732
71	0x3cc2158f	0.02369192
72	0xbbc8504c	-0.0061130878
73	0xbc72d914	-0.014822263
74	0xbcddb1a0	-0.027062237
75	0x3c59ff14	0.013305444
76	0x3cbb77d7	0.022884293
77	0x3c5e71f0	0.0135769695
78	0xbb03bce2	-0.0020101597
79	0x3b6935ea	0.0035585114
80	0xbca5af2b	-0.020225128
81	0x3c9aca6d	0.018895352
82	0x3bab1667	0.0052211764
83	0xbcd2f94b	-0.025753638
84	0xbd104752	-0.035224266
85	0xbcbf6ea8	-0.023368195
86	0xbd0a44d8	-0.03375706
87	0xbbd24323	-0.0064166947
88	0xbbedab06	-0.0072530536
89	0xbd0c2741	-0.034217123
90	0x3c2ca169	0.01053653
91	0x3c00e553	0.007867175
92	0xbcfd71b9	-0.030938016
93	0x3cbeb0fb	0.02327775
94	0x3b5b276a	0.003344024
95	0x3bab4ff7	0.0052280384
96	0x3ccd8a66	0.025090408
97	0xbc23f482	-0.010007026
98	0x3cf734b0	0.03017649
99	0xbb7eab34	-0.003885937
100	0xbcc2567d	-0.023722881
101	0x3c667590	0.014066115
102	0xbd0c91e7	-0.03431883
103	0xbd00880b	-0.03137974
104	0xbcf8a61a	-0.03035264
105	0x3c899c4a	0.016798157
106	0x3bc944c3	0.0061422302
107	0xbca393fc	-0.019968025
108	0xbce90f77	-0.028449757
109	0x39fffe49	0.00048826847
110	0xbce3ed10	-0.027823001
111	0x3cca3433	0.024683094
112	0xbcee729b	-0.029107383
113	0xbcad121b	-0.021126797
114	0xbcca4105	-0.024689207
115	0xbc86d6b1	-0.016459795
116	0x3cafd669	0.021464543
117	0xbcf923c9	-0.030412572
118	0x3bb7bd2f	0.0056072692
119	0x3ca8e0b2	0.020614956
120	0xbd211fcf	-0.039336976
121	0x3b185203	0.0023242242
122	0x3c2735d5	0.010205706
123	0x3d167987	0.03673699
124	0x3c62df19	0.013847136
125	0xbcca83a6	-0.024720978
126	0xbb6cd269	-0.0036136156
127	0xbca29d51	-0.019850405
128	0x3c023672	0.007947551
129	0x3d0fc577	0.035100427
130	0xbc82bc52	-0.015958939
131	0xbce47556	-0.027887981
132	0xbc04fa1c	-0.008116271
133	0xbce0b8d2	-0.02743188
134	0x3c0e17f5	0.008672704
135	0xbc4f4e44	-0.012652937
136	0x3b0594d5	0.00203829
137	0xbd039324	-0.032122746
138	0xbc2137a4	-0.009839926
139	0xbd19cd9e	-0.037549607
140	0xbd072fe2	-0.03300465
141	0x3ab28a4d	0.0013621539
142	0x3cefe3fb	0.029283514
143	0xbb51fca2	-0.003204145
144	0x3d0b8e6c	0.03407137
145	0xbd06c194	-0.032899454
146	0xbcabea02	-0.020985607
147	0xbb30d8a2	-0.0026984592
148	0xbce150d0	-0.027504355
149	0x3cffae3b	0.03121101
150	0xbcb284f0	-0.021791905
151	0xbcb17065	-0.02166004
152	0xbd23dfc0	-0.040008307
153	0x3cece03f	0.028915523
154	0x3bdb9b29	0.006701846
155	0x3abb265e	0.0014278402
156	0x3cdc8d74	0.026922919
157	0xbc39ebd6	-0.011347732
158	0xbc85e5f9	-0.016345011
159	0xbbe72ba4	-0.007054763
160	0x3ca470e0	0.020073354
161	0xbd0afddc	-0.033933505
162	0xbcbd6907	-0.02312137
163	0xbd172173	-0.036897134
164	0xbc93e27c	-0.018052332
165	0xbc92371c	-0.017848544
166	0x3b0bf747	0.0021357106
167	0xbbde96d3	-0.006792882
168	0xbbabc056	-0.005241434
169	0xbc8f037f	-0.017457722
170	0xbb3e03f6	-0.002899406
171	0xbcae99a4	-0.021313496
172	0x3cea846b	0.028627595
173	0x3b5b7fd3	0.0033492937
174	0x3d24d5e8	0.04024306
175	0x3ca53978	0.020169005
176	0x3cc61f8b	0.024184963
177	0x3c5ae03b	0.013359125
178	0x3cd3f888	0.025875345
179	0xbccebb46	-0.025235783
180	0x3b9485c0	0.004532546
181	0x3b2c27c2	0.0026268815
182	0xbcbd80d0	-0.023132712
183	0xbca7bb5d	-0.020475084
184	0xbc1814db	-0.009282316
185	0xbd1818fd	-0.037133206
186	0xbcce3537	-0.02517186
187	0x3ce2a3ec	0.027666055
188	0xbc201973	-0.009771693
189	0xbcb23220	-0.021752417
190	0x3c68e6a0	0.014215142
191	0x3ca1697a	0.019703615
192	0xbcecc0c9	-0.02890052
193	0xbc3f58c0	-0.0116788745
194	0xbcf4980b	-0.029857656
195	0x3ce76090	0.028244287
196	0x3c7eec20	0.015559226
197	0xbc2df14d	-0.010616613
198	0xbcb29210	-0.021798164
199	0xbb69ee3f	-0.0035694984
200	0xbd114e19	-0.03547487
201	0xbcd24cab	-0.025671324
202	0x3c9aa679	0.018878208
203	0x3a9525e2	0.0011379088
204	0xbcb5a1ae	-0.022171821
205	0xbc9bb9a4	-0.019009419
206	0xbb94f633	-0.004545951
207	0x3c93331a	0.017968703
208	0x3d21fa41	0.0395453
209	0x3c8b61a2	0.017014328
210	0xbceece26	-0.029151034
211	0xbd1536f5	-0.036429364
212	0xbd1b893d	-0.037972677
213	0xbc606fe4	-0.013698552
214	0xbb4eb4ad	-0.0031540797
215	0x3d124e42	0.035719164
216	0xbc7af6a1	-0.01531759
217	0xbadda406	-0.0016909845
218	0x3ad115b4	0.0015951903
219	0x3c48f14c	0.012264561
220	0xbc4632fd	-0.0120971175
221	0xbc981c27	-0.018568112
222	0x3be4c5fa	0.0069816085
223	0xbcbc17d2	-0.022960577
224	0xba731d8d	-0.0009274118
225	0xbcd3895f	-0.02582234
226	0x3cb7882a	0.022403795
227	0x3cd09203	0.025460249
228	0x3cc0fce8	0.023558095
229	0x3c760eb5	0.015018155
230	0xbcea9fc6	-0.028640639
231	0xbcddd7e2	-0.02708048
232	0xbc11d1ab	-0.008900086
233	0xbc453d07	-0.012038476
234	0x3cd8e5dd	0.026476795
235	0xbc9e4db5	-0.019324163
236	0xbc8ad9c2	-0.016949538
237	0x3d196a54	0.037454918
238	0x3b582fea	0.0032987543
239	0xbcd4732f	-0.02593383
240	0x3c39373f	0.011304676
241	0xbd0732c9	-0.033007417
242	0x3abfb4ce	0.0014626028
243	0x3d00b72e	0.031424694
244	0xbcdbee50	-0.026847035
245	0xbb99f2e0	-0.0046981424
246	0xbce6c0ff	-0.0281682
247	0xbc81d4e1	-0.015848579
248	0x3cbe1e92	0.023207936
249	0x3d015982	0.031579502
250	0xbd002d71	-0.031293336
251	0xbc6adab9	-0.014334374
252	0x3c8ca85d	0.017170126
253	0xbce36026	-0.027755808
254	0xbc92d245	-0.01792253
255	0xbd193ee4	-0.037413493

bias f4 [128]
0	0x3ce591f5	0.0280237
1	0xbcdcefed	-0.026969874
2	0xbc85c5fd	-0.01632976
3	0xbcbc1832	-0.022960756
4	0x3aa4fd23	0.0012587648
5	0x3cd27114	0.025688685
6	0x3cdd5de9	0.027022319
7	0xbd00f4e6	-0.031483553
8	0x3a32b07c	0.00068164594
9	0xbd085dd9	-0.033292625
10	0x3ca74e2b	0.020423016
11	0x3ca7f0a7	0.020500494
12	0x3d147c52	0.036251374
13	0xbca7ea5c	-0.020497493
14	0xbd1a1dc6	-0.03762605
15	0xbd1ac2db	-0.037783485
16	0xbcd0098d	-0.02539518
17	0xbc4001f1	-0.011719213
18	0x3cb09f03	0.021560198
19	0xbc9f06cc	-0.01941242
20	0xbcbe48c6	-0.02322806
21	0x3bb57d7a	0.0055386396
22	0xbbed2950	-0.007237591
23	0xbbd594f1	-0.0065179993
24	0xbd0d6769	-0.034522448
25	0x3cbeb7a1	0.02328092
26	0x3d073627	0.033010628
27	0xbd02c535	-0.031926353
28	0xbca95b00	-0.020673275
29	0xbb36ec87	-0.0027911977
30	0x3cb4b651	0.022059591
31	0xbb8a0407	-0.004211906
32	0x3c5f34a8	0.013623394
33	0x3d296376	0.04135462
34	0x3d1543ac	0.03644149
35	0x3ca8de8d	0.020613933
36	0xbbd5348e	-0.006506509
37	0xba35a25b	-0.0006928795
38	0xbc848bd3	-0.016179955
39	0xbcf37370	-0.02971813
40	0xbcd0a6a4	-0.025470085
41	0xbd049943	-0.032372724
42	0x3ce465ac	0.027880512
43	0xbc67fda4	-0.014159594
44	0x3ce228d8	0.027607366
45	0x3bb35506	0.005472782
46	0xbcad38f2	-0.021145318
47	0xbcbdcdd7	-0.023169441
48	0xbc73a69a	-0.014871264
49	0xbcd1b82e	-0.025600519
50	0x3b1d6ad1	0.0024019966
51	0x3a82de85	0.0009984529
52	0x3c986e85	0.018607387
53	0x3c67b62c	0.014142554
54	0x3c3aaea5	0.011394178
55	0x3c345e45	0.011008804
56	0x3c4840fe	0.012222527
57	0xbc8cca47	-0.017186297
58	0x38d5aff7	0.000101894075
59	0x3c1e49e9	0.009661176
60	0xbd029d64	-0.03188838
61	0xbb608d73	-0.0034263998
62	0x3cf406a7	0.029788328
63	0x3ca50bdb	0.020147255
64	0x3c92d046	0.017921578
65	0x3cdb3746	0.026759755
66	0x3bf0e146	0.0073510734
67	0xbc9a9242	-0.01886857
68	0xbcda1e64	-0.02662582
69	0x3b049aeb	0.002023394
70	0x3c5f441d	0.013627079
71	0xba1c6983	-0.000596665
72	0xbb3973bb	-0.002829774
73	0xbc2fc8f9	-0.010729068
74	0x3c5e767b	0.013578053
75	0xbbb493aa	-0.005510767
76	0xbb2a41b3	-0.0025979101
77	0x3c2e8778	0.010652415
78	0xbbedf0ff	-0.007261395
79	0x3cd7fa4b	0.026364466
80	0x3d146826	0.036232136
81	0xbc2aee94	-0.010432858
82	0xbce990b3	-0.02851138
83	0xbcdecea5	-0.027198145
84	0x3cbec3ed	0.023286784
85	0x3b82ea2b	0.0039952
86	0x3b8fe51e	0.0043913266
87	0xbcc8353e	-0.02443945
88	0x3c360ddd	0.011111704
89	0xbc812b0d	-0.015767599
90	0xbcd29b40	-0.025708795
91	0xbbacdb2f	-0.005275152
92	0xba30282a	-0.0006719852
93	0xbd16c243	-0.036806356
94	0xbcc26067	-0.023727609
95	0x3d2d2c8a	0.042278804
96	0x3bd074c0	0.006361574
97	0x3cc4b75b	0.024013212
98	0x3c96cbe9	0.018407779
99	0xbbecf098	-0.0072308294
100	0xbbe52789	-0.0069932383
101	0x3c214948	0.009844132
102	0xbc2966dc	-0.010339465
103	0x3c0f9e1e	0.008765725
104	0x3d1ed5dc	0.03877817
105	0x3a695c71	0.00089020195
106	0x3c99cdb3	0.018774843
107	0xbc8a9a97	-0.016919417
108	0x3d269c22	0.040676244
109	0x3b8318e1	0.0040007685
110	0x3c3fb4c3	0.011700812
111	0xbd115e59	-0.035490368
112	0x3caeb65c	0.02132719
113	0x3d06b9c6	0.03289201
114	0xbcb6b77a	-0.022304285
115	0xbb892838	-0.0041857027
116	0x3d2a1b23	0.041529786
117	0xbd181bdf	-0.037135955
118	0xbbebd70f	-0.007197268
119	0x3b85addf	0.004079565
120	0xbcbd47e5	-0.023105571
121	0xbc00e9dc	-0.007868256
122	0xbcabad2d	-0.0209566
123	0x3d0874cb	0.033314507
124	0xbc691585	-0.014226322
125	0x3d181d8b	0.03713755
126	0x3cbfd6c4	0.023417838
127	0xbc7d8fb1	-0.015476153

weight f4 [14, 768]
0	0xbd0201d1	-0.031740014
1	0xbcbb055a	-0.0228297
2	0xbc1f5f3c	-0.0097272955
3	0x3b4c659c	0.0031188494
4	0x3cc3b455	0.0238897
5	0x3be250ab	0.006906589
6	0xbcbdf2f1	-0.023187133
7	0x3b6722ed	0.003526862
8	0x3bcdd2b8	0.006281223
9	0x3d05ff0e	0.032713942
10	0x3c7bb400	0.01536274
11	0x3bc8c5d7	0.0061271
12	0x3d197ee1	0.037474517
13	0xbd288bd4	-0.041148975
14	0xbcb1e2b4	-0.021714546
15	0x3c1ab875	0.009443392
16	0x3cc356af	0.023845045
17	0xbbde6578	-0.0067869984
18	0xbd1522b7	-0.03641006
19	0x3cb158ff	0.021648882
20	0x3b805ff7	0.00391769
21	0x3c7e3c06	0.01551724
22	0x3bd859d7	0.0066025066
23	0x3b130f5a	0.002243957
24	0xbccf1f12	-0.02528337
25	0xbada71f6	-0.0016666043
26	0xbcd331fd	-0.025780672
27	0xbce90c07	-0.028448118
28	0x3c5621e0	0.0130696
29	0xbcd3fe46	-0.025878083
30	0xbba53095	-0.005041192
31	0xbb30305c	-0.0026884293
32	0xbc2305fb	-0.009950156
33	0xbccc99d9	-0.024975704
34	0x3c921c45	0.017835746
35	0x3d042274	0.03225942
36	0x3bc64638	0.006050851
37	0x3ceff9b3	0.02929387
38	0x3b17669e	0.0023101936
39	0xbceb5628	-0.028727606
40	0x3b118cb8	0.002220912
41	0x3caf1272	0.0213711
42	0x3cba4857	0.022739572
43	0x3c09376e	0.008375032
44	0xbd0c35a5	-0.034230847
45	0x3cd15805	0.025554666
46	0xbd2a0acd	-0.041514207
47	0xbadae050	-0.001669893
48	0x3c06503f	0.008197843
49	0x3ca1d50e	0.019754913
50	0x3b962ea3	0.0045831962
51	0xbc9a985f	-0.018871484
52	0x3c69986f	0.014257534
53	0xbcd7455f	-0.026278196
54	0x3bedb277	0.0072539407
55	0xbc628d04	-0.013827566
56	0xba687fa9	-0.00088691205
57	0xba75b582	-0.0009373055
58	0xbbb8bb61	-0.0056375717
59	0x3c8dd168	0.017311767
60	0xbcf253a0	-0.029580891
61	0xbb53bef9	-0.0032309873
62	0x3d120d71	0.03565735
63	0x3c9108a6	0.01770432
64	0xbc8b53b7	-0.017007692
65	0x3b8fbdd9	0.0043866453
66	0xbd1f67b6	-0.038917266
67	0xbcedcace	-0.029027369
68	0xbc8db2de	-0.017297205
69	0x3bac6668	0.005261231
70	0xbc26b40a	-0.010174761
71	0x3d2d4b9b	0.04230843
72	0x3cdd5905	0.027019987
73	0xbcfe69ed	-0.031056369
74	0xbcc23af3	-0.02370975
75	0xbd188eef	-0.037245687
76	0xba3c3ee1	-0.00071810005
77	0x3d093033	0.033493232
78	0xbcea3385	-0.02858902
79	0x3c3a9b2e	0.011389537
80	0x3c4eece4	0.012629721
81	0xbbbf9b4d	-0.0058473707
82	0xbcb7ec30	-0.02245149
83	0xbb71a85b	-0.003687403
84	0x3d089722	0.033347256
85	0x3b859bb9	0.0040774015
86	0xbc37afcd	-0.011211348
87	0x3cc1ff4b	0.023681303
88	0xbcf4eb56	-0.029897373
89	0xbbbe05dc	-0.0057990383
90	0x3c59af49	0.01328642
91	0xbcb3a999	-0.021931456
92	0x3c64ec16	0.013972303
93	0x3cff51ad	0.031166876
94	0xbd1d0e29	-0.038343582
95	0xbacdc5a8	-0.0015699165
96	0x3d131368	0.03590718
97	0xbbcca617	-0.0062453854
98	0x39baad55	0.00035605827
99	0x3cb8bb85	0.022550354
100	0x3c7ce354	0.015435059
101	0xbc87814c	-0.016541146
102	0xbcdf62ec	-0.02726885
103	0x3c71ff36	0.01477032
104	0xbc944d86	-0.018103372
105	0xbbc29052	-0.0059376145
106	0xbc822206	-0.015885364
107	0xbca29df4	-0.019850709
108	0xbc1ba6c2	-0.009500207
109	0x3cffccb4	0.03122554
110	0xbcbddff8	-0.023178086
111	0x3d1f48a7	0.038887646
112	0x39ec90d8	0.00045121345
113	0xbc77ab03	-0.015116456
114	0xbcda5e1e	-0.026656207
115	0x3d192a13	0.03739364
116	0x3bb83abb	0.0056222356
117	0xbcb37de3	-0.021910613
118	0xbc1e2cc4	-0.009654228
119	0xbbcd4036	-0.006263758
120	0x3c6906da	0.014222825
121	0x3bfe7442	0.007765324
122	0xbd1ffb6f	-0.039058145
123	0x3cf1ee58	0.029532596
124	0xbc9b661a	-0.018969584
125	0xbb9da589	-0.004810993
126	0xbc18509f	-0.009296565
127	0xbcbcefa4	-0.023063488
128	0x3d2659bd	0.040612925
129	0xbc7a2360	-0.015267223
130	0x3d0575d1	0.03258306
131	0x3c63d005	0.013904576
132	0x3beeb894	0.007285187
133	0x3cdc646c	0.026903354
134	0xbcdcfbcb	-0.026975533
135	0x3c17c4f0	0.009263262
136	0xbc9fcb68	-0.019506171
137	0x3cea5db7	0.02860914
138	0x3cdbeddd	0.02684682
139	0x3c959602	0.018260006
140	0x3b928f34	0.0044726375
141	0x3b32d618	0.0027288254
142	0x3bf719e6	0.007540929
143	0xbcc64cd2	-0.024206553
144	0xbce9ca47	-0.028538836
145	0x3bfbeade	0.0076879105
146	0x3a6e7b1d	0.0009097325
147	0xbc327e14	-0.010894317
148	0xbbbbe3ec	-0.0057339575
149	0x3cd720da	0.026260782
150	0x3c5ae582	0.013360383
151	0x3d0bcd80	0.034131527
152	0xbcf88ff0	-0.030342072
153	0x3c84f93e	0.01623213
154	0x3cd0fa2a	0.025509913
155	0xbca8e1ba	-0.020615447
156	0xbb9c6ccf	-0.004773713
157	0x3b80ed38	0.0039345287
158	0x3cb97835	0.022640327
159	0x3d17d7f3	0.03707118
160	0x3cfa603b	0.030563464
161	0xbb407fa8	-0.0029372964
162	0xbcb1a48e	-0.021684911
163	0x3be4a6e1	0.0069779013
164	0x3bc497c5	0.0059995377
165	0xbbca5970	-0.0061752126
166	0x3b5bc3c9	0.0033533445
167	0xbc4b03d2	-0.012391048
168	0x3c50aa41	0.012735904
169	0xbc7fd272	-0.015614139
170	0x3cf3acaf	0.029745428
171	0xbcf1e830	-0.029529661
172	0x3cada267	0.021195604
173	0xbc588776	-0.01321589
174	0x3b8dd718	0.0043286197
175	0xbcda9e3a	-0.026686776
176	0xbc8b9446	-0.017038476
177	0x3c64bdca	0.013961265
178	0x3d19eaad	0.03757732
179	0xbc9ffb1b	-0.019528916
180	0x3cac8540	0.021059632
181	0x3b21e31e	0.0024702023
182	0x3ccdc756	0.025119465
183	0x3cc4ff74	0.02404759
184	0xba53c0d6	-0.0008077746
185	0xbcf012ae	-0.029305782
186	0xbb112da9	-0.002215246
187	0x3c005e1d	0.007834938
188	0xbd0c31f1	-0.034227315
189	0xbac7650c	-0.001521261
190	0xbcb59f4f	-0.02217069
191	0xbc328d43	-0.010897937
192	0xbae452e8	-0.0017419728
193	0xbcca40dd	-0.024689132
194	0x3ccea1ab	0.025223574
195	0x3c3b1598	0.011418723
196	0x3ca5f3bc	0.020257823
197	0xbcc3819e	-0.023865517
198	0x3c302a18	0.010752223
199	0xbb9ae4fc	-0.004727004
200	0x3bab6c45	0.0052314126
201	0xbcdeacba	-0.027181972
202	0x3d21efee	0.039535455
203	0xbae293fb	-0.0017286533
204	0x3d19348b	0.037403625
205	0x3cc1afa0	0.023643315
206	0xbc3b82fa	-0.011444801
207	0x3d254166	0.040345572
208	0xbc740a41	-0.014895023
209	0x3ac86bb8	0.0015290892
210	0x3cb24353	0.021760618
211	0xbcb206f2	-0.021731827
212	0x3c88e6fd	0.016711706
213	0x3d221d3a	0.039578654
214	0xbc4528c1	-0.012033642
215	0xbb5dac86	-0.0033824756
216	0xbccd9b6c	-0.025098525
217	0xbce7f701	-0.028316023
218	0x3ccaf80a	0.024776477
219	0x3cae6c5a	0.0212919
220	0xbcf7b08f	-0.030235557
221	0x3c1ff891	0.009763853
222	0x3c5e2333	0.013558197
223	0x3c4afe78	0.012389772
224	0x3cc12856	0.023578804
225	0x3c259967	0.010107375
226	0x3c8008ff	0.01562929
227	0x3c3fe4b8	0.011712246
228	0xbd127343	-0.035754453
229	0x3d175fbe	0.03695654
230	0x3cd7b291	0.026330264
231	0x3d202c6f	0.039104875
232	0xbb79fcd6	-0.0038145087
233	0xbccb02bf	-0.024781583
234	0xbc5c41ae	-0.013443394
235	0x3d1e86e9	0.03870288
236	0x3bbf13c4	0.0058312137
237	0xbcea53a6	-0.02860434
238	0x3be5878e	0.007004685
239	0x3b96c30d	0.0046008886
240	0x3c9f5237	0.019448383
241	0xbd1a693d	-0.03769802
242	0xbc088d29	-0.008334436
243	0xbd0ddb4f	-0.034632977
244	0xbce66faf	-0.028129427
245	0xbc59ab5a	-0.013285482
246	0xbcaae9ea	-0.020863492
247	0xbce65da5	-0.028120825
248	0x3cfceaab	0.030873617
249	0x3c929b87	0.017896427
250	0xbd1e1907	-0.038598087
251	0xbb563f2e	-0.0032691467
252	0xbc23c405	-0.009995465
253	0x3a05d9f2	0.0005106024
254	0x3d1fce13	0.039014887
255	0x3cf1d8f1	0.029522391

bias f4 [14]
0	0x3c5bc27f	0.013413071
1	0xbba0238f	-0.0048870514
2	0x3a86830b	0.0010262443
3	0xbc680f9a	-0.014163876
4	0x3bbaf57b	0.005705533
5	0xbcf5603b	-0.029953113
6	0x3acfb090	0.0015845466
7	0x3ccd06ed	0.025027717
8	0xbbc6c29c	-0.0060656797
9	0x3cd156cc	0.025554083
10	0x3c9d5e0c	0.019209884
11	0x39892817	0.00026160546
12	0xbc30c954	-0.010790188
13	0x3b5f116f	0.003403749
