pytorch_bilstm_crf/model_A.bin (torch, 144659 bytes, 14 tensors)

word_embeds.weight f4 [1913, 16]
0.0 0.0 0.0 0.0 0.0 0.0 0.0 0.0
0.0 0.0 0.0 0.0 0.0 0.0 0.0 0.0
-7.585867e-18 -2.915014e-07 -3.2685772e-08 -0.009818273 -0.008185648 0.25232828 7.8238454e-19 -2.7239322e-10
0.17280644 0.00041864702 -0.20897733 0.00016719573 -2.2853937e-10 -9.085563e-09 7.818e-42 7.325e-42
0.72998416 0.8288144 1.9388386 2.0787146 0.6137724 0.8379402 0.2675151 1.7247201
0.6604669 -1.4243488 1.8498713 1.1265899 -0.35087317 0.94984657 1.5483847 -0.097205825
1.4014918 0.027625315 3.0598986 0.116352856 -0.20751797 0.2541561 0.88689834 -0.9588482
0.24344549 -1.2435092 0.21049845 0.39993685 -1.3782576 2.0592043 -0.6113039 1.728763
1.8152555 1.8827099 -0.27804464 0.46846935 -0.6923363 1.8719751 2.9739778 -0.76252717
0.8680567 2.1958077 0.3714193 1.3501768 0.4652962 -1.3415506 -0.20543633 0.73517805
0.6354258 -0.6232821 -1.3745317 -2.190725 0.3583174 0.23844488 -0.23872472 -0.445372
0.94026935 -0.0050250534 -0.31022796 0.66754663 -2.2837522 0.40953168 2.106624 -2.252564
0.20834537 -0.636494 -1.515163 1.589112 -1.9955587 0.48493996 -0.50187874 -1.6988158
0.017254572 -0.2748541 1.3338113 1.247132 -1.2030013 -0.8072271 -2.7642303 1.4266951
1.8002509 0.28771642 -2.0706549 -0.13051608 0.74768233 0.69365233 -0.16908456 1.2926364
0.8383678 -1.4819827 -0.56379825 0.101639844 2.2887652 1.384704 -0.9755554 0.31000674
1.6411755 -0.9043536 -0.26788673 -0.025306333 1.6544336 1.637206 0.06811173 -1.6078646
0.2041051 1.1674175 1.096797 -0.6432017 -0.42251706 0.4769881 -0.2905247 1.2870157
0.16448696 -1.5239389 1.7785884 -0.464624 2.248075 -0.039939746 -1.0536125 1.7960398
-0.84847033 -0.33218133 1.5197426 0.0180909 -1.0787886 -0.08871805 -0.28062955 0.47513813
1.5473576 -0.4369655 1.004033 0.6042345 -1.9096199 -0.26030287 -2.1071875 1.0628264
0.9352993 1.5554641 1.0771233 0.5417298 -3.4810507 0.9094087 -0.19426186 -0.06368949
0.7852591 -0.571232 -0.14469828 2.6951091 0.14139119 0.5254424 -1.2545964 -0.271137
0.26051828 2.0501993 1.0762094 -0.92909265 -1.3407129 -0.52555215 1.0923254 -0.5501347
1.7694516 0.19493453 0.7021218 1.0307244 2.0803583 0.4541201 1.9141821 0.23462506
0.9808204 0.017713804 1.0553429 1.0502465 0.32195038 0.53038734 0.6098846 0.20201357
1.4633371 1.2150164 1.1224401 0.8896368 0.8945441 0.37691 -0.5365734 -1.5358669
-0.37447774 -1.8555107 0.043691617 1.5424445 -0.21815515 1.2173501 -0.039534546 -0.7388467
-0.8454489 -0.8035996 0.5579128 -0.7665838 1.1634659 0.57880735 0.7635262 -1.4846853
-0.27096775 -0.80994284 1.6589439 0.316688 0.1318174 1.0484049 -0.97919315 1.5654539
0.8692915 -0.34804577 0.73723096 2.1499345 -0.7108938 0.2990072 -0.16522332 -0.96597666
0.58872545 -0.33552134 0.5079961 0.71121365 0.11918199 0.77216494 0.3711791 0.30990306
00000000: 0000 0000 0000 0000 0000 0000 0000 0000
00000010: 0000 0000 0000 0000 0000 0000 0000 0000
00000020: 0000 0000 0000 0000 0000 0000 0000 0000
00000030: 0000 0000 0000 0000 0000 0000 0000 0000
00000040: 3eef 0ba3 a67f 9cb4 6362 0cb3 d2dc 20bc
00000050: 191d 06bc 2c31 813e 4eeb 6621 f0bf 95af
00000060: 2cf4 303e da7d db39 27fe 55be 4351 2f39
00000070: 1d48 7baf bb16 1cb2 cb15 0000 6b14 0000
00000080: 3ee0 3a3f 2e2d 543f dd2b f83f a909 0540
00000090: 3020 1d3f 4083 563f bdf7 883e a1c3 dc3f
000000a0: 5c14 293f 1051 b6bf 95c8 ec3f 1934 903f
000000b0: a6a5 b3be 2529 733f 7831 c63f d913 c7bd
000000c0: 1564 b33f 7c4e e23c 61d5 4340 684a ee3d
000000d0: 977f 54be c020 823e c50b 633f 1377 75bf
000000e0: c649 793e 4f2b 9fbf e88c 573e 86c4 cc3e
000000f0: bf6a b0bf 01ca 0340 6a7e 1cbf 1b48 dd3f
00000100: 4b5a e83f a3fc f03f de5b 8ebe 37db ef3e
00000110: f43c 31bf e19c ef3f a755 3e40 fb34 43bf
00000120: f738 5e3f 1d88 0c40 ac2a be3e 98d2 ac3f
00000130: 4e3b ee3e eeb7 abbf e75d 52be a134 3c3f
00000140: 44ab 223f 6a8f 1fbf a8f0 afbf d734 0cc0
00000150: 6175 b73e e52a 743e 4174 74be cc07 e4be
00000160: 7eb5 703f 34a9 a4bb 33d6 9ebe 56e4 2a3f
00000170: ff28 12c0 23ae d13e edd2 0640 022a 10c0
00000180: 7d58 553e 45f1 22bf dcf0 c1bf 0668 cb3f
00000190: 786e ffbf 0d4a f83e 207b 00bf cc72 d9bf
000001a0: 7659 8d3c adb9 8cbe 54ba aa3f 05a2 9f3f
000001b0: f2fb 99bf 6fa6 4ebf 26e9 30c0 f29d b63f
000001c0: 9f6e e63f 914f 933e 9c85 04c0 02a6 05be
000001d0: 1c68 3f3f 3393 313f 8124 2dbe 1c75 a53f
000001e0: 469f 563f 9cb1 bdbf 1555 10bf 8d28 d03d
000001f0: 217b 1240 fb3d b13f 00be 79bf 34b9 9e3e
00000200: 0a12 d23f b883 67bf 7328 89be 3a4f cfbc
00000210: 7bc4 d33f f78f d13f 2a7e 8b3d 82ce cdbf
00000220: ed00 513e f06d 953f d863 8c3f dea8 24bf
00000230: 2854 d8be c937 f43e a7bf 94be eebc a43f
00000240: 456f 283e 6e10 c3bf c9a8 e33f 32e3 edbe
00000250: 76e0 0f40 dc97 23bd c6dc 86bf a2e4 e53f
00000260: 5a35 59bf ac13 aabe ed86 c23f 5e33 943c
00000270: bf15 8abf cfb1 b5bd adae 8fbe 4e45 f33e
00000280: d00f c63f f1b9 dfbe 2784 803f 1daf 1a3f
00000290: 6d6e f4bf 6b46 85be 29dc 06c0 b20a 883f
000002a0: c66f 6f3f 7319 c73f 2ddf 893f ceae 0a3f
000002b0: 89c9 5ec0 02cf 683f 95ec 46be a36f 82bd
000002c0: be06 493f 433c 12bf c92b 14be ab7c 2c40
000002d0: dac8 103e 6583 063f 9d96 a0bf 78d2 8abe
000002e0: a762 853e 7736 0340 3bc1 893f 04d9 6dbf
000002f0: 7b9c abbf 968a 06bf 52d1 8b3f a1d5 0cbf
00000300: 647d e23f eb9c 473e 41be 333f c7ee 833f
00000310: 9724 0540 6e82 e83e eb03 f53f 8d41 703e
00000320: 0c17 7b3f 8a1c 913c 7a15 873f 7a6e 863f
00000330: aed6 a43e 77c7 073f 6621 1c3f a5dc 4e3e
00000340: a14e bb3f a885 9b3f 1eac 8f3f 3dbf 633f
00000350: d800 653f 59fa c03e e05c 09bf 4997 c4bf
00000360: 8cbb bfbe 6081 edbf fbf5 323d d26e c53f
00000370: 1064 5fbe 21d2 9b3f faee 21bd 0f25 3dbf
00000380: 576f 58bf b4b8 4dbf 60d3 0e3f d63e 44bf
00000390: 73ec 943f b82c 143f 7476 433f 2b0a bebf
000003a0: 49bc 8abe 6a58 4fbf 4658 d43f ee24 a23e
000003b0: 24fb 063e 2232 863f 67ac 7abf cb60 c83f
000003c0: e389 5e3f 0e33 b2be 2bbb 3c3f 8798 0940
000003d0: 23fd 35bf 7917 993e 4d30 29be 3f4a 77bf
000003e0: b6b6 163f 74c9 abbe 080c 023f 1912 363f
000003f0: b015 f43d 9aac 453f 300b be3e 9dab 9e3e

lstm.weight_ih_l0 f4 [64, 16]
0.05198911 -0.05243761 -0.007924383 -0.09948352 -0.03612293 -0.08036173 -0.07916915 0.3335268
0.12392136 0.24509297 0.3109572 -0.08804011 -0.15132879 0.029019244 0.37256497 -0.029644268
-0.4879211 -0.22780383 0.17701872 0.065813296 0.38269553 0.5246653 0.3465075 0.18451796
0.15187898 -0.29694408 0.016862342 -0.33182245 -0.37329355 0.00527586 0.095492415 0.18467766
0.17961894 -0.18611799 -0.047406692 0.10019735 -0.02444672 0.1845253 -0.06512044 -0.5094222
0.27340618 0.04457595 0.31862968 0.31938502 0.064612195 -0.024320137 -0.43780616 -0.09867913
0.2558632 0.17816757 0.13204843 -0.009452743 -0.10432439 0.0060176235 0.09361626 0.18803309
-0.13821381 -0.2809108 0.3819697 0.33335796 0.050853442 0.18373053 0.28031674 0.14049841
0.021367675 0.15106106 -0.12977704 -0.340277 -0.14704195 0.30489215 -0.07300028 -0.15767448
0.13116068 0.12896095 0.0409618 -0.23075949 -0.03967108 -0.21426906 0.19917317 -0.3516301
0.05641059 -0.54178625 -0.35926074 -0.22175272 -0.18251398 -0.23996313 0.24928692 -0.41807637
0.23323624 0.43423483 -0.2243636 -0.3973375 0.2078131 0.29679143 -0.40825334 0.416378
0.282817 0.15390392 0.15769875 -0.003047592 0.090982795 0.05415804 -0.24384491 0.06638553
0.15372132 0.15842195 0.07223099 -0.17793739 0.004139682 -0.28313792 -0.0392067 -0.30383956
-0.07600548 0.04283444 0.14022051 -0.09107087 0.019830853 0.48032302 0.19834004 -0.24641775
0.2562099 0.1533361 0.33057523 0.14089403 0.031553343 -0.08798005 0.48304656 0.13600703
0.060439732 0.2947999 -0.04484366 0.13102624 -0.048110235 0.30961478 0.006208292 0.06580144
-0.060467415 0.006714623 -0.07232267 0.0699307 0.039944112 0.022135362 0.030843707 -0.032405097
-0.04054212 0.034808382 0.02711317 -0.10972066 -0.064011596 0.08895396 0.0439364 0.016513636
0.23042952 -0.21597591 0.325687 -0.063857116 -0.18464048 -0.22228537 0.09639474 0.05851524
0.10549593 0.022936312 0.22898588 0.010139242 0.14325339 0.13978122 0.1681019 -0.06411437
-0.08459076 0.027198002 0.023061158 -0.0015091413 0.019178793 -0.20642105 0.09462207 -0.21052215
-0.12176046 -0.12137572 0.24962409 0.03307878 0.19152112 0.054952778 -0.21895339 -0.23263359
0.15434565 -0.011795101 0.14166372 -0.16928203 -0.05920237 0.17613162 -0.061403193 -0.15088442
0.038043723 0.07484524 -0.11190237 0.37960184 0.04739518 -0.33695018 0.015599116 -0.12474318
-0.42855746 -0.2339944 -0.26046237 0.2217739 -0.31688625 0.29461682 0.33785152 0.15965445
0.2822314 0.11052966 -0.15145883 -0.17694539 -0.055020273 0.043298442 -0.065570705 0.0762853
0.11927204 -0.08058268 0.21072532 0.23941304 -0.1480788 0.021426663 -0.09757781 0.086779065
-0.079253756 0.1526937 0.15821202 0.18280841 0.1710255 -0.024425374 -0.0013439361 -0.3685691
-0.053029537 0.07107033 0.17396498 -0.015366774 -0.043404687 -0.09318776 0.08792012 0.049803574
0.22253767 0.15649177 -0.13693126 -0.22288999 0.08128861 0.1938833 -0.00024031475 -0.079030246
-0.24300085 0.08688641 0.25232685 0.25365067 0.052714378 0.18844928 -0.09047595 0.061011832
00000000: 88f2 543d d2c8 56bd 45d5 01bc 04be cbbd
00000010: a3f5 13bd b194 a4bd 6f23 a2bd 06c4 aa3e
00000020: 7bca fd3d a7f9 7a3e c835 9f3e 604e b4bd
00000030: eff5 1abe c4b9 ed3c d6c0 be3e 89d8 f2bc
00000040: cbd0 f9be 6845 69be 6544 353e 1fc9 863d
00000050: abf0 c33e 7750 063f 6e69 b13e 47f2 3c3e
00000060: 2a86 1b3e 0e09 98be e522 8a3c a2e4 a9be
00000070: 5520 bfbe 1fe1 ac3b 8791 c33d 241c 3d3e
00000080: 07ee 373e b795 3ebe 852d 42bd 4534 cd3d
00000090: 7d44 c8bc 33f4 3c3e de5d 85bd 7e69 02bf
000000a0: e5fb 8b3e 4595 363d 6e23 a33e 6f86 a33e
000000b0: 6653 843d 063b c7bc 2128 e0be 4918 cabd
000000c0: 8000 833e 8f71 363e b437 073e aedf 1abc
000000d0: 07a8 d5bd 7c2f c53b e2b9 bf3d bf8b 403e
000000e0: ec87 0dbe 8ad3 8fbe 8891 c33e e5ad aa3e
000000f0: b34b 503d db23 3c3e ad85 8f3e d1de 0f3e
00000100: 430b af3c c0af 1a3e 46e4 04be c938 aebe
00000110: 2a92 16be d31a 9c3e 2c81 95bd 6b75 21be
00000120: fc4e 063e 570e 043e 8fc7 273d 374c 6cbe
00000130: 247e 22bd 5969 5bbe 0df4 4b3e dc08 b4be
00000140: ca0e 673d 81b2 0abf 06f1 b7be 2513 63be
00000150: f2e4 3abe e5b8 75be 1245 7f3e 1b0e d6be
00000160: 7bd5 6e3e 0754 de3e 92bf 65be d26f cbbe
00000170: f5cc 543e 0cf5 973e 9506 d1be 7f2f d53e
00000180: 64cd 903e fd98 1d3e c87b 213e 1cba 47bb
00000190: 3055 ba3d d2d4 5d3d 7bb2 79be 23f5 873d
000001a0: 1f69 1d3e 5d39 223e d7ed 933d 3835 36be
000001b0: 2ba6 873b 74f7 90be 3497 20bd dc90 9bbe
000001c0: c3a8 9bbd 2a73 2f3d f795 0f3e 5d83 babd
000001d0: 5074 a23c e6ec f53e a719 4b3e ef54 7cbe
000001e0: f22d 833e 2304 1d3e 2841 a93e 8646 103e
000001f0: 143e 013d e22e b4bd e151 f73e 6d45 0b3e
00000200: a78f 773d 03f0 963e fcad 37bd be2b 063e
00000210: 3d0f 45bd d485 9e3e ee6e cb3b e8c2 863d
00000220: aeac 77bd 5706 dc3b e81d 94bd d437 8f3d
00000230: 709c 233d 3855 b53c f1ab fc3c 35bb 04bd
00000240: 7e0f 26bd 3c93 0e3d 701c de3c 3ab5 e0bd
00000250: 8318 83bd 7e2d b63d a8f6 333d 9b47 873c
00000260: b7f5 6b3e ca28 5dbe 72c0 a63e 85c7 82bd
00000270: 6512 3dbe c79e 63be 9b6a c53d adad 6f3d
00000280: 400e d83d efe4 bb3c 467b 6a3e 101f 263c
00000290: 04b1 123e cf22 0f3e e822 2c3e 654e 83bd
000002a0: ec3d adbd 58ce de3c c1ea bc3c 61ce c5ba
000002b0: d81c 9d3c 0a60 53be 37c9 c13d 1e93 57be
000002c0: 8c5d f9bd d593 f8bd 759d 7f3e 9d7d 073d
000002d0: 1d1e 443e 2a16 613d 5135 60be 8037 6ebe
000002e0: c90c 1e3e 3d40 41bc 4b10 113e 4558 2dbe
000002f0: 2f7e 72bd d95b 343e ea81 7bbd 7281 1abe
00000300: bcd3 1b3d 7648 993d 122d e5bd 2c5b c23e
00000310: 7321 423d bc84 acbe 6f93 7f3c 5a79 ffbd
00000320: e26b dbbe 3a9c 6fbe 535b 85be b218 633e
00000330: ea3e a2be 04d8 963e e0fa ac3e 757c 233e
00000340: a280 903e 605d e23d 0618 1bbe 2c31 35be
00000350: f05c 61bd b559 313d ef49 86bd 783b 9c3d
00000360: e644 f43d 8808 a5bd 61c8 573e b128 753e
00000370: f8a1 17be f886 af3c e0d6 c7bd 39b9 b13d
00000380: cb4f a2bd bd5b 1c3e 5502 223e 2132 3b3e
00000390: 4f21 2f3e b917 c8bc 0327 b0ba 17b5 bcbe
000003a0: 8035 59bd 528d 913d e023 323e ecc4 7bbc
000003b0: 1dc9 31bd 39d9 bebd 770f b43d d5fe 4b3d
000003c0: eae0 633e 613f 203e b537 0cbe 463d 64be
000003d0: a57a a63d 5889 463e 00fd 7bb9 9cda a1bd
000003e0: 37d5 78be 81f1 b13d fc30 813e 80de 813e
000003f0: 08eb 573d d9f8 403e 744b b9bd 8be7 793d

lstm.weight_hh_l0 f4 [64, 16]
0.33152702 0.24249418 0.07534622 -0.249174 -0.6115683 -0.07618535 -0.4665338 -0.30981442
-0.07999853 0.06636779 -0.53203434 -0.19942127 0.43280786 0.29094273 0.19037132 0.48864356
-0.1955058 0.11870711 -0.17040579 0.12751776 -0.19015442 -0.0397438 -0.16951598 0.33040613
-0.07582427 -0.29669392 -0.21204709 0.21569437 0.013457299 0.10233992 0.14062716 0.23678441
0.059925437 -0.0746239 0.16290735 -0.37940553 0.03450054 -0.030669793 0.035958324 0.09994822
-0.23300603 0.25247344 -0.16565096 -0.26365083 -0.02503743 0.17555587 0.2676771 -0.095291555
0.169016 -0.09084799 0.30008417 -0.347833 -0.7540512 -0.16457887 -0.07056257 -0.2565786
-0.03853536 0.11202159 -0.2894827 0.11227585 0.024905192 0.15083346 0.3275512 0.2618911
-0.033508364 0.29729939 0.14211732 0.04838886 -0.042075966 -0.28423086 -0.03996253 -0.1659866
-0.21093176 0.17501603 -0.05335194 0.013429553 0.10695956 -0.0760984 -0.12030407 0.13750769
-0.32593533 0.078591324 -0.04215716 0.08521568 0.014412829 -0.29231462 0.04743745 0.01508115
0.085962586 0.13878071 0.04496534 0.066200286 -0.19365194 -0.109402545 0.13859941 -0.1094402
0.15139483 0.01330173 0.12670378 -0.22776598 -0.13047579 -0.24545772 -0.11599469 -0.24614851
0.03595457 -0.0873415 -0.29254282 -0.121370696 0.116427146 -0.06886671 -0.09059214 0.030731276
0.23815404 0.13557091 0.45756575 -0.47219574 -0.3258704 -0.033607647 0.048592847 -0.3530553
-0.46867746 0.1479446 -0.08235381 -0.24566919 0.24702527 0.25968572 0.31934744 0.4182984
-0.0693494 -0.02692825 0.21187074 -0.24049628 0.03263636 0.06673949 -0.24016866 -0.34352767
-0.0061934516 0.3292909 -0.31710103 -0.16897649 0.23301502 -0.105672814 0.17824891 0.223585
0.16413014 0.32042855 -0.104118176 0.022109453 -0.3813421 -0.009545337 -0.11638603 -0.031255916
-0.20372696 0.26446545 -0.3070631 0.094068624 0.36132538 -0.103539966 0.012637526 0.29750505
-0.028268823 -0.16377884 -0.025380386 -0.1347011 -0.10362591 -0.12744729 0.018936757 0.0072064856
-0.31212294 -0.1089641 -0.043063227 -0.047766775 0.051241 0.35809314 0.08579848 -0.087249465
0.1429507 0.00086202903 -0.09197727 -0.018951617 -0.188879 -0.275336 -0.266878 -0.32224163
-0.058599815 -0.011656651 -0.001420552 -0.3124228 0.27163202 0.1055102 -0.08440839 -0.036321133
0.019563198 0.28042477 0.04909996 -0.010969656 0.301537 -0.30128714 0.13823298 -0.27229348
0.19845293 0.07687863 0.004422271 0.043387618 -0.0012942804 0.020675173 -0.14325236 0.15497023
0.33361188 -0.062720224 -0.07985854 -0.3342081 -0.21176572 -0.26475927 -0.09873229 -0.010975755
-0.037271842 -0.11084886 -0.03447746 -0.27576283 0.013435719 0.059356704 -0.058805764 0.32816696
0.075236544 -0.15588161 0.36717662 0.06758312 -0.2951176 -0.1367873 -0.18239161 0.058002543
-0.22498025 -0.0024415355 0.053657368 -0.33059663 0.08887224 0.3427509 0.20283586 0.0018427448
0.022456225 -0.18476595 0.2248912 -0.14334099 -0.27249625 -0.30551168 0.067177795 0.12037814
-0.17559493 -0.050170254 -0.08377902 -0.26085803 0.23251224 0.3453728 0.19578685 0.0038071312
00000000: e9bd a93e 6550 783e 1e4f 9a3d 7827 7fbe
00000010: bd8f 1cbf 1107 9cbd 85dd eebe ff9f 9ebe
00000020: 45d6 a3bd d6eb 873d 6733 08bf 1735 4cbe
00000030: fe98 dd3e 72f6 943e b3f0 423e 7d2f fa3e
00000040: ac32 48be b71c f33d db7e 2ebe 0494 023e
00000050: d7b7 42be 65ca 22bd 9995 2dbe fe2a a93e
00000060: c149 9bbd 44e8 97be df22 59be fcde 5c3e
00000070: 017c 5c3c 9897 d13d 9100 103e 9d77 723e
00000080: 6074 753d 6ad4 98bd 2fd1 263e 7141 c2be
00000090: 7050 0d3d 383f fbbc 0949 133d a7b1 cc3d
000000a0: 2299 6ebe 3344 813e 68a0 29be 3efd 86be
000000b0: 4c1b cdbc ebc4 333e f90c 893e 3828 c3bd
000000c0: 8812 2d3e 830e babd a2a4 993e 2b17 b2be
000000d0: 8009 41bf 5d87 28be 1c83 90bd 455e 83be
000000e0: 41d7 1dbd 936b e53d 1437 94be e1f0 e53d
000000f0: f905 cc3c 1674 1a3e cab4 a73e 9716 863e
00000100: 1140 09bd a037 983e 3487 113e 6633 463d
00000110: d957 2cbd b586 91be c0af 23bd 64f8 29be
00000120: 7ffe 57be 6737 333e 9087 5abd a107 5c3c
00000130: 9d0d db3d 7ad9 9bbd fb61 f6bd d1ce 0c3e
00000140: ffe0 a6be 7df4 a03d fcac 2cbd 8f85 ae3d
00000150: c923 6c3c 43aa 95be c64d 423d ee16 773c
00000160: 270d b03d 881c 0e3e 942d 383d 0494 873d
00000170: b24c 46be 710e e0bd 01ed 0d3e 2f22 e0bd
00000180: 3f07 1b3e 80ef 593c a3be 013e 7c3b 69be
00000190: 729b 05be 4559 7bbe a08e edbd 5b0e 7cbe
000001a0: 1945 133d 1ae0 b2bd 2cc8 95be 3391 f8bd
000001b0: 5b71 ee3d fd09 8dbd 5f88 b9bd 28c0 fb3c
000001c0: a7de 733e 1ad3 0a3e 0f46 ea3e a4c3 f1be
000001d0: 7cd8 a6be 2ca8 09bd 4b09 473d aac3 b4be
000001e0: 7ef6 efbe ca7e 173e 1da9 a8bd b490 7bbe
000001f0: 31f4 7c3e 87f5 843e 8281 a33e 352b d63e
00000200: 0f07 8ebd a298 dcbc a5f4 583e a844 76be
00000210: b4ad 053d b7ae 883d c6ee 75be dce2 afbe
00000220: 70f2 cabb d198 a83e 115b a2be 2c08 2dbe
00000230: 7d9b 6e3e fd6a d8bd e286 363e 77f3 643e
00000240: bb11 283e 360f a43e e93b d5bd e21e b53c
00000250: 463f c3be 0c64 1cbc cd5b eebd 3406 00bd
00000260: cd9d 50be 0468 873e 6037 9dbe 0da7 c03d
00000270: a4ff b83e c30c d4bd a00d 4f3c 9552 983e
00000280: 0594 e7bc a4b5 27be 87ea cfbc 16ef 09be
00000290: d239 d4bd 8b81 02be 4221 9b3c 6224 ec3b
000002a0: 94ce 9fbe 9228 dfbd 1163 30bd 18a7 43bd
000002b0: 15e2 513d fc57 b73e 1db7 af3d d9af b2bd
000002c0: ab61 123e caf9 613a 945e bcbd 6c40 9bbc
000002d0: 7f69 41be d7f8 8cbe 3ca4 88be dbfc a4be
000002e0: 5c06 70bd 8afb 3ebc d131 baba e2f5 9fbe
000002f0: 5a13 8b3e bb15 d83d 4ede acbd 78c5 14bd
00000300: 0043 a03c d693 8f3e 0a1d 493d 12ba 33bc
00000310: 0f63 9a3e 4f42 9abe f28c 0d3e 0d6a 8bbe
00000320: 3f37 4b3e 8b72 9d3d b3e8 903b 37b7 313d
00000330: d8a4 a9ba fb5e a93c bfb0 12be 84b0 1e3e
00000340: 2dcf aa3e 7673 80bd e08c a3bd 531d abbe
00000350: 1dd9 58be 878e 87be 2834 cabd a7d3 33bc
00000360: 5caa 18bd ba04 e3bd 3d38 0dbd c930 8dbe
00000370: 7d21 5c3c 0420 733d 50de 70bd 8005 a83e
00000380: 9e15 9a3d 6e9f 1fbe 93fe bb3e 0569 8a3d
00000390: a719 97be f811 0cbe dec4 3abe 1394 6d3d
000003a0: 3961 66be 2b02 20bb d4c7 5b3d f643 a9be
000003b0: a602 b63d 0c7d af3e 34b4 4f3e 4188 f13a
000003c0: 1ef6 b73c 4933 3dbe e149 663e fbc7 12be
000003d0: a184 8bbe 076c 9cbe 8394 893d d088 f63d
000003e0: 28cf 33be 537f 4dbd 5694 abbd 2f8f 85be
000003f0: b017 6e3e b4d4 b03e 597c 483e 1081 793b

lstm.bias_ih_l0 f4 [64]
0.24301478 0.30872583 0.28479636 0.3005447 0.049742043 0.25849855 0.32139954 0.107583724
-0.123855665 0.23408738 0.049469065 0.2090243 0.13980806 0.14190957 0.018394561 -0.10694887
-0.1581878 0.080579676 0.18921761 0.3156434 0.18969597 0.06920287 0.32797405 0.035624728
0.35246935 0.03733765 0.052854527 0.14229615 0.23018287 0.2926613 0.22440514 0.33481833
0.22051628 -0.055408318 0.18766393 -0.064838566 0.113797754 -0.013195321 -0.19743897 -0.22598095
-0.13269341 0.2223065 -0.14572382 0.094177224 -0.015194261 0.30991176 0.080636136 0.26615563
0.2748444 0.41243762 0.103803694 0.1652821 0.048563145 0.11526262 0.14958788 0.26098296
0.26401833 0.21580334 -0.049958292 0.2082895 0.12787665 0.11021149 -0.12587284 0.3434196
00000000: ded8 783e 5011 9e3e d4d0 913e ffe0 993e
00000010: 50be 4b3d ec59 843e 7b8e a43e db54 dc3d
00000020: 0aa8 fdbd 9ab4 6f3e 13a0 4a3d 770a 563e
00000030: d829 0f3e be50 113e 31b0 963c 0208 dbbd
00000040: fcfb 21be f506 a53d 43c2 413e 039c a13e
00000050: a93f 423e 3cba 8d3d 37ec a73e 3ceb 113d
00000060: dd76 b43e 5def 183d fd7d 583d 15b6 113e
00000070: 0fb5 6b3e b4d7 953e 76ca 653e 4f6d ab3e
00000080: 05cf 613e d5f3 62bd f92a 403e 15ca 84bd
00000090: cc0e e93d 3031 58bc 712d 4abe 8d67 67be
000000a0: c8e0 07be 51a4 633e a038 15be fddf c03d
000000b0: 5af1 78bc c1ac 9e3e 8f24 a53d 8d45 883e
000000c0: 68b8 8c3e 062b d33e 0897 d43d b63f 293e
000000d0: 26ea 463d cf0e ec3d 912d 193e 8f9f 853e
000000e0: 692d 873e 8dfb 5c3e 11a1 4cbd d849 553e
000000f0: 19f2 023e 90b6 e13d cfe4 00be b2d4 af3e

lstm.bias_hh_l0 f4 [64]
0.0763801 -0.07135999 0.32704973 0.04677123 -0.11097245 -0.049296934 0.14948402 -0.037244532
0.27805272 0.2819636 -0.0027247604 0.02289648 -0.17163245 0.09108162 0.15649055 -0.052230056
-0.032089513 0.10934534 -0.10019559 0.048162743 0.09349479 0.19740619 0.22251609 -0.18956248
-0.122392766 0.34716868 0.09629581 0.29235405 -0.06737089 0.1472734 -0.009054318 0.047233645
-0.07846628 0.12213102 0.28705138 -0.2984526 -0.33429542 -0.08210576 -0.06899655 -0.062395696
-0.30549553 0.1250185 -0.30536574 -0.28344068 0.22125341 -0.0014928336 0.17726955 0.084531955
0.2388214 0.30503526 0.015987786 0.13604507 0.36794284 0.3801259 -0.03116821 0.3280662
0.31402272 0.24190502 0.028029593 0.054979753 0.2037502 -0.07550952 0.038665887 0.22350025
00000000: 2b6d 9c3d 3025 92bd 1073 a73e 3093 3f3d
00000010: 8645 e3bd 95eb 49bd 5712 193e b98d 18bd
00000020: ed5c 8e3e 885d 903e e591 32bb 6691 bb3c
00000030: 6bc0 2fbe 0089 ba3d 0f3f 203e 2fef 55bd
00000040: 4b70 03bd 73f0 df3d 5833 cdbd 4c46 453d
00000050: 327a bf3d d924 4a3e 42db 633e ab1c 42be
00000060: 0fa9 fabd 18c0 b13e bd36 c53d 6eaf 953e
00000070: c0f9 89bd d7ce 163e 9058 14bc 1178 413d
00000080: eeb2 a0bd d41f fa3d 66f8 923e c7ce 98be
00000090: c528 abbe 1127 a8bd 104e 8dbd a192 7fbd
000000a0: e969 9cbe da04 003e e658 9cbe 231f 91be
000000b0: 4190 623e 2fab c3ba 2686 353e 171f ad3d
000000c0: 998d 743e 952d 9c3e d1f8 823c 664f 0b3e
000000d0: 0163 bc3e dd9f c23e 7954 ffbc 4bf8 a73e
000000e0: 96c7 a03e f3b5 773e 519e e53c 7332 613d
000000f0: e4a3 503e bca4 9abd 1f60 1e3d 40dd 643e

lstm.weight_ih_l0_reverse f4 [64, 16]
0.03246331 0.3993378 0.6839218 0.56284237 -0.15943465 0.6257638 -0.33671588 -0.5945768
0.54632497 0.2893062 0.06850701 0.5231457 -0.12661624 -0.016635794 0.14735939 0.031026585
0.2939669 0.32072288 0.2839127 0.32366872 -0.12458698 -0.16933194 -0.08477754 -0.034669578
-0.07751648 -0.2600907 0.062758856 0.43058574 0.036604565 0.4134778 0.015604213 -0.09824753
-0.066431165 -0.39176112 0.55759966 0.100493215 -0.33606908 0.03306582 0.15608016 0.1575586
0.3349669 -0.34867972 0.66133785 0.43001896 -0.025154917 -0.07408459 0.1251814 -0.012210203
0.0036010628 0.26227495 0.19287172 0.09872484 0.066623144 0.09075734 0.0026270445 -0.08258918
0.07506324 -0.22699107 0.27492252 -0.09672357 -0.059601054 0.14722979 0.0065256734 -0.36500165
-0.038255446 0.04450234 -0.03701896 -0.55709857 0.13691786 0.13967061 -0.7409956 0.5329772
-0.21171185 0.053323276 0.16913253 0.4079287 -0.11315392 0.07961741 0.35873806 -0.07697025
-0.09416212 0.1777419 -0.19422415 0.15261851 0.21731856 -0.06913896 -0.03946446 -0.45747843
0.26185182 0.1515237 0.080169685 0.3388724 0.08118931 0.033719815 0.122457676 -0.21034527
0.0700816 0.3652779 -0.023269318 0.13102719 0.02600307 -0.0022637476 -0.0678586 0.112314664
0.24925913 -0.1765452 0.044119116 -0.1572767 -0.33689556 0.44504195 0.10227999 0.20785479
0.26272148 -0.21496473 0.2910252 0.12336087 0.16555549 -0.075876564 0.15275037 -0.42107865
0.28995162 -0.351553 0.15527093 0.24669671 0.22630751 -0.113975845 -0.36407223 0.2561036
-0.1478866 0.042746294 -0.2632402 -0.22533052 -0.18382847 -0.20880514 0.09830737 0.32007504
-0.18265678 0.31132406 -0.27100813 -0.3914271 0.07880604 0.12260311 -0.008142066 -0.3974529
-0.1550771 -0.019003356 -0.008283215 0.48168945 0.25254482 0.32724184 -0.121260874 0.22677596
0.2038301 -0.037558783 0.054856695 0.013255175 0.13073963 -0.13398892 -0.1022581 0.3401365
0.023078067 0.3122927 0.29071862 0.1701215 0.40183526 0.26217514 0.180987 -0.016784804
0.25366563 0.022870975 -0.23714256 0.27396637 -0.20464182 0.12282547 0.36446902 0.19254541
0.112796746 0.054636914 0.22836828 0.46305445 0.36327964 0.26436755 0.18381663 0.025568796
0.1981211 -0.11651641 0.2621236 0.09768319 -0.07091233 0.4857607 -0.3633819 0.31887034
0.14270186 0.1270987 -0.15160623 -0.0653118 -0.2848135 0.09210003 0.2884178 -0.23679765
0.17648913 -0.1535958 0.0798133 -0.09171201 -0.3324379 -0.14768846 0.005667075 -0.29243103
0.2291954 -0.14986105 0.015081708 -0.16096683 0.14770149 -0.08149285 -0.31816888 0.13724513
-0.2690505 0.02006896 0.02531178 -0.14778502 0.32574245 0.33801833 0.41211903 -0.7823003
0.29210624 0.08075182 0.20324242 0.48646235 -0.21491288 0.028314082 0.3456169 -0.010150215
-0.11123432 -0.2666751 0.13011037 -0.005191645 -0.23096207 -0.1422647 -0.18034841 0.22835393
0.032953747 0.18518347 0.39448538 0.19345027 0.0004693306 -0.3762668 0.38081354 0.10848856
0.34453386 -0.3474527 0.18543929 0.22258735 0.20426336 0.26866183 -0.330373 0.41765398
00000000: 3ff8 043d 0176 cc3e 8015 2f3f 7016 103f
00000010: d642 23be 0e32 203f 0666 acbe 2f36 18bf
00000020: f4db 0b3f f11f 943e 674d 8c3d e0ec 053f
00000030: b0a7 01be ca47 88bc 61e5 163e 772b fe3c
00000040: d482 963e ca35 a43e 015d 913e e8b7 a53e
00000050: 7527 ffbd 5a65 2dbe d99f adbd b001 0ebd
00000060: f6c0 9ebd 9c2a 85be b787 803d bc75 dc3e
00000070: abee 153d 5db3 d33e d0a8 7f3c 0036 c9bd
00000080: 100d 88bd ea94 c8be dabe 0e3f 63cf cd3d
00000090: 3f11 acbe 0670 073d 7ad3 1f3e 0b57 213e
000000a0: c880 ab3e 2686 b2be 704d 293f 722b dc3e
000000b0: af11 cebc a9b9 97bd 8e2f 003e 4e0d 48bc
000000c0: cfff 6b3b e748 863e 2a80 453e 4030 ca3d
000000d0: b771 883d fcde b93d 7e2a 2c3b 8424 a9bd
000000e0: c2ba 993d 5970 68be a5c2 8c3e 0217 c6bd
000000f0: 3c20 74bd 68c3 163e 51d5 d53b 7fe1 babe
00000100: beb1 1cbd 1648 363d 31a1 17bd 039e 0ebf
00000110: 3234 0c3e d005 0f3e e3b1 3dbf 3271 083f
00000120: feca 58be 8269 5a3d 1431 2d3e 08dc d03e
00000130: 3ebd e7bd 740e a33d 84ac b73e 94a2 9dbd
00000140: 12d8 c0bd f901 363e b2e2 46be 0748 1c3e
00000150: c288 5e3e ba98 8dbd 7ca5 21bd 9d3a eabe
00000160: 7111 863e 0729 1b3e 0130 a43d af80 ad3e
00000170: 9546 a63d ca1d 0a3d 17cb fa3d c064 57be
00000180: f186 8f3d b405 bb3e 4c9f bebc fe2b 063e
00000190: 6404 d53c 625b 14bb 73f9 8abd 3b05 e63d
000001a0: c93d 7f3e 44c8 34be 3fb6 343d 250d 21be
000001b0: 937d acbe 8adc e33e 2c78 d13d e3d7 543e
000001c0: 6e83 863e b71f 5cbe 4101 953e a0a4 fc3d
000001d0: 6187 293e 2c65 9bbd 986a 1c3e 9f97 d7be
000001e0: 8a74 943e c1fe b3be 58ff 1e3e 109e 7c3e
000001f0: 28bd 673e 2b6c e9bd ad67 babe 0320 833e
00000200: 966f 17be bd16 2f3d 6bc7 86be 0bbd 66be
00000210: 883d 3cbe 04d1 55be 6055 c93d e0e0 a33e
00000220: 610a 3bbe de65 9f3e 94c1 8abe 2269 c8be
00000230: 1065 a13d 5717 fb3d 4d66 05bc f27e cbbe
00000240: 88cc 1ebe edac 9bbc 52b6 07bc 00a0 f63e
00000250: 8e4d 813e 3e8c a73e 9f57 f8bd f537 683e
00000260: d6b8 503e 3dd7 19bd 6ab1 603d 3c2c 593c
00000270: 9ce0 053e 6434 09be b26c d1bd 5f26 ae3e
00000280: 370e bd3c d4e4 9f3e 12d9 943e 5534 2e3e
00000290: 5abd cd3e d23b 863e a854 393e 4980 89bc
000002a0: 76e0 813e e95b bb3c 80d5 72be 5245 8c3e
000002b0: a08d 51be ec8b fb3d af9b ba3e a02a 453e
000002c0: fb01 e73d f5ca 5f3d 60d9 693e 7915 ed3e
000002d0: caff b93e 2f5b 873e 6d3a 3c3e a775 d13c
000002e0: 42e0 4a3e 28a0 eebd 1135 863e 200e c83d
000002f0: 7c3a 91bd a0b5 f83e 310d babe f942 a33e
00000300: 7020 123e 2926 023e aa3e 1bbe 31c2 85bd
00000310: 13d3 91be f19e bc3d 7fab 933e 157b 72be
00000320: 91b9 343e 3848 1dbe 2875 a33d 82d3 bbbd
00000330: 4d35 aabe a53b 17be dfb2 b93b 85b9 95be
00000340: 33b2 6a3e 2d75 19be 4519 773c 7dd4 24be
00000350: 0f3f 173e b9e5 a6bd 08e7 a2be fd89 0c3e
00000360: fdc0 89be a967 a43c a65a cf3c f554 17be
00000370: b7c7 a63e bd10 ad3e 4401 d33e d544 48bf
00000380: f38e 953e 3661 a53d c81e 503e 9811 f93e
00000390: 1f12 5cbe eff2 e73c b3f4 b03e 164d 26bc
000003a0: d2ce e3bd a489 88be a73b 053e ad1e aabb
000003b0: 5281 6cbe d6ad 11be 41ad 38be 9dd5 693e
000003c0: 82fa 063d bca0 3d3e fdf9 c93e d417 463e
000003d0: 7d10 f639 0ba6 c0be fef9 c23e 402f de3d
000003e0: be66 b03e 52e5 b1be cce3 3d3e f0ed 633e
000003f0: 6a2a 513e 0b8e 893e a626 a9be bed6 d53e

lstm.weight_hh_l0_reverse f4 [64, 16]
-0.19433339 0.11679029 0.56467 -0.19118251 0.036608383 0.16139483 -0.29020885 -0.0013476826
-0.3544015 0.29588467 0.08765791 0.40662375 -0.17710486 0.55883497 0.51891565 -0.16786215
0.43611717 0.48714235 -0.34143525 -0.20766719 -0.3811901 0.0714651 -0.09590249 -0.01805145
0.14202535 -0.44786087 -0.1386889 0.21773829 -0.04662084 0.17208306 0.34283212 -0.3216298
0.31326583 0.018170185 -0.08111524 0.065527596 0.21976782 0.22279261 -0.049749337 0.08475161
-0.5971054 -0.454768 0.19762598 0.21654782 -0.18188606 0.3190706 0.2443026 0.03157578
0.095801316 -0.027188739 -0.1272275 0.041094493 -0.06141482 -0.14154899 -0.09242495 0.13184872
0.35755643 -0.3514888 0.19718505 0.24543189 -0.039806936 0.14388484 0.0719046 0.008980938
0.2175965 0.17083082 -0.10707505 -0.42024383 0.4009589 0.106728435 -0.31529015 0.4764712
0.29488233 -0.2574824 -0.0062930593 0.42111334 0.020412074 -0.625263 0.07897961 0.081631705
0.13867462 0.09791043 -0.2333702 -0.034903087 -0.3320829 0.13420406 -0.23344779 -0.09494654
0.1379435 -0.23492925 0.34666663 0.1863996 -0.28672504 0.04509479 0.019386567 -0.15092754
0.14274816 0.07965276 -0.39575696 0.008922961 -0.12576477 0.26785251 -0.07205796 -0.0104626985
0.40011364 -0.35406068 0.19097212 0.15216665 -0.063158184 -0.09130095 -0.15836148 -0.13423161
0.0289229 -0.13127601 0.13247706 -0.13507496 -0.21253775 0.13607593 -0.23650351 0.15533552
-0.41439027 -0.19018039 0.33823124 0.17373626 -0.1067888 -0.05753475 0.11449989 -0.07566775
0.1959479 0.29154488 0.8579783 -0.071455106 0.3050835 0.31101915 -0.4288617 -0.04464041
-0.11607783 0.070959926 0.19162323 -0.15141201 -0.58492804 0.29562658 0.13142394 -0.28883412
0.21672407 0.4777261 -0.15853955 -0.15698296 0.40233752 0.19474316 -0.186623 0.14059748
0.20611988 -0.19225273 0.2779582 0.103998765 -0.39112577 -0.48338342 0.038230695 -0.23311158
0.37703398 0.013498682 0.2348527 -0.26790512 -0.23223422 0.35408342 -0.24898528 0.3476894
0.8788783 -0.42566675 -0.03019638 0.061245073 -0.35628253 0.265207 0.18954347 -0.1008879
-0.064304344 0.08663169 -0.13610005 -0.15755683 0.0940537 -0.047576014 -0.22881855 0.31016302
-0.082259275 0.0640584 0.23519194 -0.059438255 -0.013500048 0.20884226 0.42648 -0.12733097
0.110030696 -0.08709093 0.03315706 0.09842765 0.30361748 0.34041852 -0.23266244 0.3031566
0.21598348 0.03202394 0.35833895 0.13639422 -0.08912189 0.09689695 0.3379051 -0.19923607
0.63551164 0.28837904 -0.0007878834 0.034200795 0.40368345 -0.04988646 -0.2904529 0.012818675
0.13065772 -0.2678752 0.036149275 0.18636295 -0.2756167 -0.17100517 0.17188542 0.045825128
0.13554452 0.11797498 0.036514316 -0.21415882 0.012285097 0.06431747 0.004918043 0.10721854
0.22934261 -0.13426988 0.21882921 -0.0074708443 0.104621 -0.3675243 0.03539842 -0.27385995
0.11299223 -0.055462938 -0.46335438 -0.3422708 -0.19724318 0.31019446 0.066717535 -0.060384624
0.21663931 -0.20763834 0.2011626 0.12999073 -0.42641464 -0.11050144 0.28833997 -0.22447158
00000000: 55ff 46be bf2f ef3d 378e 103f 59c5 43be
00000010: acf2 153d b044 253e 4196 94be b9a4 b0ba
00000020: 1d74 b5be 327e 973e fe85 b33d fd30 d03e
00000030: fa5a 35be cf0f 0f3f a8d7 043f 0ee4 2bbe
00000040: c04a df3e b96a f93e 9ad0 aebe b5a6 54be
00000050: 592b c3be 4b5c 923d 8668 c4bd a2e0 93bc
00000060: 186f 113e 054e e5be 7704 0ebe c9f6 5e3e
00000070: 7ef5 3ebd 8b36 303e b187 af3e a9ac a4be
00000080: 6164 a03e a4d9 943c bf1f a6bd 5533 863d
00000090: d10a 613e bf23 643e f6c5 4bbd 4192 ad3d
000000a0: e6db 18bf 5ad7 e8be 775e 4a3e b6be 5d3e
000000b0: 5740 3abe 395d a33e 762a 7a3e 9b55 013d
000000c0: 7b33 c43d ebba debc ed47 02be b352 283d
000000d0: 1b8e 7bbd 38f2 10be 4b49 bdbd 5a03 073e
000000e0: a311 b73e 57f6 b3be e1ea 493e 7f52 7b3e
000000f0: 990c 23bd 8c56 133e b842 933d c924 133c
00000100: 9ed1 5e3e 46ee 2e3e 2a4a dbbd 332a d7be
00000110: 7c4a cd3e 7094 da3d b66d a1be 08f4 f33e
00000120: d1fa 963e bcd4 83be 0236 cebb 2b9c d73e
00000130: 3937 a73c 3c11 20bf 10c0 a13d 862e a73d
00000140: b800 0e3e 4385 c83d 99f8 6ebe 8af6 0ebd
00000150: c506 aabe ca6c 093e f00c 6fbe 5573 c2bd
00000160: 1041 0d3e 4b91 70be 4a7e b13e 89df 3e3e
00000170: a0cd 92be 51b5 383d 94d0 9e3c c08c 1abe
00000180: 932c 123e fc20 a33d a8a0 cabe 9c31 123c
00000190: 7bc8 00be f723 893e 2093 93bd bd6b 2bbc
000001a0: b2db cc3e 7147 b5be 328e 433e 93d1 1b3e
000001b0: 1459 81bd fefb babd 8329 22be 0374 09be
000001c0: b8ef ec3c 386d 06be 11a8 073e 1751 0abe
000001d0: 7fa3 59be 7d57 0b3e fa2d 72be 4610 1f3e
000001e0: f62a d4be a6be 42be a52c ad3e ebe7 313e
000001f0: 16b4 dabd 8fa9 6bbd eb7e ea3d b1f7 9abd
00000200: 91a6 483e 5f45 953e 77a4 5b3f 0e57 92bd
00000210: e833 9c3e e73d 9f3e c393 dbbe ddd8 36bd
00000220: 37ba edbd 7053 913d e138 443e c00b 1bbe
00000230: d8bd 15bf 5e5c 973e ff93 063e 11e2 93be
00000240: eaec 5d3e 8498 f43e 3158 22be 24c0 20be
00000250: 2fff cd3e c06a 473e 1a1a 3fbe c9f8 0f3e
00000260: 1711 533e e6dd 44be 8a50 8e3e 4efd d43d
00000270: a341 c8be 087e f7be ca97 1c3d cdb4 6ebe
00000280: 990a c13e 9329 5d3c 3a7d 703e dc2a 89be
00000290: cfce 6dbe 6c4a b53e fff5 7ebe 5804 b23e
000002a0: 2bfe 603f fef0 d9be 665e f7bc 1ddc 7a3d
000002b0: aa6a b6be 36c9 873e af17 423e 519e cebd
000002c0: ffb1 83bd f56b b13d d05d 0bbe 9456 21be
000002d0: 3a9f c03d 11df 42bd 694f 6abe b0cd 9e3e
000002e0: 8d77 a8bd 0d31 833d 28d6 703e 8775 73bd
000002f0: 4e2f 5dbc bfda 553e 965b da3e 0d63 02be
00000300: c657 e13d bb5c b2bd b3cf 073d 7094 c93d
00000310: c073 9b3e 564b ae3e 103f 6ebe 5837 9b3e
00000320: c62a 5d3e 892b 033d 3478 b73e edaa 0b3e
00000330: 8a85 b6bd e871 c63d e601 ad3e 8a04 4cbe
00000340: e4b0 223f 6ba6 933e f689 4eba 2216 0c3d
00000350: 99af ce3e bf55 4cbd 3eb6 94be 6b05 523c
00000360: 23cb 053e f026 89be 4311 143d eed5 3e3e
00000370: a21d 8dbe fb1b 2fbe bb02 303e 21b3 3b3d
00000380: 2fcc 0a3e de9c f13d 0990 153d 734c 5bbe
00000390: 6e47 493c e1b8 833d 8927 a13b 6595 db3d
000003a0: cad8 6a3e 0b7e 09be c414 603e fccd f4bb
000003b0: 8943 d63d 252c bcbe effd 103d 5f37 8cbe
000003c0: 7868 e73d 1b2d 63bd c93c edbe 1e3e afbe
000003d0: 1efa 49be cfd1 9e3e 34a3 883d de55 77bd
000003e0: b2d6 5d3e 259f 54be 92fd 4d3e 4a1c 053e
000003f0: 0553 dabe 944e e2bd 4ca1 933e e1db 65be

lstm.bias_ih_l0_reverse f4 [64]
-0.12173501 0.42827114 0.24038291 -0.07603076 0.06385516 -0.058166582 0.10040202 0.11608918
-0.15942541 0.3661068 -0.01827638 -0.013061771 -0.080111 -0.11202686 0.17831631 0.27617842
0.2596904 0.030022124 0.16084963 -0.019027747 0.3130151 0.22212233 -0.07187678 -0.042354077
0.41387084 0.33471197 0.03701267 -0.044069774 0.300054 0.18614045 0.24024777 0.0034068231
0.03796321 0.0047501344 -0.16872075 -0.294785 -0.034014687 0.25023013 -0.3169986 0.21845613
0.105878584 0.116323836 0.20687437 0.11844225 -0.19960482 -0.18929674 0.061377864 -0.15222731
0.6252279 0.05575074 0.43937942 0.1468245 0.201151 0.26278162 0.311449 -0.057536483
0.029472658 0.5394571 0.41284582 0.22118132 0.077445924 -0.19884425 0.13294148 0.29377457
00000000: 3450 f9bd 5b46 db3e f026 763e 04b6 9bbd
00000010: 7ec6 823d 1540 6ebd 939f cd3d 2ac0 ed3d
00000020: 6a40 23be 5a72 bb3e 59b8 95bc 0a01 56bc
00000030: 3c11 a4bd 576e e5bd 8d98 363e 4267 8d3e
00000040: 24f6 843e f5f0 f53c c4b5 243e 14e0 9bbc
00000050: 8443 a03e 0974 633e 2234 93bd 787b 2dbd
00000060: e1e6 d33e 5e5f ab3e 999a 173d 8282 34bd
00000070: aea0 993e 9a9b 3e3e 8303 763e 0245 5f3b
00000080: 507f 1b3d 04a7 9b3b 22c5 2cbe 0fee 96be
00000090: fc52 0bbd 2a1e 803e a44d a2be f7b2 5f3e
000000a0: dfd6 d83d 313b ee3d e0d6 533e da91 f23d
000000b0: 3565 4cbe 01d7 41be 5b67 7b3d 7ae1 1bbe
000000c0: f00e 203f e35a 643d 57f6 e03e 2959 163e
000000d0: 87fa 4d3e 508b 863e 3e76 9f3e 60ab 6bbd
000000e0: a570 f13c dc19 0a3f 8760 d33e 5b7d 623e
000000f0: f89b 9e3d d49d 4bbe d021 083e 9f69 963e

lstm.bias_hh_l0_reverse f4 [64]
0.33757132 0.38695228 -0.1698783 0.1509032 -0.040271755 0.30646762 -0.06307939 0.32905084
0.2614887 0.45307687 0.29331464 -0.043271244 0.00631227 -0.04526727 -0.072561234 -0.072268486
0.1829262 0.204714 0.34947723 0.14126837 0.25362363 0.24167822 0.12136273 0.025880393
-0.051600438 0.3448958 0.1726702 0.32656807 0.15890531 0.12569351 -0.06454015 0.32769325
-0.0907733 0.17123283 0.15255623 -0.14368576 -0.041521844 0.30235782 -0.20419405 0.05385823
0.06406607 -0.21200477 0.12893847 0.14070281 -0.14486201 -0.10680016 0.13173959 -0.32807893
0.22797261 0.17115365 0.2651582 -0.10854622 0.16657932 0.35853547 -0.048699815 0.23665962
0.27116215 0.4880449 0.26270533 0.0138370395 -0.025181493 -0.01801366 0.22110797 -0.09131383
00000000: 26d6 ac3e 9c1e c63e 94f4 2dbe 5e86 1a3e
00000010: fff3 24bd 53e9 9c3e c42f 81bd 5a79 a83e
00000020: d9e1 853e b1f9 e73e 562d 963e 303d 31bd
00000030: 29d7 ce3b 2c6a 39bd fc9a 94bd 8001 94bd
00000040: 0151 3b3e 8ca0 513e aeee b23e a8a8 103e
00000050: f5da 813e 7f7a 773e 068d f83d 1e03 d43c
00000060: fb5a 53bd 2f96 b03e 75d0 303e ee33 a73e
00000070: 13b8 223e cdb5 003e a02d 84bd 69c7 a73e
00000080: 5ae7 b9bd a957 2f3e b337 1c3e 5c22 13be
00000090: cf12 2abd a5ce 9a3e 3f18 51be 739a 5c3d
000000a0: 1235 833d c717 59be 7208 043e 6614 103e
000000b0: b556 14be 0bba dabd bee6 063e f6f9 a7be
000000c0: a771 693e e742 2f3e d1c2 873e 7b4d debd
000000d0: c593 2a3e f691 b73e 7579 47bd e656 723e
000000e0: c4d5 8a3e 05e1 f93e 5081 863e c0b4 623c
000000f0: 6b49 cebc 6291 93bc 216a 623e bf02 bbbd

hidden2tag.weight f4 [11, 32]
0.20498621 0.2261121 0.13703635 -0.04699249 0.04218996 -0.107121035 -0.17327219 -0.12587751
-0.18902057 0.058921497 -0.23337412 -0.2650324 0.06896135 0.1593673 0.16177247 0.23293407
0.3157905 0.1006791 0.07329593 -0.25613993 0.14268789 0.13217519 -0.31128907 0.3211258
-0.2434702 -0.07822718 0.22456159 0.34455904 -0.28099823 0.13156004 0.23920862 -0.27441618
0.16445401 -0.18535572 -0.28240782 0.1299104 0.45947412 -0.12905645 0.10836679 0.011933038
0.21817866 -0.087042145 0.34470457 -0.02306851 -0.280881 -0.10587979 -0.015955472 -0.28618753
-0.15545616 -0.22949582 -0.5623301 0.2628887 -0.20961946 -0.0043700864 0.2951345 -0.004398076
-0.4162327 0.10023181 0.046699002 -0.45212996 0.14962603 0.20875216 -0.1572691 0.08515736
0.108017676 -0.28063062 0.15782927 -0.18438232 -0.16920215 -0.08805072 0.093218744 -0.1724857
-0.02773271 -0.121782534 0.15286142 -0.13598311 -0.09309261 0.12863815 0.117058724 0.015658064
0.024652367 0.105733104 -0.39809728 0.09798105 0.32613444 0.11906587 0.06726171 0.14595823
-0.4109105 -0.12636784 0.11349752 -0.2354651 -0.045399103 0.11932961 0.16438474 -0.2618603
0.22348325 0.5634841 0.035637207 0.41665733 0.32527542 -0.22525756 0.15235554 -0.14205463
0.25356844 -0.11067001 0.10107264 -0.00087429973 0.367499 -0.23714976 -0.009578802 -0.32144442
-1.1978822 -0.68479806 1.1329459 0.5542426 0.23477133 -0.44004354 0.19538659 -0.3762759
0.47786483 0.9575719 -0.5996225 -0.35195994 0.0710584 0.06904344 -0.22327417 0.19427545
-0.21121629 0.2698649 -0.1042557 -0.37937972 -0.032710213 -0.39160967 0.098782904 -0.34427518
0.19663057 -0.13536987 -0.047672957 0.15894172 0.4656854 -0.17867254 -0.29104042 -0.14719358
-0.94051176 -0.47232455 1.044209 0.56894594 0.5986408 -0.41424316 0.3781542 -0.43901783
0.87714905 0.6007112 0.16257821 0.028955506 0.11483728 0.46338353 -0.07646154 0.29877895
-0.5423674 0.07974625 -0.12078533 -0.41343105 -0.21543513 -0.40355137 0.4354797 -0.29472482
0.0065922625 -0.4113377 -0.16370103 0.18556036 0.40347144 -0.18483736 0.14888781 -0.55327576
-0.48868597 -0.71408117 -0.66923296 0.42445853 -1.1492172 0.23401415 0.43946803 -0.21300398
-0.3027399 -0.18988913 -0.6314372 -0.10866486 0.37084168 0.69559675 -0.42845184 0.13958976
-1.0223429 -0.10351816 -0.1796008 0.24218746 -0.21386853 0.0155006405 0.018550968 0.93911034
0.03978985 -0.20904024 -0.30032218 0.51236063 0.42023703 0.28853524 -0.38055798 0.11196088
-0.82607263 -0.37330946 -0.7362845 -0.38401246 0.17055549 -0.16865939 0.1575564 -0.06688708
-0.62199265 0.4510895 0.19928053 0.062696114 0.02229962 -0.64049685 -0.19039714 0.27085558
0.19025826 -0.31740093 -0.09940429 0.5503952 0.093212515 0.7567858 -0.03174424 -0.14357087
0.22653694 -0.088940494 0.10358185 0.0034617428 -0.6010429 0.10761641 -0.13031685 -0.16130678
0.4249988 -0.2412277 0.40617344 0.4233465 -0.090142146 -0.41332352 -0.030403223 -0.26311722
0.5868937 -0.14603193 -0.63006324 -0.36826274 0.15980409 -0.2929692 -0.62485576 0.073250405
00000000: e8e7 513e ee89 673e 4253 0c3e 327b 40bd
00000010: 61cf 2c3d 4662 dbbd 446e 31be 09e6 00be
00000020: 9c8e 41be ab57 713d a0f9 6ebe 54b2 87be
00000030: 9c3b 8d3d 2e31 233e afa7 253e 4586 6e3e
00000040: 4baf a13e d830 ce3d 2d1c 963d c624 83be
00000050: c61c 123e ef58 073e 4861 9fbe 9a6a a43e
00000060: 4150 79be 9235 a0bd 79f3 653e 0b6a b03e
00000070: 00df 8fbe adb7 063e 1bf3 743e 4780 8cbe
00000080: a266 283e e4cd 3dbe c297 90be 3b07 053e
00000090: 3140 eb3e 6027 04be 68ef dd3d ca82 433c
000000a0: 3a6a 5f3e 2743 b2bd 1e7d b03e 2cfa bcbc
000000b0: a2cf 8fbe 81d7 d8bd 0db5 82bc 2c87 92be
000000c0: e62f 1fbe f400 6bbe def4 0fbf 5999 863e
000000d0: 7ca6 56be f132 8fbb df1b 973e bc1d 90bb
000000e0: 741c d5be 5646 cd3d 7447 3f3d 947d e7be
000000f0: 9137 193e 20c3 553e 270b 21be fb66 ae3d
00000100: 5f38 dd3d d1ae 8fbe ff9d 213e b8ce 3cbe
00000110: 5443 2dbe f053 b4bd 78e9 be3d 17a0 30be
00000120: b52f e3bc 1f69 f9bd b487 1c3e 283f 0bbe
00000130: 57a7 bebd b8b9 033e 7cbc ef3d 5745 803c
00000140: c3f3 c93c 998a d83d 68d3 cbbe 4aaa c83d
00000150: 18fb a63e cfd8 f33d 82c0 893d 1376 153e
00000160: dc62 d2be 9266 01be 6371 e83d c31d 71be
00000170: 69f4 39bd 1563 f43d 7954 283e 8e12 86be
00000180: cbd8 643e 7e40 103f 52f8 113d 1c54 d53e
00000190: 808a a63e eba9 66be 1703 1c3e c576 11be
000001a0: b9d3 813e f5a6 e2bd 2cff ce3d 4331 65ba
000001b0: d428 bc3e 63d7 72be 68f0 1cbc 5d94 a4be
000001c0: 3454 99bf ed4e 2fbf 5f04 913f d8e2 0d3f
000001d0: e567 703e 634d e1be 6c13 483e 3ca7 c0be
000001e0: b3aa f43e 6f23 753f dc80 19bf 1834 b4be
000001f0: 1187 913d a666 8d3d fca1 64be 25f0 463e
00000200: 1549 58be bb2b 8a3e 0384 d5bd 0f3e c2be
00000210: 25fb 05bd 1081 c8be b14e ca3d d644 b0be
00000220: 8659 493e 669e 0abe b844 43bd 9ec1 223e
00000230: 516e ee3e eff5 36be 4003 95be eab9 16be
00000240: 61c5 70bf 86d4 f1be a4a8 853f 71a6 113f
00000250: 8640 193f ae17 d4be 6d9d c13e f2c6 e0be
00000260: d78c 603f 36c8 193f e77a 263e 1934 ed3c
00000270: cf2f eb3d 9b40 ed3e de97 9cbd 8ef9 983e
00000280: 97d8 0abf 0052 a33d 4d5e f7bd 3cad d3be
00000290: 079b 5cbe 499e cebe 32f7 de3e 2ce6 96be
000002a0: e803 d83b db9a d2be 3ea1 27be 8903 3e3e
000002b0: cf93 ce3e 0146 3dbe 0c76 183e 7ba3 0dbf
000002c0: 0c35 fabe 06ce 36bf da52 2bbf a152 d93e
000002d0: 8d19 93bf 68a1 6f3e f401 e13e b71d 5abe
000002e0: b900 9bbe 4c72 42be dea5 21bf af8b debd
000002f0: f6de bd3e a112 323f 0a5e dbbe 9ef0 0e3e
00000300: 22dc 82bf 5401 d4bd 46e9 37be fdff 773e
00000310: 5a00 5bbe 66f6 7d3c 33f8 973c 8969 703f
00000320: affa 223d a50e 56be d4c3 99be 112a 033f
00000330: 4f29 d73e e4ba 933e 7fd8 c2be bf4b e53d
00000340: 7f79 53bf 6b22 bfbe 247d 3cbf 489d c4be
00000350: 19a6 2e3e 0cb5 2cbe 7756 213e 18fc 88bd
00000360: e93a 1fbf 34f5 e63e 3210 4c3e d266 803d
00000370: b1ad b63c 9af7 23bf 78f7 42be 95ad 8a3e
00000380: 10d3 423e 6082 a2be 7a94 cbbd b3e6 0c3f
00000390: 34e6 be3d b7bc 413f 4006 02bd 3e04 13be
000003a0: 4df9 673e 6f26 b6bd b922 d43d 68de 623b
000003b0: f3dd 19bf fe65 dc3d c871 05be 9b2d 25be
000003c0: 7199 d93e 6504 77be f7f5 cf3e dfc0 d83e
000003d0: 729c b8bd 249f d3be 2e10 f9bc 4db7 86be
000003e0: aa3e 163f 6589 15be d34b 21bf ef8c bcbe
000003f0: afa3 233e 0f00 96be 8cf6 1fbf 4f04 963d

hidden2tag.bias f4 [11]
0.19161007 0.028682714 -0.10765687 0.019828528 0.03861647 -0.16685869 0.10430042 -0.035446428
0.10193714 -0.08951586 0.01158836
00000000: 6e35 443e 03f8 ea3c 347b dcbd 706f a23c
00000010: 4e2c 1e3d 01dd 2abe 759b d53d 4630 11bd
00000020: 6bc4 d03d 1754 b7bd 1bdd 3d3c

crf.start_transitions f4 [11]
0.45800903 -0.29993424 -0.9954171 -0.3220795 -0.49737903 -0.28515077 -0.44885594 -0.46641746
-0.71287835 -0.30289957 -0.2343533
00000000: 2980 ea3e fb90 99be a8d3 7ebf 9be7 a4be
00000010: 77a8 febe 48ff 91be 72d0 e5be 45ce eebe
00000020: 327f 36bf a715 9bbe 50fa 6fbe

crf.end_transitions f4 [11]
0.44426164 -0.2891053 -1.0493335 -0.32982892 -0.23382074 -0.20904565 -0.304179 -0.6729169
-0.34471577 -0.16677937 -0.038855728
00000000: 4376 e33e 9c05 94be 8f50 86bf 56df a8be
00000010: b46e 6fbe 1010 56be 5abd 9bbe 4844 2cbf
00000020: 967e b0be 36c8 2abe 2f27 1fbd

crf.transitions f4 [11, 11]
0.23088512 0.01859813 -1.7340845 0.5481391 -1.220519 0.64033574 -1.162442 0.5268434
-1.2988813 -0.3435883 -0.3057941 -0.65004456 -0.032464627 1.0614688 -0.1690999 -0.19782417
-0.19608596 -0.1939004 -0.10673401 -0.19511653 -0.041859705 -0.15780231 -1.684354 -0.3555285
0.98431176 -0.20453918 -0.60778654 -0.46434212 -0.8121769 -0.46130803 -1.0662019 -0.09893169
-0.017244684 -0.66104466 -0.028092926 -0.36255446 -0.5103089 1.3756348 -0.19324955 -0.23789877
-0.09978694 -0.37605304 -0.06269165 -0.15634479 -0.20513842 -0.04797207 -0.47096193 -0.882176
0.88051534 -0.15064915 -0.39683467 -0.1888945 -0.6136747 0.0014670019 -0.102927916 -1.0809525
-0.11974929 -0.8962619 -0.14790967 -0.24119711 -0.805374 1.0766674 -0.17774934 -0.4776183
-0.04353326 -0.04270531 -0.3020787 -0.19193621 -1.0548682 -0.23056483 -0.3410904 -0.31486857
0.9757004 -0.057102446 -0.36315554 -0.0111050345 -0.08251105 -0.99449855 -0.16354264 -0.47049606
-0.24099858 -0.22824523 -0.22827943 -0.18120357 -0.38746002 1.346214 -0.051837973 -0.10426578
-1.1005437 -0.2641358 -0.99571633 -0.16866857 -0.45687774 -0.26182476 -0.37584758 -0.8914335
0.9773212 -0.17768319 -0.010471531 -0.24785879 -0.03783592 -0.20499468 -0.09850481 -0.10279451
-0.043688055 -0.1434972 -0.078660876 -0.07592166 -0.1078455 -0.14428753 -0.17299455 0.017098792
-0.00335875 -0.15400544 -0.0019582016 -0.083450794 -0.014754537 0.012625144 -0.011503985 -0.113679305
-0.07867116
00000000: 266d 6c3e 1b5b 983c 7bf6 ddbf d852 0c3f
00000010: f739 9cbf 0bed 233f e6ca 94bf 36df 063f
00000020: be41 a6bf ceea afbe 0b91 9cbe 5269 26bf
00000030: a1f9 04bd 36de 873f 8628 2dbe 6b92 4abe
00000040: c2ca 48be d48d 46be 5c97 dabd a1cc 47be
00000050: 1575 2bbd ee96 21be e998 d7bf d507 b6be
00000060: dbfb 7b3f b872 51be e697 1bbf 40be edbe
00000070: d3ea 4fbf 9130 ecbe 4e79 88bf b39c cabd
00000080: b944 8dbc 393a 29bf 2323 e6bc bda0 b9be
00000090: 9ba3 02bf cd14 b03f 36e3 45be bc9b 73be
000000a0: 185d ccbd 068a c0be 7b64 80bd d918 20be
000000b0: ce0f 52be 5c7e 44bd ec21 f1be 49d6 61bf
000000c0: 7469 613f c543 1abe ea2d cbbe 8f6d 41be
000000d0: c919 1dbf 6a48 c03a dfcb d2bd a75c 8abf
000000e0: 1e3f f5bd 6b71 65bf a275 17be 60fc 76be
000000f0: fe2c 4ebf 3dd0 893f ec03 36be 638a f4be
00000100: ee4f 32bd c3eb 2ebd 0faa 9abe ed8a 44be
00000110: ec05 87bf 3019 6cbe 67a3 aebe 7436 a1be
00000120: 80c7 793f 41e4 69bd 86ef b9be e4f1 35bc
00000130: 8efb a8bd 7597 7ebf b977 27be dce4 f0be
00000140: 55c8 76be 1eb9 69be 15c2 69be 6e8d 39be
00000150: 2961 c6be be50 ac3f 0e54 54bd 4c89 d5bd
00000160: 9ede 8cbf cf3c 87be 44e7 7ebf 74b7 2cbe
00000170: e1eb e9be e50d 86be 186f c0be fc34 64bf
00000180: b931 7a3f 95f2 35be c990 2bbc b2ce 7dbe
00000190: d6f9 1abd 20ea 51be e4bc c9bd ee85 d2bd
000001a0: 3ff2 32bd eef0 12be f418 a1bd d17c 9bbd
000001b0: 1ade dcbd 1cc0 13be 7c25 31be c412 8c3c
000001c0: 791e 5cbb 9ab3 1dbe 2c55 00bb 40e8 aabd
000001d0: 03bd 71bc b1d9 4e3c 367b 3cbc b2d0 e8bd
000001e0: 581e a1bd
