pytorch_bilstm_crf/model_B.bin (torch, 130003 bytes, 14 tensors)

word_embeds.weight f4 [1690, 16]
0.0 0.0 0.0 0.0 0.0 0.0 0.0 0.0
0.0 0.0 0.0 0.0 0.0 0.0 0.0 0.0
-0.3546803 1.6475171 -0.72807044 -2.0732064 1.1780218 -1.1661822 1.6581436 -0.080516286
1.1546516 -1.6795015 0.73699474 1.7876654 0.0015225341 0.51625943 -0.32206044 0.43612778
0.5448214 -1.3491815 0.34786606 -1.4769715 -0.07657192 -0.6288028 -0.11825329 -1.5430279
-0.8163871 0.49511138 1.6436428 0.50598687 -0.27086976 -0.028801758 0.58194065 1.2844571
-2.4267435 0.5290179 -0.068398885 -0.92930216 -1.7285404 0.64570063 0.49924618 0.56010664
-1.69202 0.00016679923 1.6032962 2.5125968 1.7668409 1.2158595 1.3394228 -0.6002696
-1.3669767 0.8017533 0.06049763 -1.4704825 0.07149151 0.6403253 -1.6776091 0.99881893
1.9516362 0.4962535 1.9634086 0.5403968 0.19790919 -0.048174605 -0.016949598 0.14500658
0.55837846 1.2147716 -1.3280166 0.06403276 -0.87828267 0.4211185 -0.13469076 0.066931225
0.16544013 0.17365982 0.064392984 -1.2740753 -0.36947742 -1.1204995 0.49673587 0.25642267
-0.6619695 -0.039478365 -0.033047948 0.48718998 -0.30057198 0.95754224 -0.6901554 -0.7223241
0.0033002694 -0.995868 -1.9315679 0.026320158 0.27215126 0.47930837 1.7739679 0.28724986
-0.028293487 -0.9700355 -0.038219523 0.8344506 -2.1256998 -0.8916793 1.3278133 -0.9852484
1.2935672 0.46673128 0.7103263 0.20338212 -0.76887614 -1.9654406 0.29544643 0.9443017
-1.2304587 0.35633987 0.22940199 -0.23742019 -0.22247514 -0.07979585 0.0968214 1.3122517
2.1844125 -2.3998673 1.4937813 -0.56170374 -0.031197209 -0.17291571 0.8037791 1.7814949
0.79898256 -1.3718222 1.0216362 -1.2587588 0.7338019 -0.7503091 0.19415995 0.9060683
-0.10226706 0.30188888 -0.30547047 0.39892247 0.5634796 -1.5018791 0.825113 -0.3136422
1.4029143 -1.1040101 0.31261548 0.03265355 1.0609258 0.39905515 -0.46941036 1.4337338
0.068150334 -0.76924306 0.3251823 1.2428167 -1.1418682 0.7932912 1.3691128 0.44080263
-1.5472922 0.18691495 1.6364378 0.96571326 -1.3094352 1.1234261 -0.25278094 0.24799731
-0.15038739 -0.130213 0.61625695 -0.57924783 -0.32502392 -1.4191602 -0.17846401 0.45649776
-0.1344716 0.6341818 -0.4305862 -0.2536633 -1.4628441 0.6310012 2.5117424 -1.1554233
0.009136164 0.5006621 -0.4913951 0.35441136 -2.6258233 0.111469984 0.1431511 -0.36192486
0.9450122 0.12481013 1.4039104 0.47255144 0.47419116 0.030530667 0.35988435 1.1040359
-1.1726326 -1.777279 0.1096791 0.7245768 -0.39625067 0.99463457 -0.93142307 0.054699775
-1.0781426 1.6457906 -0.5464041 -1.0920745 -0.988785 0.16199853 -1.304373 -0.2333612
-0.031246085 -0.7855842 0.35529977 -1.118007 -0.5103327 -1.6092513 -0.44758558 1.0862309
1.4361694 -0.82690823 -1.3814726 0.44744432 -0.8954707 0.44083634 0.6004709 0.41686127
-0.055796236 -0.69921035 0.9360714 1.0998535 -1.6628847 0.50054 -0.75144523 0.52548015
00000000: 0000 0000 0000 0000 0000 0000 0000 0000
00000010: 0000 0000 0000 0000 0000 0000 0000 0000
00000020: 0000 0000 0000 0000 0000 0000 0000 0000
00000030: 0000 0000 0000 0000 0000 0000 0000 0000
00000040: a898 b5be d7e1 d23f d362 3abf 6aaf 04c0
00000050: 6bc9 963f 7545 95bf 0d3e d43f b9e5 a4bd
00000060: a0cb 933f e8f9 d6bf b0ab 3c3f 38d2 e43f
00000070: c48f c73a 9429 043f 1be5 a4be 244c df3e
00000080: 6a79 0b3f fbb1 acbf 801b b23e 670d bdbf
00000090: bdd1 9cbd 38f9 20bf c82e f2bd f081 c5bf
000000a0: bffe 50bf 3d7f fd3e e362 d23f 5b88 013f
000000b0: 71af 8abe aaf1 ebbc 10fa 143f 1769 a43f
000000c0: c44f 1bc0 b86d 073f b714 8cbd bfe6 6dbf
000000d0: d040 ddbf a34c 253f 329d ff3e 2663 0f3f
000000e0: 1d94 d8bf d4e6 2e39 cf38 cd3f 63ce 2040
000000f0: d827 e23f 49a1 9b3f 3572 ab3f 45ab 19bf
00000100: 18f9 aebf b43f 4d3f 5dcc 773d c538 bcbf
00000110: 246a 923d 5cec 233f e5bb d6bf 99b2 7f3f
00000120: 37cf f93f f014 fe3e f950 fb3f 7257 0a3f
00000130: b5a8 4a3e bc52 45bd e2d9 8abc 9b7c 143e
00000140: e4f1 0e3f a37d 9b3f 73fc a9bf 9c23 833d
00000150: 22d7 60bf d89c d73e 60ec 09be 3d13 893d
00000160: 2369 293e e1d3 313e 78e0 833d e614 a3bf
00000170: 252c bdbe 876c 8fbf 2a54 fe3e d549 833e
00000180: d576 29bf 11b4 21bd 495d 07bd f770 f93e
00000190: 92e4 99be 7d21 753f 06ae 30bf 3bea 38bf
000001a0: 5549 583b 35f1 7ebf 9e3d f7bf 5f9d d73c
000001b0: 6957 8b3e e867 f53e 6111 e33f 6a12 933e
000001c0: bec7 e7bc 3f54 78bf 138c 1cbd 8e9e 553f
000001d0: 770b 08c0 1845 64bf c9f5 a93f 3d39 7cbf
000001e0: 9c93 a53f 67f7 ee3e f2d7 353f 6743 503e
000001f0: 11d5 44bf 8f93 fbbf c144 973e c2bd 713f
00000200: ac7f 9dbf 2e72 b63e 5be8 6a3e 471e 73be
00000210: 86d0 63be 026c a3bd 4c4a c63d ddf7 a73f
00000220: 6acd 0b40 6d97 19c0 3a34 bf3f d1cb 0fbf
00000230: 4a91 ffbc d110 31be 78c4 4d3f 0608 e43f
00000240: 1f8a 4c3f df97 afbf fac4 823f 021f a1bf
00000250: 71da 3b3f 4214 40bf ded1 463e 18f4 673f
00000260: 6471 d1bd 2e91 9a3e a066 9cbe 913f cc3e
00000270: 3340 103f 933d c0bf 9b3a 533f b695 a0be
00000280: b292 b33f 3450 8dbf 230f a03e bbbf 053d
00000290: 6bcc 873f f550 cc3e 8e56 f0be 9784 b73f
000002a0: 6792 8b3d 1ded 44bf 4b7e a63e 9e14 9f3f
000002b0: bd28 92bf 2215 4b3f 173f af3f e2b0 e13e
000002c0: ac0d c6bf a266 3f3e cb76 d13f fc38 773f
000002d0: 939b a7bf 6dcc 8f3f 816c 81be 02f3 7d3e
000002e0: 27ff 19be 8f56 05be 04c3 1d3f 9649 14bf
000002f0: 8969 a6be 0ba7 b5bf 45bf 36be 13ba e93e
00000300: ecb2 09be bd59 223f cb75 dcbe 28e0 81be
00000310: 7a3e bbbf 4b89 213f 63c0 2040 e9e4 93bf
00000320: d9af 153c 642b 003f 2398 fbbe 6875 b53e
00000330: 7d0d 28c0 604a e43d 3496 123e 374e b9be
00000340: 52ec 713f 749c ff3d 56b3 b33f 43f2 f13e
00000350: 2fc9 f23e 731b fa3c c342 b83e 0c51 8d3f
00000360: d318 96bf e17d e3bf 709f e03d dd7d 393f
00000370: 5ee1 cabe 5fa0 7e3f be71 6ebf df0c 603d
00000380: 9400 8abf 44a9 d23f 24e1 0bbf 19c9 8bbf
00000390: 0421 7dbf f1e2 253e b2f5 a6bf 3df6 6ebe
000003a0: caf7 ffbc 0c1c 49bf dae9 b53e da1a 8fbf
000003b0: 2aa5 02bf f2fb cdbf f029 e5be 9d09 8b3f
000003c0: 66d4 b73f 42b0 53bf 18d4 b0bf 6c17 e53e
000003d0: 913d 65bf 4db5 e13e 76b8 193f d76e d53e
000003e0: 988a 64bd 73ff 32bf 60a2 6f3f 00c8 8c3f
000003f0: 68d9 d4bf 6423 003f b75e 40bf de85 063f

lstm.weight_ih_l0 f4 [64, 16]
-0.07531639 0.11970345 -0.045632746 -0.020552754 0.22158507 0.06887736 0.12544583 -0.16733687
0.08222891 -0.08090881 -0.01065246 -0.05167636 -0.10204605 0.089913815 -0.09820608 -0.22214746
0.066168755 -0.14785945 0.142823 -0.28270105 0.1364842 -0.22078271 0.10932589 0.28383997
-0.038532685 0.10441789 0.008605519 0.025792686 -0.15977195 0.055578865 0.005491269 -0.004389059
-0.2760585 0.097384945 0.06679113 0.033213872 -0.15968092 -0.26847738 -0.2934347 -0.14224592
0.0032789668 -0.011398814 -0.04193322 -0.18521687 0.16249423 -0.23256655 0.16844481 0.166104
0.102512956 0.06389067 -0.22138104 -0.17917666 -0.030354893 -0.111057796 0.17205366 0.13155398
0.120822065 -0.18705066 -0.13359915 0.082351305 -0.12320944 0.1396165 -0.017248577 0.051377192
-0.10827997 -0.19082032 0.059185795 0.09112269 0.27983454 -0.14841396 -0.06224959 0.07157665
0.08968102 -0.2730781 -0.06313898 0.037388846 0.03817067 -0.06693494 -0.09854329 -0.017667102
-0.29202896 0.15170251 0.07650867 -0.08720887 0.15270458 0.2633098 -0.27522975 0.1947483
0.21388514 0.09160049 0.15133291 -0.07840084 0.11499495 0.08401942 0.15983291 -0.094684415
-0.22875154 -0.18522875 0.16863495 -0.20681304 -0.22868182 0.073015876 -0.18645108 0.14086735
-0.09047809 -0.13898972 -0.16864736 -0.12716219 0.21030658 -0.04862841 0.1256052 0.03952639
0.081283346 0.1783245 -0.1381239 -0.10055385 -0.16203168 0.11736631 -0.11803496 0.08022343
0.03738348 0.15497239 0.060471572 0.04761969 -0.13202319 -0.20966792 -0.19126435 -0.24200554
0.20002005 0.2076207 -0.10035287 0.0032273075 0.10137436 -0.03673284 -0.049967207 -0.049799655
-0.2312746 -0.14232275 -0.22861788 0.06137926 -0.04403325 -0.14682502 -0.010221636 -0.1760697
-0.20949171 -0.15326338 -0.24389572 -0.23887245 -0.07066284 0.098575756 -0.09889687 0.0522745
0.15876158 0.18761167 -0.118497305 -0.103189066 0.1738532 0.15812492 -0.060724825 -0.04928913
0.21163449 0.23899613 0.07540365 0.022881158 -0.15490495 0.14333141 0.16416712 -0.14069761
0.22343314 0.15775251 -0.23296763 0.18631858 0.09423415 0.073014244 -0.19573918 0.2090478
-0.1664684 -0.17834745 0.16113292 -0.039127093 0.19930914 -0.12358991 0.19140194 -0.17501792
0.10426995 -0.18270166 0.13232933 -0.17420931 0.09951873 -0.112178564 0.14704424 0.16118866
0.1180007 -0.07254905 -0.13139954 0.25507087 0.07506921 -0.13877411 -0.23796892 -0.061595485
0.20225352 0.19642097 -0.019830316 0.10161813 0.09292661 -0.03680998 -0.026109317 0.06781781
0.15114379 -0.16564542 0.17943011 -0.108243 0.07107965 -0.040484484 0.02383325 -0.11574923
0.022649392 -0.16214167 0.15840667 -0.118566945 0.026265886 -0.16642694 0.22989596 -0.09380385
-0.041937973 0.09186355 0.17856647 -0.06766034 -0.23699965 0.15943184 -0.18753351 -0.14420381
-0.13756064 -0.19210683 0.04153086 -0.047189277 0.23519546 0.11006439 -0.070815615 -0.11702509
0.030918721 0.17092927 -0.019578442 -0.08447525 -0.06873034 -0.18612881 0.124221295 0.2920272
0.086197294 -0.10134905 0.13351868 -0.30275714 -0.1642569 0.10649527 0.037262853 -0.15534203
00000000: 7b3f 9abd 1527 f53d 67e9 3abd 405e a8bc
00000010: 32e7 623e 930f 8d3d df74 003e 5b5a 2bbe
00000020: a167 a83d 85b3 a5bd a887 2ebc 97aa 53bd
00000030: 85fd d0bd bc24 b83d 4520 c9bd a07a 63be
00000040: 7c83 873d 7868 17be 3140 123e 31be 90be
00000050: 84c2 0b3e dd14 62be 41e6 df3d 7953 913e
00000060: 73d4 1dbd 0cd9 d53d 2afe 0c3c 2f4b d33c
00000070: 429b 23be aaa6 633d 1af0 b33b 18d2 8fbb
00000080: 8a57 8dbe c271 c73d cac9 883d 450b 083d
00000090: 6583 23be de75 89be 133d 96be eaa8 11be
000000a0: efe3 563b 17c2 3abc 2bc2 2bbd 7ea9 3dbe
000000b0: e364 263e ed25 6ebe cc7c 2c3e 2b17 2a3e
000000c0: 50f2 d13d 1dd9 823d b6b1 62be 167a 37be
000000d0: d3aa f8bc 4572 e3bd d62e 303e 16b6 063e
000000e0: 8f71 f73d 358a 3fbe 37ce 08be cda7 a83d
000000f0: 3b55 fcbd a1f7 0e3e e34c 8dbc e470 523d
00000100: e4c1 ddbd 6766 43be ce6c 723d 889e ba3d
00000110: 7946 8f3e d4f9 17be 6df9 7ebd c796 923d
00000120: afaa b73d e5d0 8bbe 024f 81bd 0c25 193d
00000130: d958 1c3d 3015 89bd 10d1 c9bd 99ba 90bc
00000140: d284 95be e757 1b3e 94b0 9c3d 909a b2bd
00000150: 975e 1c3e 8bd0 863e eaea 8cbe 196c 473e
00000160: b504 5b3e 0a99 bb3d 04f7 1a3e 9f90 a0bd
00000170: 7982 eb3d 6012 ac3d 3dab 233e e7e9 c1bd
00000180: d83d 6abe 9bac 3dbe a4ae 2c3e ccc6 53be
00000190: 912b 6abe 5989 953d 08ed 3ebe 883f 103e
000001a0: 944c b9bd 5253 0ebe e5b1 2cbe ce36 02be
000001b0: 9c5a 573e 952e 47bd a69e 003e 6de6 213d
000001c0: e277 a63d b39a 363e 5a70 0dbe 2def cdbd
000001d0: a2eb 25be bf5d f03d 50bc f1bd 2f4c a43d
000001e0: 6c1f 193d 15b1 1e3e 0ab1 773d dd0c 433d
000001f0: 1631 07be 30b3 56be cdda 43be 4dd0 77be
00000200: 0ed2 4c3e 859a 543e ce85 cdbd 3c81 533b
00000210: 5c9d cf3d 2d75 16bd 6aaa 4cbd b9fa 4bbd
00000220: 40d3 6cbe 0ebd 11be ce1a 6abe d268 7b3d
00000230: 365c 34bd 4c59 16be a678 27bc 9e4b 34be
00000240: ff84 56be 13f1 1cbe cdbf 79be fb9a 74be
00000250: aeb7 90bd 16e2 c93d 718a cabd c91d 563d
00000260: 6592 223e 461d 403e b7ae f2bd ca54 d3bd
00000270: 9306 323e 80eb 213e 98ba 78bd 66e3 49bd
00000280: b6b6 583e 67bb 743e 3b6d 9a3d 4471 bb3c
00000290: 679f 1ebe 78c5 123e 6d1b 283e 0913 10be
000002a0: a8cb 643e e089 213e 118f 6ebe 4cca 3e3e
000002b0: d6fd c03d 7e88 953d da6f 48be a010 563e
000002c0: b176 2abe b7a0 36be 0700 253e bb43 20bd
000002d0: b217 4c3e b51c fdbd dffe 433e e637 33be
000002e0: 7c8b d53d 2516 3bbe 5781 073e ed63 32be
000002f0: 7ad0 cb3d e0bd e5bd c492 163e a40e 253e
00000300: 5aaa f13d 9994 94bd 9a8d 06be a698 823e
00000310: e3bd 993d cd1a 0ebe 20ae 73be 8c4b 7cbd
00000320: 8c1b 4f3e 9422 493e 3073 a2bc 2b1d d03d
00000330: 4e50 be3d 10c6 16bd 35e3 d5bc 10e4 8a3d
00000340: 70c5 1a3e f49e 29be 87bc 373e 82ae ddbd
00000350: 3592 913d 0fd3 25bd f33d c33c ef0d edbd
00000360: 388b b93c 7708 26be 5c35 223e 3ad3 f2bd
00000370: 8e2b d73c d36b 2abe d969 6b3e 3c1c c0bd
00000380: 27c7 2bbd f522 bc3d 21da 363e 8191 8abd
00000390: 09b0 72be 1a42 233e c908 40be 2aaa 13be
000003a0: b2dc 0cbe a7b7 44be 431c 2a3d 8b49 41bd
000003b0: 14d7 703e 7069 e13d c707 91bd daaa efbd
000003c0: 4249 fd3c 1508 2f3e f862 a0bc 5c01 adbd
000003d0: 7ec2 8cbd 8d98 3ebe bc67 fe3d 9784 953e
000003e0: 3588 b03d 1790 cfbd 1fb9 083e fc02 9bbe
000003f0: f632 28be 311a da3d efa0 183d fb11 1fbe

lstm.weight_hh_l0 f4 [64, 16]
0.013042574 -0.2540714 -0.07707302 -0.26154107 -0.092060074 -0.12726033 0.050921705 0.1283545
0.13554838 -0.02847081 0.048934188 0.18185428 -0.15076621 0.033106416 0.30580285 -0.09084483
-0.25669575 -0.20290852 -0.2238884 -0.24944757 -0.2031174 0.16082084 -0.15630232 -0.0127639845
-0.18276435 0.13452409 0.15478636 0.26566303 -0.11340038 -0.20659304 0.04943577 -0.11649692
-0.24719357 -0.0020965054 -0.14199506 -0.12837122 0.124837704 0.022728523 0.11368229 0.17043547
0.12944041 -0.19663572 -0.23422173 0.23169553 0.018670678 0.047537602 -0.2357248 -0.14484292
-0.08674037 0.119559124 -0.05235755 0.21266326 -0.058023464 0.099670045 -0.13439567 -0.019055843
0.16635089 -0.0057913046 0.14269342 -0.044885192 -0.07769559 0.09831437 0.11123091 -0.039586883
0.007986201 0.09173241 0.15556298 -0.01733389 0.15125948 -0.17116635 -0.020423554 0.27617913
-0.021591438 -0.16696404 -0.23236395 -0.1235989 0.18849103 -0.24491735 -0.2145487 0.16923247
-0.112203844 -0.23216869 0.03513107 -0.17261462 -0.10138904 -0.030571073 0.045972735 0.092852786
-0.15810776 -0.024724422 -0.04098726 0.05980604 0.16054684 -0.0643936 -0.17461348 -0.08417571
0.10410624 0.04761273 0.0024398938 -0.27074155 -0.014501043 0.25436106 0.2617734 0.17080356
0.28029883 0.00019290141 0.12231222 -0.115728796 -0.23257853 -0.02328138 -0.12632008 -0.21891455
-0.050871857 0.17581774 -0.15808448 -0.01645769 0.034454957 0.17336059 0.12499219 -0.23733471
-0.045669902 0.16665338 -0.2857543 0.1874035 0.16989204 -0.15126878 0.09971854 -0.07048666
0.014088547 0.083136745 0.19361314 0.20679495 0.20978814 -0.047187522 -0.15410641 -0.11020107
-0.19209196 -0.2024135 -0.08195814 -0.2218642 -0.01383423 -0.01311397 -0.15728232 -0.2527361
0.1924417 -0.04185455 -0.13710131 0.028119402 0.097052135 -0.2494158 -0.13186428 0.14410573
0.19079606 0.17784092 -0.12158332 -0.20379394 0.072828054 -0.020583306 0.11429433 -0.1692424
-0.12393869 -0.22916444 -0.19918232 -0.09977722 0.0067385267 0.007479681 0.113897264 -0.16335957
0.07221505 0.111670054 -0.15036535 -0.00370184 0.030029854 0.18669473 -0.15356484 -0.16513553
0.055172063 -0.21715988 0.25706723 0.19247489 0.061726067 -0.12148958 -0.1243088 0.08148868
0.01079161 -0.20020914 0.14399198 0.1664918 -0.27542785 -0.2983921 -0.086410955 0.05882719
0.050388 -0.033820678 0.04009061 -0.100188494 0.1572835 0.19500886 0.09660989 0.24232386
-0.1614352 0.09278062 0.1990225 -0.07634364 0.18128136 0.15143842 -0.12054633 0.049196247
0.090632334 0.13196112 0.22028033 -0.07940298 -0.13023104 0.255628 0.19071583 -0.018045245
-0.18188208 0.22354525 0.089938685 0.099740766 0.018492963 0.09946685 -0.08064351 0.1269399
0.044698615 -0.09826528 -0.110824116 -0.2330896 -0.30171525 -0.1797466 -0.01674217 -0.004445621
0.30531913 -0.22183305 0.2145298 -0.1151535 0.115650915 -0.18305008 0.034391563 0.16816044
0.1884006 -0.24883024 -0.03879674 0.14538753 -0.033005778 0.05893374 -0.09752739 -0.14382634
-0.030821202 0.11245829 -0.07228261 0.13414504 -0.033005908 -0.11621505 -0.13071747 -0.20651609
00000000: 85b0 553c a615 82be 76d8 9dbd b6e8 85be
00000010: fe89 bcbd 8850 02be 4793 503d 5d6f 033e
00000020: 32cd 0a3e 9e3b e9bc 376f 483d 0238 3a3e
00000030: 7562 1abe 989a 073d 3192 9c3e db0c babd
00000040: a06d 83be 40c7 4fbe 0043 65be 2f6f 7fbe
00000050: 02fe 4fbe 38ae 243e b70d 20be 0820 51bc
00000060: 9426 3bbe afc0 093e 5180 1e3e fc04 883e
00000070: 753e e8bd 208d 53be 297d 4a3d f095 eebd
00000080: 5020 7dbe 8665 09bb 2767 11be bf73 03be
00000090: e9aa ff3d 2b31 ba3c 43d2 e83d a386 2e3e
000000a0: 078c 043e e05a 49be d2d7 6fbe 9841 6d3e
000000b0: 40f3 983c cab6 423d d861 71be b451 14be
000000c0: efa4 b1bd 6adb f43d df74 56bd 66c4 593e
000000d0: 03aa 6dbd cf1f cc3d 059f 09be 001b 9cbc
000000e0: e357 2a3e fcc4 bdbb 391e 123e 89d9 37bd
000000f0: de1e 9fbd 0b59 c93d 08cd e33d db25 22bd
00000100: 8ed8 023c 34de bb3d e74b 1f3e cdff 8dbc
00000110: c4e3 1a3e 3b46 2fbe 4c4f a7bc 5a67 8d3e
00000120: 87e0 b0bc 9ff8 2abe d1f0 6dbe 6c21 fdbd
00000130: cb03 413e 9dcb 7abe a8b2 5bbe 474b 2d3e
00000140: 21cb e5bd a1bd 6dbe 99e5 0f3d e3c1 30be
00000150: 0fa5 cfbd 3070 fabc e84d 3c3d 9a29 be3d
00000160: 00e7 21be df8a cabc 42e2 27bd 2ef7 743d
00000170: 6466 243e cbe0 83bd e0cd 32be 5164 acbd
00000180: a735 d53d 9105 433d a0e6 1f3b a39e 8abe
00000190: c895 6dbc 9d3b 823e 2a07 863e 21e7 2e3e
000001a0: 5483 8f3e 9445 4a39 d47e fa3d 3803 edbd
000001b0: 1129 6ebe 98b8 bebc 0d5a 01be 232b 60be
000001c0: 025f 50bd 9109 343e e6e0 21be 47d2 86bc
000001d0: a420 0d3d 7085 313e e8fb ff3d df07 73be
000001e0: 5d10 3bbd 2fa7 2a3e 634e 92be b4e6 3f3e
000001f0: 2ef8 2d3e 34e6 1abe 3c39 cc3d 4f5b 90bd
00000200: a6d3 663c 9943 aa3d 8642 463e 0ec2 533e
00000210: b4d2 563e b447 41bd 12ce 1dbe 19b1 e1bd
00000220: c1b3 44be 7c45 4fbe abd9 a7bd 5e30 63be
00000230: f7a8 62bc fadb 56bc 9e0e 21be a066 81be
00000240: 700f 453e ad6f 2bbd 4964 0cbe a95a e63c
00000250: 45c3 c63d db66 7fbe 6e07 07be 7490 133e
00000260: 0b60 433e ee1b 363e ad00 f9bd 5caf 50be
00000270: e026 953d 529e a8bc 2513 ea3d e14d 2dbe
00000280: 91d3 fdbd 15aa 6abe 73f6 4bbe 0058 ccbd
00000290: dcce dc3b 1d18 f53b f842 e93d bb47 27be
000002a0: 7ce5 933d 45b3 e43d 60f9 19be 929a 72bb
000002b0: 2b01 f63c e72c 3f3e 1a40 1dbe 4a19 29be
000002c0: 1afc 613d 295f 5ebe 519e 833e 2318 453e
000002d0: 79d4 7c3d 87cf f8bd 9d95 febd 89e3 a63d
000002e0: 4bcf 303c a003 4dbe a272 133e d47c 2a3e
000002f0: e104 8dbe d9c6 98be 3af8 b0bd c8f4 703d
00000300: a663 4e3d 8d87 0abd 0d36 243d a02f cdbd
00000310: ed0e 213e 67b0 473e 68db c53d bf23 783e
00000320: 454f 25be c403 be3d 8ecc 4b3e 0e5a 9cbd
00000330: d2a1 393e ac12 1b3e ffe0 f6bd 0182 493d
00000340: 729d b93d d120 073e 2b91 613e 089e a2bd
00000350: 495b 05be ace1 823e 034b 433e 9fd3 93bc
00000360: 4c3f 3abe 0ce9 643e c631 b83d e344 cc3d
00000370: 8e7e 973c 47b5 cb3d 6d28 a5bd 88fc 013e
00000380: e515 373d 4f3f c9bd c1f7 e2bd 0aaf 6ebe
00000390: 6c7a 9abe 7e0f 38be e026 89bc 92ac 91bb
000003a0: ca52 9c3e 3428 63be b3ad 5b3e 99d5 ebbd
000003b0: 63da ec3d 7b71 3bbe 2bde 0c3d 4032 2c3e
000003c0: 16ec 403e 5bcd 7ebe 55e9 1ebd 78e0 143e
000003d0: 1131 07bd 8164 713d 71bc c7bd 3647 13be
000003e0: bf7c fcbc 8850 e63d e808 94bd 515d 093e
000003f0: 3431 07bd 2802 eebd cdda 05be f478 53be

lstm.bias_ih_l0 f4 [64]
0.06832562 -0.09126438 -0.19943061 -0.18312877 -0.07559741 -0.11382316 -0.06437719 0.18290652
0.14849332 0.23378253 -0.09370706 0.3084444 0.07771856 0.26073962 0.29438046 -0.12306301
0.03836056 0.2530105 -0.06717657 -0.10142653 0.005485102 0.27620414 0.1615439 0.15537894
-0.16407824 0.006559475 0.19306973 -0.09842714 0.05147804 0.035141848 0.28290835 0.11302195
-0.119533665 -0.26624012 -0.18346024 -0.12742373 0.14564963 0.21861994 0.30073982 0.05006969
-0.031269014 0.009166539 -0.14284341 0.2400517 -0.17777798 -0.06692733 0.24437962 -0.23177437
0.15166688 -0.13273889 0.106213085 -0.21976176 0.12679057 0.158347 0.003194124 -0.08142254
0.12991226 -0.10032505 0.21195151 -0.17345475 0.26355004 -0.108581826 0.24447054 0.004521698
00000000: 4dee 8b3d d2e8 babd 8a37 4cbe 1c86 3bbe
00000010: d1d2 9abd 1e1c e9bd 30d8 83bd d94b 3b3e
00000020: a20e 183e b064 6f3e 7de9 bfbd 6dec 9d3e
00000030: e92a 9f3d aa7f 853e 09b9 963e 7608 fcbd
00000040: f61f 1d3d 988a 813e df93 89bd b6b8 cfbd
00000050: 5fbc b33b a16a 8d3e c46b 253e a81b 1f3e
00000060: 2004 28be ddf0 d63b 12b4 453e 2b94 c9bd
00000070: a3da 523d e6f0 0f3d 5dd9 903e 0d78 e73d
00000080: 11ce f4bd a050 88be 00dd 3bbe 5e7b 02be
00000090: 2d25 153e e8dd 5f3e 92fa 993e e015 4d3d
000000a0: f013 00bd 402f 163c 8b45 12be 1dd0 753e
000000b0: 6e0b 36be 3211 89bd a73e 7a3e 4356 6dbe
000000c0: 904e 1b3e b4ec 07be 3f86 d93d 3a09 61be
000000d0: 63d5 013e b725 223e 8254 513b dcc0 a6bd
000000e0: b807 053e 3877 cdbd d109 593e 1f9e 31be
000000f0: 08f0 863e 2660 debd 7c56 7a3e c12a 943b

lstm.bias_hh_l0 f4 [64]
0.032831628 -0.13062374 0.09838306 0.13979511 -0.19042341 0.31638682 -0.16726083 -0.23254465
-0.1172038 -0.20806502 0.17267595 0.28132656 0.09018991 -0.21422271 -0.11472156 -0.13759802
0.04028311 0.27651978 -0.17053074 0.090457805 0.06406102 -0.15821 -0.13455021 0.019582642
0.19250326 -0.23949946 -0.00030937372 0.11502485 0.008344183 -0.015616935 0.14002512 0.16021195
-0.04481917 0.034169428 0.01289844 0.06991321 -0.11896313 -0.128847 0.22477898 0.16555423
0.22727601 -0.0011315151 0.15189599 0.09271245 -0.17040946 -0.22468023 -0.04756859 0.03952878
0.022596704 0.12560967 0.09053098 -0.111815475 0.2611126 0.23707257 0.1328801 0.214288
0.06541191 0.073390216 0.06800437 0.19626512 0.006464073 -0.10580179 0.11466671 0.1263585
00000000: 757a 063d 3bc2 05be 0f7d c93d 7326 0f3e
00000010: 5bfe 42be 74fd a13e 6c46 2bbe 2f20 6ebe
00000020: 8c08 f0bd ff0e 55be f7d1 303e 090a 903e
00000030: 7db5 b83d 335d 5bbe 23f3 eabd 7fe6 0cbe
00000040: e7ff 243d 0094 8d3e 9c9f 2ebe f141 b93d
00000050: 6d32 833d cd01 22be 88c7 09be c76b a03c
00000060: 931f 453e 593f 75be 7033 a2b9 2692 eb3d
00000070: 0ab6 083c 2cde 7fbc bf62 0f3e 9a0e 243e
00000080: 4e94 37bd 3ef5 0b3d fa53 533c a82e 8f3d
00000090: f1a2 f3bd 78f0 03be 762c 663e 0c87 293e
000000a0: 0bbb 683e 594f 94ba 9f8a 1b3e 06e0 bd3d
000000b0: d17f 2ebe 9312 66be 48d7 42bd eee8 213d
000000c0: b91c b93c d29f 003e 4e68 b93d 83ff e4bd
000000d0: 8db0 853e 27c3 723e b911 083e 506e 5b3e
000000e0: aef6 853d 9c4d 963d e045 8b3d b9f9 483e
000000f0: 93d0 d33b 9cae d8bd 61d6 ea3d 1f64 013e

lstm.weight_ih_l0_reverse f4 [64, 16]
-0.09750529 -0.051004726 0.17004168 -0.11964003 0.14066774 0.2176027 0.10423654 0.26605517
-0.06646424 0.13499133 -0.16026428 0.06539244 0.0017694144 -0.16624981 0.032425527 -0.05893193
0.15191014 0.24756509 0.13339315 -0.00017093419 -0.10075469 0.057707928 0.0018180248 0.1649669
-0.081401534 0.2033982 0.0015679197 -0.1666488 -0.132753 -0.24154922 0.14046405 -0.15195593
0.006978569 -0.008885145 0.13491262 -0.20392284 -0.0593782 0.1702288 -0.02547726 -0.059876688
-0.20785303 0.14813799 -0.1939612 -0.27285203 -0.045798156 -0.08641392 -0.081505276 0.13222691
0.27456284 0.03511231 -0.23317452 0.13259913 0.21308064 -0.02033101 -0.036839515 0.14810245
-0.19680908 0.10131586 0.060841266 0.06731951 -0.019865924 0.07616371 -0.03331075 0.04164706
-0.045294438 0.019525595 0.12282709 0.033134576 -0.22089283 -0.10311615 -0.17121941 -0.15909971
-0.2690462 0.30422613 0.25896388 0.106245 0.10552689 -0.062336084 0.13334468 -0.040539473
-0.039076075 -0.13211645 -0.12303656 -0.10389667 -0.30470717 -0.067973696 -0.17392488 -0.15030462
-0.04351429 0.0067384453 0.23683308 0.16327313 0.004999129 -0.10165894 0.135156 0.030757533
-0.2204395 -0.058273006 0.24055889 0.24815445 -0.056610312 -0.23561545 -0.029186523 -0.22950341
-0.21884185 0.15148516 0.18267989 0.113599025 0.115191475 0.107857056 -0.1282191 0.16415268
-0.072161436 0.114114925 0.10995813 -0.27086687 -0.20996758 0.0714449 -0.14544241 0.16020212
0.10420577 0.09887878 0.088053964 0.03988865 -0.24119782 -0.16554296 -0.14379424 0.05878678
0.25456095 0.078861244 0.17476498 0.12922841 0.27829373 0.0029827107 0.23214391 -0.11976846
-0.14507152 -0.12321257 0.12894642 -0.21511358 0.07588704 -0.20041072 -0.09956151 0.104247205
0.26302618 0.16793501 0.17105211 0.10349633 -0.17816532 -0.24466808 0.025984272 -0.20561548
0.064309485 -0.18364848 0.13920765 -0.15114868 -0.08899945 -0.023644242 -0.023646867 -0.17349543
0.03926009 0.118352555 0.2602777 -0.10408837 -0.06467235 0.18148443 -0.21759894 0.21687508
-0.10632868 -0.107902475 -0.018018192 -0.096039265 0.27076837 -0.16573654 -0.07755628 -0.057186425
-0.0395944 0.21551327 0.20397945 0.023015251 0.11398284 0.23448786 0.030698648 -0.22679488
0.13559979 0.018427454 0.03904424 0.12999585 0.19822238 -0.24120596 0.098170996 0.007238173
0.06338223 -0.062135115 0.004973584 -0.1356412 0.17438617 -0.09155559 -0.17034708 0.15430611
0.27368262 0.028482607 0.014131845 0.26934874 -0.0451039 -0.12725765 -0.14346896 -0.1111363
-0.04000162 0.20006132 0.040268 -0.004247428 -0.00050351274 0.04036575 0.15207763 -0.18381426
0.0074118064 -0.105282284 0.020912679 -0.12447787 0.25566664 -0.2034742 0.058749642 -0.009734062
-0.21474957 -0.113076456 -0.1564924 -0.008361919 -0.0701884 -0.16309421 0.089797 -0.0715392
0.03658811 0.012355888 -0.13051666 0.12563229 -0.14844766 0.02224941 0.048181146 -0.0794129
-0.10751541 -0.07026119 0.19512725 0.08700858 0.1258779 0.27263373 0.05087988 -0.24382013
-0.16290113 -0.04580937 -0.1465251 -0.1997675 0.24158095 -0.30412647 0.21513548 0.22202314
00000000: dab0 c7bd 55ea 50bd 681f 2e3e d505 f5bd
00000010: 340b 103e 3ed3 5e3e f879 d53d 6238 883e
00000020: 671e 88bd 2b3b 0a3e 521c 24be 79ec 853d
00000030: b2eb e73a 643d 2abe a1d0 043d 9c62 71bd
00000040: 558e 1b3e b481 7d3e 3798 083e cc3c 33b9
00000050: 7a58 cebd 265f 6c3d ca4a ee3a 15ed 283e
00000060: d9b5 a6bd 9e47 503e a882 cd3a fca5 2abe
00000070: 67f0 07be ae58 77be cfd5 0f3e 569a 1bbe
00000080: 7bac e43b 0093 11bc 8926 0a3e 26d1 50be
00000090: 8e36 73bd 7550 2e3e b0b5 d0bc 4241 75bd
000000a0: 6dd7 54be 7cb1 173e c49d 46be 43b3 8bbe
000000b0: d996 3bbd c8f9 b0bd 3dec a6bd 7e66 073e
000000c0: 8093 8c3e edd1 0f3d 4dc5 6ebe 11c8 073e
000000d0: d031 5a3e 388d a6bc 08e5 16bd 2ba8 173e
000000e0: 5288 49be b17e cf3d b134 793d d0de 893d
000000f0: ddbd a2bc b8fb 9b3d da70 08bd 1c96 2a3d
00000100: a986 39bd 24f4 9f3c c58c fb3d 1fb8 073d
00000110: bb31 62be 8f2e d3bd 2454 2fbe 09eb 22be
00000120: 6cc0 89be 87c3 9b3e ea96 843e fb96 d93d
00000130: 7b1e d83d 1f54 7fbd 828b 083e b80c 26bd
00000140: 3c0e 20bd 8949 07be 98fa fbbd c7c7 d4bd
00000150: 9402 9cbe cb35 8bbd 5d19 32be 74e9 19be
00000160: 0a3c 32bd 2dce dc3b 5f84 723e 1231 273e
00000170: bccf a33b 9032 d0bd 5666 0a3e 39f7 fb3c
00000180: e4ba 61be adaf 6ebd 1255 763e 331c 7e3e
00000190: 37e0 67bd 2d45 71be 9318 efbc f102 6bbe
000001a0: 1418 60be ed1e 1b3e 7010 3b3e 9ba6 e83d
000001b0: 82e9 eb3d 29e4 dc3d de4b 03be a417 283e
000001c0: 60c9 93bd 16b5 e93d ba31 e13d 10af 8abe
000001d0: be01 57be b451 923d dbee 14be 060c 243e
000001e0: d669 d53d f580 ca3d a355 b43d 4862 233d
000001f0: 90fc 76be 1884 29be cc3e 13be 68ca 703d
00000200: d055 823e 0182 a13d 97f5 323e 7454 043e
00000210: 847c 8e3e 9579 433b 22b7 6d3e 2b49 f5bd
00000220: a18d 14be df56 fcbd 880a 043e bc46 5cbe
00000230: aa6a 9b3d 7838 4dbe e8e6 cbbd 8f7f d53d
00000240: 5eab 863e 28f7 2b3e 4928 2f3e e2f5 d33d
00000250: f870 36be 458a 7abe f8dc d43c dd8c 52be
00000260: b1b4 833d 590e 3cbe 738c 0e3e b8c6 1abe
00000270: 5845 b6bd 92b1 c1bc 13b7 c1bc c9a8 31be
00000280: 30cf 203d d362 f23d 1e43 853e 492c d5bd
00000290: f072 84bd 0ed7 393e 42d2 5ebe 8014 5e3e
000002a0: dac2 d9bd f9fb dcbd e39a 93bc 3cb0 c4bd
000002b0: 27a2 8a3e d7b6 29be d4d5 9ebd 503c 6abd
000002c0: bd2d 22bd 83af 5c3e fddf 503e 7b8a bc3c
000002d0: d66f e93d 961d 703e bb7b fb3c eb3c 68be
000002e0: acda 0a3e 2cf5 963c daec 1f3d a21d 053e
000002f0: cffa 4a3e b2fe 76be e00d c93d 322e ed3b
00000300: 8bce 813d 6481 7ebd 72f9 a23b 87e5 0abe
00000310: 4a92 323e 7f81 bbbd 776f 2ebe 6c02 1e3e
00000320: 2120 8c3e 5b54 e93c 4189 673c 14e8 893e
00000330: debe 38bd d44f 02be 87e9 12be 6e9b e3bd
00000340: bdd8 23bd e0dc 4c3e 0ff0 243d 022e 8bbb
00000350: 2bfe 03ba 8f56 253d 3dba 1b3e ce39 3cbe
00000360: bdde f23b 3d9e d7bd 1151 ab3c 41ee febd
00000370: bde6 823e 8a5b 50be 77a3 703d 9d7b 1fbc
00000380: 50e7 5bbe a194 e7bd 8b3f 20be 6e00 09bc
00000390: f0be 8fbd 2b02 27be 7de7 b73d 2583 92bd
000003a0: 6add 153d 5a70 4a3c 29a6 05be c0a5 003e
000003b0: aa02 18be 6544 b63c 9859 453d 3ba3 a2bd
000003c0: 0a31 dcbd 19e5 8fbd 70cf 473e 8e31 b23d
000003d0: 23e6 003e a696 8b3e 6c67 503d fcab 79be
000003e0: 8ecf 26be 9ba2 3bbd ad0a 16be da8f 4cbe
000003f0: ff60 773e 77b6 9bbe 7a4c 5c3e 095a 633e

lstm.weight_hh_l0_reverse f4 [64, 16]
0.07059655 0.09299866 0.079854704 -0.26745418 -0.08107253 -0.19468081 0.03741054 -0.13281721
-0.036586493 0.27066797 -0.034214318 0.022319665 0.05343016 0.1950445 -0.26229665 0.2700192
-0.10060353 0.04490565 0.21508375 -0.14823855 0.049642507 0.036239374 0.018699145 -0.19346787
0.0474675 0.018476067 0.11145264 0.05668985 -0.2037141 0.25740704 -0.17227855 0.12523347
0.08797712 0.013454763 -0.017044673 -0.14129837 -0.21649528 0.24789602 0.17430758 0.13663812
0.03815391 -0.08890297 0.25288963 0.017505273 0.15953796 0.2681801 0.098104775 0.09991923
0.0009634508 0.024618799 -0.18505399 -0.023308445 -0.17871685 -0.09796324 -0.1187861 0.15706618
-0.05534625 0.04635486 -0.18346101 -0.0487053 -0.118583694 0.25024635 0.033453505 -0.022458382
0.28567433 0.019949714 -0.10552199 -0.2053294 -0.17628776 -0.09446026 -0.029857269 -0.28691605
-0.1717085 0.053873617 0.0058756773 -0.009148571 0.17068212 0.024104746 -0.03565926 0.18131654
-0.07373433 0.09625383 0.14803346 0.0061981706 -0.09796014 -0.020595053 -0.2884996 -0.31296715
-0.25740916 0.041876633 0.032092705 -0.25636733 -0.008395671 0.061402105 -0.08850958 0.30712253
-0.10737928 0.1549795 0.15809885 -0.01168583 0.13977976 -0.12269068 -0.26587117 0.1784952
-0.15981337 0.2333362 -0.071168676 0.19487351 0.15842263 0.09673394 0.20293866 -0.02201964
-0.17641337 -0.2018799 0.08459135 0.0030547748 -0.14867076 0.16380419 0.15759295 0.1197212
0.1804546 0.024764491 -0.02273822 0.0011907078 -0.19456059 -0.13518994 -0.122522995 0.00028417603
0.014543494 -0.17031641 -0.19059873 -0.18687995 0.18341385 -0.10880261 -0.20636076 0.17181878
-0.24279715 0.09593908 0.153825 -0.04632288 -0.0477218 0.19433685 -0.0131485155 0.17992169
0.07372295 -0.24586935 -0.17410174 0.091135256 0.124373734 -0.057233993 0.014096349 0.19951189
0.24550448 0.19877268 0.23736791 -0.28021845 0.010527578 0.0135175465 0.004133739 0.06808314
0.09554389 -0.29091287 -0.09322156 -0.16591603 0.07004042 0.060941588 0.17946953 -0.16889124
-0.10796869 0.015233161 0.21920139 0.024334313 -0.2070143 -0.03377431 0.057007037 0.0025035243
0.2202794 -0.26713595 0.12357037 0.087823234 0.12040148 -0.072762325 0.18478572 -0.22244012
-0.22307783 -0.15060255 0.31357598 -0.077138424 0.053941704 0.2645458 -0.083344124 0.07640093
-0.13924828 0.2822651 -0.17967243 -0.21916105 -0.12022855 -0.12896699 0.14349805 0.09389364
0.17874166 -0.28883976 -0.25456882 0.2572015 -0.20865466 -0.14389925 -0.05465048 -0.24764317
-0.12667012 -0.050160326 0.17302957 -0.28310627 -0.10381418 -0.30626112 -0.17649044 -0.24737218
-0.2887457 0.09079412 0.2300179 0.02838619 -0.24832757 0.09167881 0.01952818 -0.043943044
-0.09974722 -0.27533662 0.105354704 0.03965262 -0.15809913 0.10965469 0.04775981 0.027443858
-0.24009436 0.2900776 0.18602511 -0.2060194 0.027460242 -0.011827556 -0.08968435 0.22834541
0.19638334 -0.17234658 0.1435045 -0.032641772 0.011986156 -0.21707119 -0.13588336 -0.27106753
0.14925346 0.004845596 0.09617411 0.050501034 0.1311503 0.110473454 -0.03835346 0.29068837
00000000: ed94 903d 1576 be3d dd8a a33d c1ef 88be
00000010: 5b09 a6bd 685a 47be cb3b 193d 3c01 08be
00000020: b8db 15bd fe94 8a3e 5024 0cbd bbd7 b63c
00000030: 95d9 5a3d bfb9 473e bf4b 86be f53f 8a3e
00000040: 3909 cebd fdee 373d ea3e 5c3e d9cb 17be
00000050: f155 4b3d bd6f 143d f32e 993c 711c 46be
00000060: 486d 423d 1f5b 973c 4841 e43d 9e33 683d
00000070: 6e9a 50be dbca 833e ca69 30be 343d 003e
00000080: 592d b43d 5e71 5c3c 45a1 8bbc 85b0 10be
00000090: f0b0 5dbe 74d8 7d3e b07d 323e ddea 0b3e
000000a0: 4647 1c3d c312 b6bd c07a 813e 3867 8f3c
000000b0: eb5d 233e e74e 893e 28eb c83d 74a2 cc3d
000000c0: 1790 7c3a 5dad c93c cb7e 3dbe 5af1 bebc
000000d0: 8d01 37be f4a0 c8bd 2046 f3bd f5d5 203e
000000e0: c0b2 62bd 98de 3d3d 34dd 3bbe 357f 47bd
000000f0: 02dc f2bd 4a20 803e 8b06 093d a4fa b7bc
00000100: e843 923e 956d a33c ea1b d8bd df41 52be
00000110: c784 34be 6174 c1bd 3b97 f4bc a9e6 92be
00000120: 5ad4 2fbe 95aa 5c3d c188 c03b e3e3 15bc
00000130: 4bc7 2e3e 5177 c53c 720f 12bd 0bab 393e
00000140: 0602 97bd ba20 c53d 1596 173e 061a cb3b
00000150: 539f c8bd f5b6 a8bc 38b6 93be 3b3d a0be
00000160: 22cb 83be d586 2b3d a473 033d 9442 83be
00000170: ff8d 09bc c680 7b3d 8344 b5bd 2a3f 9d3e
00000180: abe9 dbbd f2b2 1e3e aae4 213e ec75 3fbc
00000190: 6d22 0f3e 4045 fbbd 4420 88be 72c7 363e
000001a0: 1ea6 23be afef 6e3e e2c0 91bd ec8c 473e
000001b0: 8b39 223e 721c c63d 27cf 4f3e 8862 b4bc
000001c0: b5a5 34be 9bb9 4ebe 3b3e ad3d 9e32 483b
000001d0: 263d 18be 49bc 273e 0c60 213e 6330 f53d
000001e0: 17c9 383e e7de ca3c 8145 babc 8611 9c3a
000001f0: e43a 47be 3b6f 0abe 56ed fabd 76fd 9439
00000200: d647 6e3c 6d67 2ebe 502c 43be 755d 3fbe
00000210: d7d0 3b3e e7d3 debd 3c50 53be 43f1 2f3e
00000220: d19f 78be b57b c43d 4d84 1d3e 0fbd 3dbd
00000230: ef77 43bd 3d00 473e df6c 57bc 643d 383e
00000240: 0ffc 963d 2dc5 7bbe ba47 32be 1fa5 ba3d
00000250: a8b7 fe3d 316e 6abd 5ff4 663c d84c 4c3e
00000260: 8765 7b3e 118b 4b3e 9310 733e cb78 8fbe
00000270: dd7b 2c3c b378 5d3c 5174 873b 2c6f 8b3d
00000280: 84ac c33d 88f2 94be f2ea bebd e4e5 29be
00000290: 5a71 8f3d e39d 793d dcc6 373e d3f1 2cbe
000002a0: b01e ddbd 8294 793c 5476 603e c158 c73c
000002b0: 8ffb 53be ee56 0abd 3680 693d 2b12 243b
000002c0: ec90 613e 0bc6 88be 7612 fd3d abdc b33d
000002d0: 0d95 f63d 6a04 95bd 7838 3d3e 58c7 63be
000002e0: 846e 64be 8e37 1abe 088d a03e c0fa 9dbd
000002f0: faf1 5c3d 8c72 873e 53b0 aabd 1778 9c3d
00000300: 1a97 0ebe 0d85 903e 0dfc 37be c16b 60be
00000310: 633a f6bd ec0f 04be 27f1 123e 4f4b c03d
00000320: 0e08 373e cee2 93be d856 82be eaaf 833e
00000330: 91a9 55be 535a 13be 2fd9 5fbd 2c96 7dbe
00000340: d0b5 01be ea74 4dbd aa2e 313e 4ef3 90be
00000350: 879c d4bd 42ce 9cbe e9b9 34be 224f 7dbe
00000360: 7ad6 93be 45f2 b93d d089 6b3e 288a e83c
00000370: 9549 7ebe 1ac2 bb3d 90f9 9f3c 9ffd 33bd
00000380: 4548 ccbd ecf8 8cbe 35c4 d73d c96a 223d
00000390: bde4 21be a392 e03d ca9f 433d f1d1 e03c
000003a0: 4cdb 75be 0d85 943e 5e7d 3e3e c0f6 52be
000003b0: 4df4 e03c 5ec8 41bc 6eac b7bd 61d3 693e
000003c0: b718 493e 9f7b 30be d8f2 123e 61b3 05bd
000003d0: 9561 443c e947 5ebe 0225 0bbe 5dc9 8abe
000003e0: e6d5 183e cec7 9e3b eff6 c43d 2cda 4e3d
000003f0: 444c 063e e83f e23d 8518 1dbd 1bd5 943e

lstm.bias_ih_l0_reverse f4 [64]
0.13641252 -0.13088608 0.25366852 -0.07661488 -0.059580766 0.27165076 -0.19331409 0.02372131
0.06245423 0.096998416 0.28667438 -0.05469377 0.021315843 0.10339987 0.16039209 -0.105562784
0.09339801 -0.14991784 -0.050028477 -0.15079756 0.20889366 0.060921893 0.16649632 0.086008236
-0.09150949 0.142405 0.028085334 -0.10347631 -0.0062559126 -0.13324475 -0.13049217 0.035005987
0.28822097 -0.24028148 -0.29372638 0.052171774 0.10732709 0.06684328 0.042127017 -0.20258115
0.1954823 0.2569729 0.124040686 -0.1322841 -0.15102448 -0.042771842 -0.015905691 0.19398786
0.18744533 0.2376111 -0.077732965 0.075047575 0.080351956 0.21753298 -0.12188944 -0.027948784
-0.11930188 0.13646236 0.1923753 0.15397872 0.07416709 0.18783064 0.26678446 -0.1742521
00000000: b9af 0b3e 0007 06be d7e0 813e 43e8 9cbd
00000010: f60a 74bd cf15 8b3e 21f4 45be 3153 c23c
00000020: 02d0 7f3d 1ba7 c63d fcc6 923e 9306 60bd
00000030: 909e ae3c 50c3 d33d d33d 243e 4d31 d8bd
00000040: 7547 bf3d 1084 19be a9ea 4cbd ad6a 1abe
00000050: 38e8 553e 3c89 793d 037e 2a3e 1625 b03d
00000060: 5469 bbbd 9ed2 113e 3713 e63c 63eb d3bd
00000070: 66fe ccbb 5071 08be bd9f 05be 7062 0f3d
00000080: b391 933e 590c 76be 4e63 96be 12b2 553d
00000090: 4ece db3d 21e5 883d 618d 2c3d 6f71 4fbe
000000a0: 832c 483e f491 833e 0b09 fe3d 7c75 07be
000000b0: 29a6 1abe 8731 2fbd a74c 82bc c1a4 463e
000000c0: abf1 3f3e 5350 733e 7632 9fbd 8bb2 993d
000000d0: 918f a43d f7c0 5e3e 2ca1 f9bd d9f4 e4bc
000000e0: 8b54 f4bd cabc 0b3e 08fe 443e 99ac 1d3e
000000f0: eae4 973d ad56 403e f997 883e 246f 32be

lstm.bias_hh_l0_reverse f4 [64]
0.12098689 0.28358737 -0.13521126 -0.15783451 -0.12666595 0.007789996 0.24300551 0.19570209
-0.14022787 0.08421465 -0.03871659 -0.011693084 -0.10027923 -0.09969995 0.1652013 0.1677465
-0.0997626 0.15530823 0.23803706 0.05737417 -0.02314692 0.2744976 -0.20664148 0.08272474
0.10888127 0.0824733 0.119475 -0.17764224 -0.21283102 -0.18011305 0.073256195 0.193903
0.18357435 -0.066857815 0.1774594 0.01750057 0.18779427 -0.22566952 -0.13552445 -0.107893534
0.021486605 -0.060767766 0.21588032 -0.20384276 -0.10940828 0.26720336 -0.22245486 -0.07153437
0.15885396 0.06643634 0.16348515 -0.17112976 -0.086018294 -0.13708378 -0.22261618 -0.1499077
-0.078200035 0.29322138 -0.034503374 0.07997866 -0.26821393 0.23297407 -0.089466654 0.06633398
00000000: f9c7 f73d 5d32 913e d274 0abe 5f9f 21be
00000010: b8b4 01be 3943 ff3b 70d6 783e 2166 483e
00000020: e597 0fbe bb78 ac3d 4995 1ebd 5994 3fbc
00000030: 325f cdbd 7d2f ccbd 882a 293e bdc5 2b3e
00000040: 5650 ccbd 1f09 1f3e fdbf 733e 2d01 6b3d
00000050: 9c9e bdbc f38a 8c3e d399 53be 976b a93d
00000060: 25fd de3d c3e7 a83d 4faf f43d d9e7 35be
00000070: 60f0 59be 8e6f 38be 5807 963d 828e 463e
00000080: eafa 3b3e c0ec 88bd ebb7 353e 5b5d 8f3c
00000090: 244d 403e e915 67be ecc6 0abe 49f7 dcbd
000000a0: ad04 b03c 9fe7 78bd bb0f 5d3e 28bc 50be
000000b0: 7311 e0bd e1ce 883e 35cb 63be 9d80 92bd
000000c0: 9daa 223e c70f 883d a768 273e a43c 2fbe
000000d0: 5c2a b0bd b15f 0cbe 7ff5 63be 6781 19be
000000e0: 5727 a0bd 1d21 963e 6953 0dbd dacb a33d
000000f0: 5653 89be c190 6e3e 4b3a b7bd 1cda 873d

hidden2tag.weight f4 [9, 32]
-0.11593576 -0.19252385 0.18015201 0.08367512 -0.053921286 0.18636799 0.1579713 -0.055003237
0.0028239097 0.16657698 -0.18046589 0.11517244 -0.12159859 0.03418684 0.114148654 -0.23114392
0.1869819 -0.092765845 -0.06729041 0.03961216 0.04907027 -0.1374985 -0.12506065 -0.08199881
-0.14136355 0.15655203 0.20477642 -0.13224678 0.094548106 0.16167444 -0.08638856 0.22356758
0.16372994 -6.458257e-05 -0.07205649 -0.008659931 -0.10247399 0.08323692 -0.2328155 0.0810893
-0.15359797 -0.045652136 -0.07422131 -0.19564281 0.038092326 -0.01628682 0.07630933 0.21257295
-0.09930962 0.20986752 -0.06813708 0.08386795 -0.1638484 -0.038945988 -0.05981387 0.14686626
0.13399152 -0.2326413 -0.013722635 0.18275847 0.100794844 0.024813378 0.019571435 -0.10899464
0.2038209 0.027873322 -0.09109075 0.09482602 0.15822434 -0.13543189 -0.01425601 -0.17833266
-0.033734538 0.13012779 -0.013552452 -0.14083676 0.08844971 0.19902802 -0.07203066 0.019001754
0.02476947 0.035512157 0.116996005 -0.054311637 -0.13596128 0.16502999 -0.072583854 -0.06094317
0.00038167622 -0.1528872 -0.2158679 0.0519819 0.02970392 -0.02476056 0.067641184 -0.21251892
-0.08844119 0.024040557 -0.049969323 0.03311548 0.15194237 0.0381136 -0.1722562 -0.12668064
-0.19092509 0.088546224 -0.026775239 -0.21096121 -0.02882565 -0.031079767 -0.10127512 -0.033028338
0.10422448 0.1745188 0.0741427 -0.121496685 -0.075294316 0.24132317 0.09426007 -0.06847575
0.005225004 -0.1729484 -0.13107842 -0.094993785 -0.084258355 0.06258388 0.11648507 0.091550626
0.0030363766 -0.04975612 0.031488027 0.0688562 0.09370864 0.14661483 0.08198263 -0.035663407
-0.0088364985 0.04855129 -0.03561358 -0.0961941 0.027874665 -0.18373653 0.19980663 -0.18685126
0.13972653 0.07968566 -0.098841645 -0.15292574 0.13461682 -0.029755902 -0.042493347 -0.113012746
-0.015964307 0.16415228 -0.08480987 0.12270289 0.056581493 -0.112036824 -0.0153719075 0.032776568
0.16906494 0.013454974 -0.15533832 0.09038855 -0.017314684 0.09194519 -0.21551448 -0.19455975
0.12793979 0.060358576 0.18543793 -0.2185409 0.08865785 0.19102496 0.033818774 0.0057638786
-0.057594735 0.2084971 -0.052713677 -0.13461746 0.112316795 0.1315832 -0.05607924 1.5283731e-05
-0.1255866 -0.14721279 0.03156602 0.016198115 -0.073648706 0.18848687 0.21883814 -0.031701926
-0.06947566 0.19555022 0.06398469 -0.09121645 -0.055853147 -0.18152276 0.05339107 0.09839664
0.058140993 -0.05187301 0.18407227 0.098122716 0.17626132 0.20848104 -0.1842379 0.10257633
0.09889404 -0.07382275 0.12313235 -0.055549126 -0.02917435 -0.09603324 -0.08600266 0.10921602
-0.1668825 0.09508305 0.07074936 0.10034724 -0.08855593 -0.109130256 0.24128588 -0.012626555
0.1449114 0.15554161 0.13186285 0.08265829 0.005297762 -0.118417226 -0.00033948358 -0.028942907
0.1151717 -0.10813588 0.16455242 -0.16139656 0.1747913 -0.10950629 -0.114297666 0.1569567
0.023179363 0.23250043 0.042929392 0.11213345 -0.12092746 0.16854395 -0.029353853 0.12686066
0.15211529 0.028581891 0.065402724 0.21149115 0.042759523 -0.17868477 -0.04298431 0.06333997
00000000: ba6f edbd f924 45be c579 383e dc5d ab3d
00000010: 91dc 5cbd 40d7 3e3e 3ac3 213e 134b 61bd
00000020: 5811 393b 2893 2a3e 0dcc 38be 87df eb3d
00000030: ae08 f9bd 8007 0c3d c5c6 e93d feb0 6cbe
00000040: 2f78 3f3e 05fc bdbd 8ecf 89bd 5c40 223d
00000050: e8fd 483d 68cc 0cbe e60f 00be feee a7bd
00000060: 9bc1 10be 2d4f 203e e9b0 513e b36b 07be
00000070: 70a2 c13d fc8d 253e 7cec b0bd e6ee 643e
00000080: d2a8 273e 8170 87b8 5a92 93bd 62e2 0dbc
00000090: e2dd d1bd 1e78 aa3d 3067 6ebe 2612 a63d
000000a0: c948 1dbe bcfd 3abd 5801 98bd 9756 48be
000000b0: b306 1c3d f06b 85bc 1148 9c3d b9ac 593e
000000c0: d862 cbbd 83e7 563e 748b 8bbd f6c2 ab3d
000000d0: e0c7 27be d485 1fbd 63ff 74bd 1c64 163e
000000e0: 1335 093e 8539 6ebe e7d4 60bc 0925 3b3e
000000f0: 876d ce3d 6d45 cb3c 4654 a03c 9538 dfbd
00000100: 6db6 503e 9856 e43c ca8d babd 2534 c23d
00000110: 9005 223e a8ae 0abe 0a92 69bc d69c 36be
00000120: 3a2d 0abd 3840 053e 1b0b 5ebc 8337 10be
00000130: 1f25 b53d 00ce 4b3e d084 93bd 91a9 9b3c
00000140: 58e9 ca3c 3275 113d 9a9b ef3d e175 5ebd
00000150: 6f39 0bbe 9ffd 283e d8a6 94bd 8c9f 79bd
00000160: b71b c839 768e 1cbe 7a0c 5dbe f9ea 543d
00000170: a355 f33c a8d6 cabc 7687 8a3d 8f9e 59be
00000180: a820 b5bd b4f0 c43c a2ac 4cbd 19a4 073d
00000190: c896 1b3e 021d 1c3d ee63 30be 92b8 01be
000001a0: de81 43be b957 b53d bf57 dbbc 3706 58be
000001b0: c523 ecbc ff9a febc 5569 cfbd b948 07bd
000001c0: a573 d53d 0eb5 323e 21d8 973d 41d3 f8bd
000001d0: e833 9abd 6c1d 773e 6c0b c13d 043d 8cbd
000001e0: 8336 ab3b 6319 31be 6c39 06be 1a8c c2bd
000001f0: a58f acbd fa2b 803d b98f ee3d e57e bb3d
00000200: f2fd 463b 13cd 4bbd 97f9 003d 7b04 8d3d
00000210: 51ea bf3d 3322 163e 82e6 a73d cb13 12bd
00000220: f6c6 10bc b8dd 463d 8cdf 11bd 6a01 c5bd
00000230: 6959 e43c 6e25 3cbe 1c9a 4c3e f055 3fbe
00000240: 7914 0f3e 3c32 a33d 7d6d cabd 9198 1cbe
00000250: fed8 093e a6c2 f3bc 810d 2ebd 3a73 e7bd
00000260: 94c7 82bc 8917 283e ccb0 adbd a74b fb3d
00000270: ffc1 673d 9073 e5bd 74da 7bbc b940 063d
00000280: 5c1f 2d3e 4072 5c3c 0211 1fbe a21d b93d
00000290: 86d7 8dbc c34d bc3d d4af 5cbe ac3a 47be
000002a0: a602 033e 8e3a 773d 71e3 3d3e 30c9 5fbe
000002b0: 3f92 b53d 0c9c 433e 8e85 0a3d ebde bc3b
000002c0: 75e8 6bbd 4480 553e 4cea 57bd 29d9 09be
000002d0: 5906 e63d bfbd 063e 58b3 65bd 9035 8037
000002e0: c699 00be f3be 16be 5f4b 013d e9b1 843c
000002f0: 22d5 96bd b402 413e 1b17 603e e1d9 01bd
00000300: 4149 8ebd 513e 483e 680a 833d b1cf babd
00000310: 45c6 64bd 1ae1 39be 98b0 5a3d 2d84 c93d
00000320: 4025 6e3d cb78 54bd 717d 3c3e 90f4 c83d
00000330: d97d 343e 0e7c 553e dca8 3cbe 8a13 d23d
00000340: f588 ca3d 6230 97bd d02c fc3d 7b87 63bd
00000350: 0cff eebc 13ad c4bd 2a22 b0bd a6ac df3d
00000360: 3fe3 2abe e7ba c23d 0ae5 903d db82 cd3d
00000370: d05c b5bd af7f dfbd a513 773e 9cdf 4ebc
00000380: a763 143e 4d46 1f3e 0e07 073e c048 a93d
00000390: d998 ad3b bb84 f2bd b7fc b1b9 ad19 edbc
000003a0: 24df eb3d 5876 ddbd 6e80 283e 2445 25be
000003b0: 7efc 323e d544 e0bd e514 eabd 42b9 203e
000003c0: a6e2 bd3c 9814 6e3e bbd6 2f3d 39a6 e53d
000003d0: d1a8 f7bd c996 2c3e 7e77 f0bc c3e7 013e
000003e0: 1cc4 1b3e 9224 ea3c ddf1 853d 2391 583e
000003f0: 9c24 2f3d 24f9 36be 5110 30bd 63b8 813d

hidden2tag.bias f4 [9]
-0.005331924 0.047597155 0.02652648 -0.09546435 0.10062258 -0.07895869 -0.22207256 -0.09286152
-0.07496781
00000000: 6cb7 aebb 3cf5 423d 104e d93c d082 c3bd
00000010: 3613 ce3d 18b5 a1bd fd66 63be 2e2e bebd
00000020: b988 99bd

crf.start_transitions f4 [9]
0.056192 0.03694636 -0.14757961 -0.011294584 0.0062055397 0.013661009 -0.010085616 -0.144084
-0.06293827
00000000: 9529 663d 1155 173d 1c1f 17be eb0c 39bc
00000010: d757 cb3b 6dd2 5f3c 243e 25bc c28a 13be
00000020: c8e5 80bd

crf.end_transitions f4 [9]
0.0056586796 -0.054092653 -0.09011019 0.027593123 0.04366673 -0.012162792 -0.060803756 -0.047258217
0.015130332
00000000: 726c b93b 4290 5dbd b18b b8bd f90a e23c
00000010: e3db 323d 7246 47bc 5c0d 79bd d591 41bd
00000020: 36e5 773c

crf.transitions f4 [9, 9]
0.026349457 -0.014940977 -0.11842648 0.081672214 -0.080010176 -0.026884083 0.0026245858 0.0035785523
-0.13520847 -0.0048940536 -0.14845456 0.04761496 -0.094869606 -0.04401687 -0.09912338 -0.13004684
-0.061281532 0.035536285 -0.094881326 0.007596866 -0.044980206 -0.055184774 -0.10283394 -0.0656488
-0.14822857 -0.049621668 0.017944964 0.032626133 0.040716264 -0.08806145 -0.052330635 0.060390018
-0.124470346 -0.03738662 -0.13785559 -0.04258491 0.034834534 0.022912223 0.022657815 -0.014366353
0.13034478 -0.0012626204 -0.06901878 3.761529e-05 -0.0033177151 -0.023484012 0.038959347 -0.034927927
-0.052415323 -0.044247825 0.06646863 -0.14559548 -0.045291033 0.019172745 -0.02336268 -0.020719262
-0.14693931 -0.048719414 -0.14972709 0.03481799 -0.053607397 -0.032007217 -0.08370736 0.03635842
-0.06004612 0.049033605 -0.088674664 -0.11711727 -0.015394029 0.003308528 0.035729546 0.041578237
-0.014455767 -0.11325449 -0.04743687 -0.06720491 -0.11817646 -0.12586409 0.019570444 -0.1356105
-0.14870866
00000000: d1da d73c 00cb 74bc 9589 f2bd c343 a73d
00000010: 60dc a3bd 023c dcbc 3e01 2c3b 2586 6a3b
00000020: 1774 0abe 4c5e a0bb 7904 18be e807 433d
00000030: ff4a c2bd 094b 34bd 3301 cbbd 002b 05be
00000040: 5802 7bbd 7f8e 113d 2451 c2bd 22ef f83b
00000050: 2a3d 38bd 6e09 62bd 9a9a d2bd e172 86bd
00000060: 3bc9 17be 1740 4bbd 5101 933c fba2 053d
00000070: 19c6 263d 9059 b4bd a658 56bd 865b 773d
00000080: 4fea febd b622 19bd 042a 0dbe 846d 2ebd
00000090: a8ae 0e3d 6ab2 bb3c e29c b93c da60 6bbc
000000a0: 1a79 053e 837e a5ba b859 8dbd 1cc5 1d38
000000b0: 066e 59bb 8b61 c0bc d693 1f3d 9610 0fbd
000000c0: 73b1 56bd 353d 35bd b520 883d fb16 15be
000000d0: 1783 39bd 2910 9d3c 1763 bfbc 71bb a9bc
000000e0: 4277 16be 028e 47bd 0f52 19be 4f9d 0e3d
000000f0: 6e93 5bbd 001a 03bd c46e abbd 91ec 143d
00000100: ecf2 75bd 76d7 483d 109b b5bd 2edb efbd
00000110: 3d37 7cbc e4d3 583b 2559 123d f14d 2a3d
00000120: e2d7 6cbc f8f1 e7bd 2a4d 42bd baa2 89bd
00000130: 8006 f2bd 84e2 00be 3252 a03c 7bdd 0abe
00000140: 1547 18be
